model/NoisyNetDQN_14999k.pth (torch, 77586 bytes, 10 tensors)

Q.0.weight f4 [128, 2]
00000000: ce71 c9be 0052 993a e9f9 92be df9a 8f3e
00000010: 951c ce3e 6d71 93be f3b9 d53d c15e ee3e
00000020: f8ff 373e db9d c7be b78f 223f cee9 e03e
00000030: 891a f23c 3a0c b63d f6df 093d 85b5 d33d
00000040: c4e9 10be 543b 0abf 881c 973e 724f f9be
00000050: d10e b5be 3791 db3e a3d3 06bf 6753 c93e
00000060: d171 223f 360a bd3e 779a 0f3e 8681 88be
00000070: f9a9 b43d e26c 7c3d c129 acbf 85af a23d
00000080: f57f 043f d372 3dbf 6598 4e3e 3c31 aabd
00000090: bb75 073f d087 45bf 31a0 85be 87fa b63e
000000a0: 109a ee3d b828 09be 53e8 28bf c45a b7be
000000b0: a152 823e 19c5 333e c188 c9be 6a68 b6be
000000c0: 4887 24be 18ad babd c578 293f 7a51 37bf
000000d0: 5566 293e 5294 2a3e e20b d03b 94e3 483e
000000e0: d383 a3be 6f12 dd3e 38ec 24bf 602c 02bd
000000f0: e36f ff3e 447b 11be 6c21 033f af7d 303e
00000100: 049c f3be 4db4 f93e 3a56 1fbf a35d 393e
00000110: 66c2 abbe 40e5 e13e 746a 42be dd51 bb3d
00000120: e05d 0f3f 74eb a7be 3429 0abf 2e89 cc3d
00000130: 3409 69be 70c7 1ebd 121d d6be fba9 20bf
00000140: d697 dbbe 5ffe b03e 5b47 e6be 263b cc3e
00000150: dea0 2ebf 616e 033f 5e8a c2be b202 c43e
00000160: 844b 273f d7a5 23be 5801 2d3f 9d68 f2be
00000170: eb19 143f 1534 8b3e 15fa e53e 0e18 91be
00000180: 98e1 7fbe b040 ff3d 6860 7c3f 07a8 0abf
00000190: 7e48 8c3e 72bb ecbe 44e0 94be f021 70bf
000001a0: 8ccb fdbe 1ec2 123f 6841 cb3e a9f7 d1bc
000001b0: 20e3 33be 44dd 34be 70e4 2e3e 736d 13bd
000001c0: 180c bdbc 3c04 b53e c3c9 1a3f 8ac2 4fbf
000001d0: fd47 e73e e62c ea3d c556 923e 5fef f4be
000001e0: ef60 423f 70ea 0ebf 2d77 bebe 100c bbbd
000001f0: 6ce8 243f ff86 a8be afe4 12bf fa37 a1be
00000200: fc96 003f 978f 053f 8ada e13d df6b 793e
00000210: ef6c 85be 61e9 913e 94ff 2cbe d4bf d8be
00000220: c965 0d3f 7f2a aabe 5166 b03e e7c3 48be
00000230: d5f1 f13e a5fd e03e c3a4 1ebf 31ba 12bf
00000240: ee8b 903e 3f22 b1be 2534 bb3e 8e5b 48be
00000250: 742a c4bf 9ffc 8b3d 666c 5bbf 9f51 053f
00000260: d08e cc3e d554 22bf ff13 193f e212 5fbf
00000270: cc04 213e ac97 b53e 76d7 07bf 9f3f f03e
00000280: e09e efbc 38a1 23be 1561 45bf a94f dc3e
00000290: 92a9 073f 9283 b53e 735c 8c3e 56fd afbd
000002a0: ab73 073f 4579 44bf a410 f83e 2d7f 33bf
000002b0: c9bb c43e b7a3 93bd fe37 913e 93bc bbbb
000002c0: f20d af3d e1db a9be e656 c03e d905 2abf
000002d0: f1ef 043f 0461 a1be 0bdf f93e 34be 89be
000002e0: 819b 34bf dc47 06bf f164 32be fe7f eb3d
000002f0: 5cea 97bd 4631 523e 001f fbbd 9f39 c3be
00000300: bb6b 193f 66ed ecbe 692c f83e 8cc3 7b3d
00000310: 67c4 993c 812f 7d3c 5487 89bc 9d02 ee3e
00000320: 61b0 b2be 1d91 543e d82f 97bf 5b04 d33c
00000330: 7599 5fbe a157 2a3e d62a 5eba aa9a 6c3d
00000340: c763 533e 3556 edbe 06a8 0f3e ae4e a0bf
00000350: 0a90 9e3e b6af 623e d823 163f b893 5bbf
00000360: 4ac4 00bf a427 afbe 9e10 3ebe c000 cf3e
00000370: 96c3 303f a622 7dbf 1eb7 25bf 67ed cebe
00000380: fcfc 1ebf 601f ffbd 8f2b e0bd 9d13 64bf
00000390: 1d69 eebe 033f 9e3e c3a5 f13d 282e ef3d
000003a0: c91f df3e 5e51 7ebe 2e8e 0dbf a516 16bf
000003b0: 4cb3 2f3f 2221 c0be a459 6c3e 8d7c f4be
000003c0: 43a9 223f 16b8 f6be 394b 983e 3eb5 1fbe
000003d0: dcbb e23e 0eb6 36bf 15c4 113f 79ce 4ebf
000003e0: d846 813e 46d3 c8bd e953 30bf 2cbf c13e
000003f0: a810 bcbe 55e8 aabe 026e 82be 6ee0 37bf
-0.3934464 0.0011697412 -0.2870629 0.28047845 0.4025618 -0.28797475 0.104358576 0.46556666
0.17968738 -0.38987622 0.6350054 0.4392838 0.029553669 0.08889051 0.03366085 0.103373565
-0.14151675 -0.5399678 0.29513955 -0.48693424 -0.35362867 0.42884228 -0.5266668 0.39321443
0.6345492 0.36921853 0.14023767 -0.2666132 0.08821482 0.061627276 -1.3450242 0.07943634
0.51757747 -0.7400333 0.20175321 -0.08310172 0.5291402 -0.7716036 -0.2609878 0.35738012
0.11650479 -0.13394439 -0.659795 -0.35811436 0.25453666 0.17555656 -0.39362147 -0.35626537
-0.1606723 -0.09115046 0.66199905 -0.716087 0.16542943 0.16658142 0.006349073 0.19618064
-0.3193651 0.43178126 -0.6442294 -0.0317806 0.4989005 -0.14207178 0.5122287 0.17235444
-0.47579968 0.4877037 -0.62240946 0.18102126 -0.33546752 0.44120216 -0.18985921 0.091464736
0.56002617 -0.32796824 -0.5396912 0.099871024 -0.22757417 -0.038764417 -0.41819054 -0.6275937
-0.4288928 0.3456907 -0.44976315 0.39888877 -0.68214214 0.513403 -0.3799619 0.38283306
0.653496 -0.15981232 0.67580175 -0.4734544 0.5785205 0.27188173 0.4491736 -0.28338665
-0.24988401 0.1246351 0.98584604 -0.5416264 0.27399057 -0.4623676 -0.2907735 -0.93801785
-0.49569356 0.5732745 0.39698339 -0.025630789 -0.1756711 -0.17662531 0.1707933 -0.03599305
-0.023077056 0.35354793 0.60464114 -0.8115622 0.4517211 0.11434345 0.28581825 -0.47838876
0.7592916 -0.55826473 -0.372003 -0.0913316 0.6441715 -0.32915494 -0.57380193 -0.3148802
0.50230384 0.52172226 0.11028011 0.24357556 -0.26059672 0.28498366 -0.1689437 -0.42333853
0.55233437 -0.33235547 0.3445306 -0.19605981 0.47254816 0.43943515 -0.61970156 -0.57315356
0.28231758 -0.3459644 0.3656322 -0.19566175 -1.5325456 0.06835293 -0.8571228 0.5207767
0.39952707 -0.63410693 0.59796137 -0.8713819 0.15724486 0.3546728 -0.5306314 0.4692354
-0.029250562 -0.15979469 -0.7710126 0.43029526 0.5299312 0.35451943 0.27414283 -0.08593242
0.5291087 -0.7674754 0.48450196 -0.7011593 0.3842452 -0.072089605 0.2836303 -0.005729267
0.08547582 -0.33175567 0.37566298 -0.6641517 0.5192862 -0.3151933 0.4880298 -0.26902926
-0.7054978 -0.524534 -0.17421319 0.11499022 -0.074177474 0.20526609 -0.12261772 -0.381299
0.5993001 -0.4627487 0.48471382 0.061465785 0.01877041 0.01545322 -0.016788162 0.4648637
-0.3490019 0.20758481 -1.1811476 0.025758913 -0.21835883 0.1663499 -0.0008475011 0.057764687
0.20643531 -0.46354833 0.1402894 -1.2524011 0.30969268 0.22137341 0.58648443 -0.85772276
-0.50299513 -0.3420993 -0.18561026 0.4043026 0.6904844 -0.98880994 -0.6473254 -0.404155
-0.62104774 -0.12457156 -0.10945808 -0.8909243 -0.4656457 0.3090745 0.11799195 0.116787255
0.43578938 -0.24835727 -0.55295074 -0.586283 0.6863296 -0.37525278 0.2308107 -0.47751275
0.6353952 -0.4818732 0.2974489 -0.15596482 0.4428395 -0.71371543 0.5693982 -0.807838
0.25249362 -0.09805922 -0.68878037 0.37841165 -0.36731458 -0.3338038 -0.25474554 -0.7182683

Q.0.bias f4 [128]
00000000: 46ee 26bf 35d3 6d3f be1e e8be df91 b33f
00000010: 54a1 983f a727 d6bf 81d4 d8bf c72b 593f
00000020: 24b7 00bf 2294 6c3f 98e0 a23f d607 30be
00000030: e834 0a3e 22a2 3e3f a4a9 bdbf 538c 99bf
00000040: 2f6d 713f 60b4 c43f 060f 8a3f 0f70 f9be
00000050: 645d 15bf 5cab e6be 3426 9abf f1cb a93f
00000060: f717 b5be 226e 593f 959d a1bd 9efd 35bf
00000070: 4d8b 87bf fe97 01bf 7125 1c3f 64e5 60bf
00000080: 8eeb dbbe 0687 c0bd a716 873f de4d b53f
00000090: d628 0dbc c453 afbe 0e7b c0be c80b 0cbf
000000a0: a02c 7fbd cab2 8a3f 29a9 0cbf d3be 5e3f
000000b0: a8dd 5ebf a93d a63e 2377 a4bf 7b6c 423f
000000c0: 6a95 843e d300 eebe 278c e9be 7ac2 a33f
000000d0: 3d8a b83e 3d2c c7bd eff2 e8be 80bd cebf
000000e0: 12bb 75bf 4597 623f eb22 8bbf d2c0 563f
000000f0: c068 803f b97f 17bf 0955 4ebf 79cc 02bf
00000100: 9337 22bf f209 6cbf 23b7 e83f 687f a9be
00000110: 913c 993f 2e94 903f 5599 babd 9e25 c0be
00000120: 5274 42bf f7ba 44bf 9c83 9bbf acd0 06be
00000130: 5a44 8a3f bf5e 8d3f 92ae 07bf 338e 593f
00000140: ecf4 f4be 1cc7 393f 06b5 963d 8c00 a63f
00000150: 8be5 783f a8f4 833f 7e1c 2e3e 6c2f 783e
00000160: 6b9b a03f b07f 2ebf eef3 d23d a0a4 48bf
00000170: f97d 973f 51fe 603f e77d ae3e b7b8 bcbe
00000180: 7d20 e1be 6e85 88bf b5b4 823f cb8c ac3f
00000190: 2f33 cd3f b5e7 87bf 2aae ec3e 9d11 92bf
000001a0: 038b 873f c7ad 8c3f acc5 9f3f c2f8 9e3f
000001b0: b3f9 473f 465b 1bbf f0c4 a23f eea0 18bf
000001c0: fea5 fbbe e2e1 833f fd5c 0d3f 3419 87be
000001d0: fe43 683f 2cec 1dbe 3af3 e5bd edac b53f
000001e0: f750 a13e 291a 983f c988 9f3f 5384 5b3f
000001f0: 1635 c13f d095 363f ce72 5dbe 924c 813f
-0.65207326 0.929004 -0.45335954 1.4028891 1.1924233 -1.6730851 -1.6939851 0.84832424
-0.5027945 0.9241353 1.272479 -0.17190489 0.13496745 0.74466145 -1.4817395 -1.1995949
0.94307226 1.5367546 1.0785835 -0.48718306 -0.5834563 -0.45052612 -1.2042909 1.3265363
-0.35369846 0.84933674 -0.078913845 -0.71090114 -1.0589386 -0.50622547 0.6099463 -0.8785002
-0.4295315 -0.09400754 1.0553788 1.4164388 -0.008615693 -0.34243596 -0.37593883 -0.54705477
-0.062298417 1.0835812 -0.5494562 0.87009925 -0.8705697 0.32468918 -1.2848858 0.7594678
0.25895244 -0.46485004 -0.4561474 1.2793725 0.36042967 -0.09725235 -0.45497844 -1.6151581
-0.9598857 0.8851207 -1.0870031 0.8388797 1.0031967 -0.59179264 -0.80598503 -0.5109325
-0.6336605 -0.92202675 1.8180889 -0.33105016 1.1971608 1.1295221 -0.09111277 -0.375287
-0.7595874 -0.76847786 -1.2149539 -0.1316554 1.0802109 1.1044539 -0.5300075 0.84982604
-0.4784311 0.7256944 0.07358746 1.2968917 0.97225255 1.0309038 0.17003056 0.2423684
1.254743 -0.68163586 0.10300432 -0.783762 1.1835319 0.87888056 0.3408043 -0.36859676
-0.439701 -1.066572 1.0211397 1.3480467 1.6031245 -1.0617586 0.46226627 -1.1411625
1.0589298 1.0990533 1.24822 1.2419665 0.78115386 -0.6068615 1.271635 -0.5962056
-0.4915008 1.0303309 0.55220014 -0.26386416 0.9072875 -0.15422124 -0.112280324 1.4193398
0.31507084 1.1882983 1.2463619 0.85748786 1.5094326 0.71322346 -0.21625826 1.0101492

Q.2.weight f4 [128, 128]
00000000: 7324 ae3d 1bd5 04bd 9cfb 92bd 98e1 62bd
00000010: b463 e03c 75f7 56bd 1819 913c e43a ee3c
00000020: 88d5 ab3c 53ce a23d 3429 dd3c 32a3 373d
00000030: df10 4ebd f6a8 64bd fb34 9c3d 2829 0cbc
00000040: adef ab3d b6fe 323d ce13 08bd 7afc 5cbd
00000050: 4025 a4ba ae2c 643d 2b14 a03d f296 633d
00000060: 029e 7b3d d201 7c3d c26f 7a3d 0069 bb3b
00000070: 0d2f 96bd 1a07 33bd bb6a 11bd 7e1d d8bc
00000080: 3198 903d 808c 0f3c aa71 9abd e0ff 54bc
00000090: aacc 6a3d 6436 eb3c bde8 b33d c53f b43d
000000a0: 7c00 aabc cb5c 3abd 44f3 46bd 6bd2 b03d
000000b0: 9ea5 46bd 616a a93d c358 803d f273 e7bc
000000c0: c854 303c b8b8 40bd 6eb1 aebd 9fcf a23d
000000d0: a815 bcbc 1e59 1f3d 3aeb 743d 7ec7 5dbd
000000e0: bc0a e03c 38cd d6bc 36b7 8cbd a7ed 9abd
000000f0: 2754 993d 4094 8abb c859 91bd 32c1 78bd
00000100: 4cd3 b3bd 0b1b 42bd 276c 8bbd 362f e5bc
00000110: d60a 143d a645 533d 7c5e 57bd 745a 90bd
00000120: c8f5 0cbc 7267 673d 209c 48bb 00c8 6b38
00000130: 00eb 5abb 2412 e7bc 04eb 97bd 0fe2 3abd
00000140: 5bc4 8ebd 86e5 5d3d c0c4 bd3a 663e 90bd
00000150: 88d1 0e3c 045c 0c3d 6e3d 3c3d 1975 32bd
00000160: 198c 9cbd 8aed 483d 88ae 2bbd 7225 323d
00000170: 30ba 0e3c 20f4 9d3c da6a 3e3d 5e01 14bd
00000180: be87 2e3d 222f 753d dc9b d13c 30e4 e83c
00000190: 19e7 40bd 365a 573d c433 063d 53db 09bd
000001a0: c0a7 2c3c 5833 2ebd 60e1 b7bc e80a c9bc
000001b0: 868c 2c3d 1ca0 dd3c f69d 0fbd dad9 75bd
000001c0: 4a86 273d 2200 0dbd 1083 c13c b398 a23d
000001d0: f318 26bd 1a50 313d b70b 953d 21f1 803d
000001e0: 10f9 78bc 58a8 ee3c e879 3e3c f893 b93c
000001f0: a435 b1bd bea4 3cbd 4a56 8ebd 10bf 9fbd
00000200: 2601 3bbd 5b6a 86bc ee23 5b3e 0834 7fbb
00000210: 7d95 19be ad9f adbd 4fc9 9abe 9759 b83c
00000220: ca8c 01bd f4fa fcbe bbc4 8abb 0dcf 693d
00000230: 13e5 dcbc 24aa efbd 3a19 8abe f6de b43e
00000240: ee46 3fbf d058 0c3e 12e8 98be 444b 613d
00000250: 4eb4 693d ee39 4f3d da32 57bd e4e3 41be
00000260: 2ce7 dd3c 3aaf 30bf 28f1 85bd 9b0c 203d
00000270: 9a17 e3bd ab7d a33d be4d 8f3d 3f75 8e3c
00000280: ebe5 c6bc 5354 263e 5457 913d 2ec9 c73e
00000290: 6546 89bc 774c 593d 789e 8ebd 0780 98bd
000002a0: cf85 45bd 8f5d 60bd d295 a9bd b5ba 283b
000002b0: 9d79 e9bd f5a9 da3e 46b8 92bd 619c 7cbd
000002c0: 7a90 203d fcba 5f3e 85d9 92bd 8eef 42be
000002d0: 238e 92bd 7b68 2dbd 6026 5abd 1432 81be
000002e0: e208 41bd 5e10 57bf 20d0 f8bd 8ff6 bfbe
000002f0: 8f72 0dbf 17cf abbd c483 40be 735c 823d
00000300: 93a0 c23c 90d9 c3bd c5dc 0d3d c438 ca3c
00000310: aff4 8c3f 0f27 6d3f fad2 123d 672a 933d
00000320: b04f 58bd fe72 46be 2582 aa3e 383f 07bd
00000330: a86f a1be 9432 ccbe 2971 36bd b764 a83d
00000340: 7cc3 81bd 460f 5d3d 7706 edbc 12db 623c
00000350: 05d6 acbe 1cfb acbe dfc7 3ebd 895d 203d
00000360: 0f7c 88be 2085 5abc 2e6f 1a3d 5cec c3bd
00000370: 3b23 9cbd d27a 1ebd e622 043d f7e6 a83d
00000380: 101e 3f3e c11f 47bc 67e1 ae3c a6f2 49bc
00000390: 4f6c 263f 482b e43d 71a2 6d3d 53d9 62be
000003a0: ffbf 34be 5895 d1bd 2d9c a93d a5d2 89be
000003b0: 4968 263d c568 a0bd 42fa 97be f0b2 7c3c
000003c0: e910 903d f6c2 1ebe 0f0e e43c e9a9 8e3d
000003d0: 4ba6 653f e264 8ebd 4e83 47bc 3ff0 b0be
000003e0: 3b44 5b3c ffcf 823f b39f 82be 241e 4cbf
000003f0: 5eff 1abc aa99 edbb 2ff2 b0bd 9085 eebd
0.08503046 -0.032429796 -0.07176897 -0.055390924 0.027391292 -0.052482087 0.017712161 0.029080816
0.020975843 0.079495095 0.026997186 0.04483337 -0.05030906 -0.055825196 0.07627293 -0.008554734
0.08395324 0.043699943 -0.033222012 -0.053951718 -0.0012523308 0.055706672 0.07816347 0.055563875
0.061429985 0.061525173 0.061141737 0.005719304 -0.07333193 -0.043707944 -0.035502177 -0.02638125
0.07060278 0.008761525 -0.07541211 -0.0130004585 0.05732409 0.028712459 0.08784626 0.088012256
-0.020752184 -0.04549865 -0.04857184 0.08633884 -0.04849779 0.08272243 0.0626693 -0.02825353
0.010762401 -0.04705116 -0.08529936 0.07949757 -0.022959545 0.03890335 0.059794642 -0.05414533
0.027348869 -0.026220903 -0.06870882 -0.0756486 0.07486754 -0.0042290986 -0.070972025 -0.06073112
-0.08780536 -0.04738907 -0.06807738 -0.027976613 0.036143146 0.051580094 -0.05258034 -0.070485026
-0.008603521 0.056495138 -0.0030610636 5.621463e-05 -0.003340423 -0.028206892 -0.074178725 -0.045625743
-0.069710456 0.05417397 0.0014478192 -0.070431516 0.008716948 0.03426744 0.04595702 -0.043568704
-0.07643909 0.04905466 -0.041914493 0.043492742 0.008711383 0.019281447 0.04648862 -0.036134116
0.042609923 0.059859402 0.025587015 0.02842912 -0.047095392 0.052576266 0.03276421 -0.03365643
0.010538042 -0.042529434 -0.022446334 -0.024541333 0.0421262 0.027053885 -0.035062753 -0.060022213
0.040899552 -0.034423955 0.023622066 0.07939281 -0.040551137 0.04328928 0.07277625 0.06295992
-0.0151961 0.029133007 0.011625744 0.022653565 -0.08652809 -0.046055548 -0.06950052 -0.07800114
-0.045655392 -0.016408136 0.21400425 -0.0038940925 -0.14998432 -0.08477721 -0.3023171 0.022503657
-0.031628408 -0.49410212 -0.004234878 0.057082225 -0.0269647 -0.117023736 -0.2697237 0.35326356
-0.74717605 0.13705754 -0.29864556 0.05500342 0.057056718 0.050592355 -0.05253873 -0.1893459
0.02708777 -0.69017375 -0.065401375 0.03907452 -0.11088486 0.07982954 0.0699725 0.017389892
-0.024279555 0.16243105 0.07096735 0.39020675 -0.0167572 0.05305144 -0.06963819 -0.07446294
-0.048223313 -0.054776724 -0.08280529 0.0025746052 -0.11400149 0.42707792 -0.071640536 -0.061672572
0.039200284 0.21848673 -0.07170395 -0.19036695 -0.07156017 -0.04233597 -0.053259254 -0.2523352
-0.047127612 -0.8400935 -0.12149072 -0.37492797 -0.5525293 -0.08389109 -0.18800265 0.063652895
0.023758208 -0.09562981 0.03463437 0.024685271 1.1012172 0.92637724 0.035845734 0.07185822
-0.05281037 -0.19379804 0.33302417 -0.033019274 -0.315305 -0.39882338 -0.04454151 0.08222335
-0.06336114 0.053969644 -0.028933747 0.013846176 -0.33757034 -0.3378533 -0.04657733 0.039151702
-0.2665715 -0.013337404 0.037703685 -0.09566566 -0.07623907 -0.03869135 0.032259844 0.08247178
0.18663812 -0.012153567 0.021347715 -0.012325918 0.65009016 0.11141068 0.058016244 -0.22153215
-0.17651366 -0.10233563 0.08281741 -0.26918522 0.040626798 -0.07832483 -0.2968312 0.015423521
0.07034475 -0.15504059 0.027838735 0.069660015 0.8970687 -0.069528356 -0.012177302 -0.34558293
0.013382967 1.0219725 -0.25512466 -0.7973349 -0.009460298 -0.007250984 -0.08639943 -0.11646569

Q.2.bias f4 [128]
00000000: 7ca7 7abd bec1 053f 5e65 28bd 97e4 13bd
00000010: 2ef3 b83c 84ae 853f 7090 4e3f 0f70 aa3d
00000020: f66f 9ebd 28b2 6f3f d1e1 343c 7cb2 8c3c
00000030: 6055 6f3c f818 553f 1274 453c 0fbf a9bd
00000040: 54b4 0c3d e597 e63e ea70 023f 5266 8dbd
00000050: 1873 d63c a4f6 aebc 6661 9dbd 7cae e8bd
00000060: 7cdd 80bc b30a 00bd 37ca 9c3f 1402 d0bd
00000070: 1418 e93e 73c0 a63f 5553 673f bb01 66bb
00000080: f94f bebd 0843 cdbd 6bb3 8ebd 1c51 e13c
00000090: 8c88 b3bd 44d5 903e 3730 bc3c 5c3d 91bd
000000a0: 4d9f 3abf 7ae8 163e b25b 963b 631e 963d
000000b0: 72a6 12bd 9ead 633f e5e2 423f e121 abbc
000000c0: baae 353a 9afe 813e 8c72 aebd 8296 bd3e
000000d0: a929 6bbd a0ec 6b3f 41b2 633d e8b9 983f
000000e0: c4d4 25bd 5321 053f 2567 a4be f019 63bc
000000f0: 6fff dfbd 812a 4e3f 86c9 17bf b3ab ab3e
00000100: 96c9 b63e 2798 6b3d 8b79 adbd 73e9 9cbe
00000110: 40aa 923f 752b a83f 0d0e d8be 0f5d 87be
00000120: b3a6 3f3e e011 bfbc 6591 403f 6ce0 903f
00000130: 5026 3a3d da9c 333d 8040 40bd 1cb0 243d
00000140: a04d f2bb 217f 71bd 20d3 0bbd df33 25bd
00000150: 7f2f 1d3d 2a3d 6ebc 66a8 01bf 2799 c4be
00000160: 42a6 b33f a81b 733c ae10 593f b8c4 2a3f
00000170: 0d88 053e f8ac 493f 4bc6 f2be a980 d23e
00000180: 4e15 e33e 8236 433d 5a60 c13d 25e0 00bd
00000190: d375 4ebd a87b 74bd 7db8 743f 5315 153c
000001a0: a7a2 853d 2562 c6be a90f 0a3e 6e23 ba3c
000001b0: e10d 9dbc d286 d3bd 1f05 6e3f bd7e 843d
000001c0: f299 533e ba8a fdbc b85b 513c 524a a63f
000001d0: bab6 83bd dd7c 183e 7dce fc3c 21d4 c0bd
000001e0: e34c c73a 4224 38be 70a9 873f b7f9 9b3d
000001f0: dadb 1b3d 6bde f33d 6a83 0c3f 6af8 5d3e
-0.06119488 0.5224875 -0.041112296 -0.036106672 0.022576895 1.0443883 0.80689144 0.08322155
-0.077361986 0.9363122 0.011040167 0.017174952 0.014607757 0.83241224 0.012051599 -0.08288395
0.03435166 0.4503776 0.50953543 -0.06904282 0.026177928 -0.021357842 -0.07684593 -0.11361405
-0.015730612 -0.031260204 1.2249211 -0.10156646 0.45526183 1.3027481 0.9036153 -0.0035096246
-0.09292597 -0.10022551 -0.06967815 0.027504496 -0.087662786 0.2828771 0.02297221 -0.070917815
-0.72899324 0.1473712 0.0045885677 0.073300146 -0.035803266 0.88936794 0.76127464 -0.020890178
0.00069306383 0.25389558 -0.08517942 0.3702889 -0.057412777 0.92157936 0.055589918 1.1931734
-0.040486112 0.52003974 -0.32109943 -0.013861164 -0.10937392 0.80533606 -0.59291875 0.33529434
0.35700673 0.05751815 -0.08470448 -0.30646858 1.1458206 1.3138262 -0.4219822 -0.26438186
0.18715934 -0.023323953 0.75221854 1.1318488 0.045446694 0.043850757 -0.046936512 0.040207013
-0.0073945075 -0.05895913 -0.03413689 -0.04033267 0.038375374 -0.01454095 -0.5064758 -0.38398096
1.4035113 0.014838137 0.84791076 0.6670642 0.1304018 0.78779554 -0.4741691 0.41113785
0.44352192 0.047659405 0.09442206 -0.03146376 -0.050405335 -0.05968824 0.95594007 0.009099322
0.06525164 -0.38746753 0.13482536 0.022721972 -0.019171657 -0.10328449 0.92976564 0.06469486
0.20664194 -0.030949939 0.012778215 1.2991431 -0.06431337 0.14891382 0.03086018 -0.094154604
0.0015205409 -0.17982581 1.0598583 0.07615989 0.038051464 0.11907657 0.5488802 0.21676794

Q.4.weight_mu f4 [4, 128]
00000000: 61a1 aebd 5de2 9a3d bcae 4a3d 3ee1 b2bb
00000010: 0752 173c 371b 543f 89f6 e53e 4872 73bc
00000020: a076 87bd 2a70 2b3e 6783 b23d 6088 88bb
00000030: 9335 35bc cb0d e03d 5b3b bcbd 222b 963b
00000040: 9d40 3abd 4255 643d f3c3 0a3e 7008 f03b
00000050: 7615 c0bd 6c00 fb3c 8188 973a 25b4 aebd
00000060: 18ec 16bc fa25 95bd 98b5 073f b913 babd
00000070: a380 7abe f224 e83e de69 3b3e 6ba5 a4bd
00000080: 7637 743c ed9d 0e3d 8490 c6bb 2c93 963c
00000090: b3b4 a83d ccf4 503e 6819 823c 48c7 c33c
000000a0: 3d52 bfbe 1fec 3f3e f04b 953c 7638 b4bd
000000b0: 7a19 90bd 9c9b 8fbe e51d ab3e 83df e0bc
000000c0: d2da a83c 7af6 f4be 3506 11bd ee9d 1f3e
000000d0: bb61 92bd 1138 4a3e 360d 483d d3bd 073f
000000e0: 956e a7be 7c8a 123f 26c3 9bbe 6e0e 4ebd
000000f0: 0edc 2c3d d21b 593d 3ee6 95be f3c3 523e
00000100: 1335 9b3e 1c17 363c 7dac a73d 4875 b0be
00000110: 4767 613f 170e 0f3f 28a4 96be 7680 7dbe
00000120: 036e 1c3e 8e3c 173d ff43 bdbc 1926 d43e
00000130: 7f83 b73b 0260 a2be 50bb 80bc dc03 fb3c
00000140: 3688 7c3d 622d d0bd 5864 cd3c d298 093d
00000150: c740 b2bd eeda 1b3d 0dcd b0be df70 cdbe
00000160: bd1f 263f a078 b2bb a781 8d3e 9891 fe3d
00000170: 13f2 913e f7ff f93e e84a 46be f5ad 493e
00000180: 15bf f93e 52b9 28be e3c5 c73c 187e 143d
00000190: 1f95 c4bd ad3e adbd d5da ca3e bfec edbd
000001a0: e9ea b03d 4853 5ebe fb4e 57be 24f6 20bd
000001b0: f716 1b3d ccb4 04bd 36e7 fd3e 70b5 87bd
000001c0: 2c75 05be 792e 9bbd 4fa0 af3d c3b9 d43e
000001d0: 98a8 d83c 9fb1 afbd 5562 87be 1ca9 97bd
000001e0: d732 8abc 20c0 7abe cf42 3b3f 0a75 3b3d
000001f0: 3449 8c3c 5135 82be 237e c43e 92e8 03be
00000200: b10d 903d 5dfb 8d3e 0fde c1bc a782 8c3d
00000210: 976a 2abd b7bc 2f3f 7c3d 6a3e 7491 a6bc
00000220: 972a b4bd 14bf 303f b70c 943d c34c d6bc
00000230: 61d4 dfbc 8dbb 82bf 39f1 95bc fbd9 793c
00000240: e365 303f 8c7c 1d3f 5ef6 113f 7058 7f3c
00000250: 20d1 373c 9cd9 a9bc d78a 833c 703e 40bd
00000260: 9581 943d c511 993b 9ab1 3e3f 1ea9 bc3b
00000270: 18b8 253d 74da dd3e 5b2f 2e3f e324 16bd
00000280: 6b37 243d 91b8 d23c 9282 103b 2d60 9dbd
00000290: 4076 92bd 9059 3dbf 6aa9 6dbd 2864 703c
000002a0: 05a2 81be 3b1f 17bf 700b b7bb e2de 0a3d
000002b0: 0d8c aa3b f58a bfbe 11b2 843e 503f 903c
000002c0: cde5 62be 8c99 193e 844e 2b3f 0e30 3bbf
000002d0: 29f4 80bd 2522 98bf 29d9 60bd 5257 f83e
000002e0: 88f3 673d 9bab 0cbf 23d7 a8be afba 4dbc
000002f0: 324d 613d 1f8d e43e 4a1e 88be f7e7 4abf
00000300: f50c 52bf 29ba 893c 5b41 993d c671 c3be
00000310: d93d 253f c930 8c3f c677 90be f01b 86be
00000320: 5505 1fbf 0f77 8ebd d14d 2a3f 6925 633f
00000330: 6601 113c 136e 643f d8b5 14bd 802e 823c
00000340: 4db7 933d 1d24 363d 6814 c83c 3759 6cbd
00000350: a2a9 603f 4664 a4bd 28c5 9fbe b276 9fbe
00000360: caf3 5d3f 4bf4 9c3d c4a1 d33d 630d ff3e
00000370: 5ae5 2ebf 7da4 a73e ac85 96be b783 ee3c
00000380: 22b1 3abe 00b2 633f 5de0 713f 94dc 9fbd
00000390: 76e7 75bd 52fc 99bd 2dc6 6e3f 888b 08bc
000003a0: 46e2 78bd 30a5 a8be e3fc 063f f418 a2bd
000003b0: 6977 7fbc f3c7 87bd 934a d33e ab0b 4cbd
000003c0: 62e6 4a3f 7b88 5fbd e658 1c3d bc7a 813f
000003d0: 68be 8a3d 35ef b83b 90ca 763f 0612 31bb
000003e0: 29fb 3d3f 8316 6cbd c982 dd3e 55ba 70bd
000003f0: c511 49bc 031e 8cbe b425 373d 8f56 263f
-0.08526874 0.075627066 0.049483046 -0.00545898 0.009235865 0.82854027 0.44914654 -0.01485879
-0.06614423 0.16742006 0.08716469 -0.004166648 -0.011060136 0.10940131 -0.09191009 0.0045827786
-0.045471776 0.05574537 0.13551311 0.0073252246 -0.09379093 0.03063985 0.0011561067 -0.085304536
-0.009211563 -0.07282634 0.53011465 -0.09085793 -0.24463134 0.45340687 0.18302104 -0.080393635
0.014905801 0.03481858 -0.006059708 0.018380724 0.08237591 0.20405883 0.015881255 0.023898736
-0.3736743 0.18742417 0.018224686 -0.087998316 -0.07036109 -0.28048408 0.33421245 -0.027450329
0.020612154 -0.47844297 -0.03540631 0.15587589 -0.07147547 0.1974795 0.048840724 0.53024024
-0.32701555 0.5724256 -0.30422324 -0.05030673 0.042202048 0.053005047 -0.29277223 0.20582561
0.3031393 0.011113908 0.081871964 -0.34464478 0.88048214 0.55880874 -0.29422116 -0.24756035
0.15276341 0.036922984 -0.023103712 0.41435316 0.0056003924 -0.31713873 -0.015714318 0.030641489
0.06165334 -0.10164906 0.025072262 0.033593006 -0.087037615 0.038050584 -0.3453144 -0.40125176
0.6489218 -0.0054465085 0.2763798 0.124301136 0.28505 0.48828098 -0.19364512 0.19695266
0.48778597 -0.16476944 0.024386352 0.036253065 -0.09598755 -0.0845922 0.3962008 -0.11617421
0.086385556 -0.21711457 -0.21026222 -0.039297238 0.037863698 -0.032398984 0.49590462 -0.06626403
-0.13032979 -0.07577223 0.08575498 0.41547975 0.02644758 -0.085788004 -0.2644221 -0.07405302
-0.016869945 -0.24487352 0.73148817 0.045765914 0.01712475 -0.25431302 0.38377485 -0.12881687
0.070338614 0.27730837 -0.023665456 0.068608575 -0.04160556 0.6864733 0.22875017 -0.02033303
-0.08797186 0.6904156 0.07228988 -0.02615965 -0.02732295 -1.0213486 -0.0183035 0.0152497245
0.68905467 0.6151817 0.5701655 0.01558505 0.011219293 -0.020733647 0.016057415 -0.046934545
0.07251278 0.0046713077 0.7448975 0.005757465 0.04045877 0.4333073 0.6804101 -0.03665627
0.040091913 0.025722774 0.0022050482 -0.0768436 -0.07151461 -0.73964787 -0.058022894 0.014672317
-0.25318924 -0.5903203 -0.0055860803 0.033903964 0.0052046836 -0.37410703 0.25917104 0.017608315
-0.22157975 0.1499998 0.6691668 -0.731202 -0.0629657 -1.188542 -0.0548946 0.4850412
0.056628734 -0.5494935 -0.32976636 -0.012556716 0.05500526 0.44638917 -0.2658561 -0.792602
-0.8205102 0.0168124 0.07483169 -0.3817274 0.645475 1.0952388 -0.2821638 -0.2619319
-0.6211751 -0.069563024 0.6652499 0.8872896 0.008850431 0.8923046 -0.036306232 0.015891314
0.07212696 0.044468034 0.024423793 -0.05770227 0.8775884 -0.08026938 -0.31205106 -0.31145245
0.8670012 0.07663783 0.10333589 0.498149 -0.6831871 0.32742682 -0.2939886 0.02911554
-0.18231633 0.8894348 0.94482976 -0.07805744 -0.06003519 -0.075188294 0.9327114 -0.008334048
-0.060762666 -0.32938528 0.52729625 -0.07914916 -0.015592434 -0.06629934 0.41267833 -0.049815815
0.79257786 -0.054573517 0.038170718 1.011558 0.06774598 0.00564375 0.96402836 -0.00270188
0.74211365 -0.057638656 0.43263844 -0.05877145 -0.012272303 -0.27366647 0.04471369 0.6497583

Q.4.weight_sigma f4 [4, 128]
00000000: f304 b53c c782 8c3d f98c 8c3d ebc7 88bc
00000010: 6835 e13c 68e8 463d e4fa 82bc f304 b53c
00000020: f304 b53c f28b d63b f304 b53c f304 b53c
00000030: 9eba b53c 3255 93bc 4f12 61bd a0b6 e93c
00000040: 9f9f e6bc 8c12 783c be28 97bc f304 b53c
00000050: 9ed2 833c f304 b53c 788b d03b f304 b53c
00000060: f304 b53c 18a2 933c f0bb b33c f349 d43b
00000070: b02b e1bc e71b 183c 36a0 893b f304 b53c
00000080: 819f 963c 13d5 923c 89e7 c83c f304 b53c
00000090: f304 b53c 4afb b23c f304 b53c f304 b53c
000000a0: 5786 0abb 7103 ccba f304 b53c f304 b53c
000000b0: f304 b53c f94a 953c bc86 09bc 5637 e63c
000000c0: 5ccc 513b 0e60 1abc a186 203d 5f21 50bc
000000d0: f304 b53c cf81 4bbc 85bc d33c 2759 7b3a
000000e0: a7ad 5cbb 976f 9dbc 11a9 0fbc f304 b53c
000000f0: f304 b53c e1eb 863d 556d 54ba c7b4 27bc
00000100: 8ab7 a3bb 9c5a 673c f304 b53c dcd0 b0b9
00000110: 36ab f3ba b34e cc39 4a9c 0839 84a0 bf37
00000120: 134e 263b f304 b53c 9507 0a3c b764 5ebc
00000130: cd07 523d dcc3 5dbc f304 b53c f304 b53c
00000140: f304 b53c 6d97 243d f304 b53c f304 b53c
00000150: 85c3 40bb 26d5 003d 512e 163c cc62 01b9
00000160: 6247 2bbb f304 b53c 2ce0 9d3c 4919 d4bb
00000170: 9b0f 29bc 9831 d038 6118 233c 5a28 593c
00000180: 705a 6f3c efe0 393a e61e 4dbc f304 b53c
00000190: d955 c1bd f304 b53c 18dc 293c b65c fb3c
000001a0: f304 b53c 7c2c 57bb 2a7a 4c3c f304 b53c
000001b0: f952 003d 10f4 1dbc 3954 053d f304 b53c
000001c0: 5e89 a03c f304 b53c f304 b53c a34c a3bc
000001d0: f304 b53c 6620 3f3b 940a cc3b f304 b53c
000001e0: c49d f93b f320 f23a 0db3 053b f304 b53c
000001f0: 7649 1d3c 9d9e a8bb dae8 b13c 13a2 d9bc
00000200: f304 b53c 4333 a33c 8602 b1bc 9747 ca3c
00000210: bb84 e43c 3455 c13b bc2c df3c f304 b53c
00000220: f304 b53c fc47 88bc f304 b53c d1e2 02bc
00000230: 41ff a53c bac0 203c 4c7d 923a 395b 293c
00000240: cfe1 e0bb f8aa 24bd 8c31 5e3b f304 b53c
00000250: f304 b53c f304 b53c 4cf7 65bc 522f 7d3c
00000260: f304 b53c df20 963c 8e58 f6bc dafd 5d3c
00000270: 907b b9ba 5fcd 873c 5074 213b 38c4 403c
00000280: 4b8c a63c e84d 3b3d 8ba0 a23b f304 b53c
00000290: 153f 503c 2591 07bd 46d0 f93c f304 b53c
000002a0: 77df c53a 09fa b8b9 f304 b53c f304 b53c
000002b0: 46a5 813d 2aec 653a 8e4c 4dbc 229a 5c3d
000002c0: 52d4 a63c 5445 c13c 8b99 a0bc fd28 073c
000002d0: 07c3 963c adfa 0bbc 7865 903c a98e 19bc
000002e0: 8146 b43b 01f8 14bc 9661 c5bb 971a ef3c
000002f0: f304 b53c a7ec 82bc ba3a 62bb 8735 a8bb
00000300: 4984 20bb daf0 653c f304 b53c 6f79 ee3b
00000310: 441f 06bc 6620 5e3c 7f37 72bb 37be bb3b
00000320: e100 803b f304 b53c 5550 6a3b e4c5 b7ba
00000330: d557 8a3c c8d9 683c f304 b53c f304 b53c
00000340: f304 b53c 4e2d 6e3c f304 b53c f304 b53c
00000350: 7e7d 8a3c f304 b53c 9ed8 2ebb 29eb fbbb
00000360: 1f9d 283b f304 b53c de3d 6bbb c4de a63b
00000370: cec8 5a3b 8ed8 833c 89c9 803c 4470 3f3c
00000380: a6bb 9a3b d791 6c3c f42f 20bc f304 b53c
00000390: f57b 523d f304 b53c 7eb3 74bb 746a a03c
000003a0: 113e 573c 6747 04bc 8401 fa3a f304 b53c
000003b0: 1a8d 053d f304 b53c 5148 7bbc a976 323c
000003c0: 53c7 a3bc 9422 803c f304 b53c a42f 7eb9
000003d0: af56 803c ee48 2fbc fb1a a73b cbd2 833c
000003e0: 844a 66bc d783 663c 2423 03bd f304 b53c
000003f0: d62d bc3c 39be c4ba c051 b2bc c6f4 c6bc
0.022097087 0.06860881 0.06862826 -0.01669689 0.027491286 0.048561484 -0.015988775 0.022097087
0.022097087 0.0065474445 0.022097087 0.022097087 0.022183713 -0.01798496 -0.0549491 0.028529465
-0.028152285 0.015141141 -0.018452045 0.022097087 0.016091641 0.022097087 0.006364282 0.022097087
0.022097087 0.018021628 0.021940202 0.006478542 -0.027486652 0.009283996 0.004200007 0.022097087
0.018386604 0.017923867 0.024524467 0.022097087 0.022097087 0.02184834 0.022097087 0.022097087
-0.0021137202 -0.001556499 0.022097087 0.022097087 0.022097087 0.018224226 -0.00839394 0.028102558
0.0032012677 -0.009422315 0.039190892 -0.012703269 0.022097087 -0.0124210855 0.025846729 0.0009588175
-0.003367284 -0.01921825 -0.008768336 0.022097087 0.022097087 0.06587959 -0.000810345 -0.010235972
-0.004996245 0.014120724 0.022097087 -0.00033724948 -0.0018590454 0.00038968548 0.00013028193 2.284372e-05
0.0025376126 0.022097087 0.008424659 -0.013573817 0.05127697 -0.013535466 0.022097087 0.022097087
0.022097087 0.040183473 0.022097087 0.022097087 -0.0029413414 0.031453274 0.009166316 -0.00012339203
-0.0026135077 0.022097087 0.019271933 -0.006472741 -0.010318662 9.9274504e-05 0.009954543 0.0132542495
0.014608964 0.00070907077 -0.012519574 0.022097087 -0.09440202 0.022097087 0.010367416 0.030683856
0.022097087 -0.0032832911 0.012480298 0.022097087 0.03132913 -0.009640709 0.032551024 0.022097087
0.019596752 0.022097087 0.022097087 -0.019934004 0.022097087 0.0029163598 0.006226847 0.022097087
0.007617684 0.0018472954 0.0020400912 0.022097087 0.009600034 -0.0051458613 0.021717478 -0.02656654
0.022097087 0.019921904 -0.021607649 0.02469234 0.027895322 0.0059000496 0.02724301 0.022097087
0.022097087 -0.016635887 0.022097087 -0.007988648 0.020263316 0.009811575 0.0011176257 0.010336691
-0.006862856 -0.04020211 0.0033904044 0.022097087 0.022097087 0.022097087 -0.014036011 0.015453177
0.022097087 0.018326221 -0.030071523 0.013549292 -0.0014151204 0.01657742 0.0024635978 0.011765532
0.020330569 0.045728594 0.004962986 0.022097087 0.012710352 -0.033097405 0.03049482 0.022097087
0.0015096505 -0.00035281506 0.022097087 0.022097087 0.063303515 0.0008770848 -0.012530459 0.05385793
0.020364914 0.023592629 -0.019604465 0.008249518 0.018403543 -0.0085436525 0.01762651 -0.009372392
0.005501569 -0.009092332 -0.006023596 0.029187484 0.022097087 -0.015981985 -0.0034519867 -0.005133334
-0.002449291 0.014034474 0.022097087 0.0072776596 -0.008186165 0.013557529 -0.0036959348 0.0057294625
0.003906355 0.022097087 0.0035753448 -0.0014020768 0.016887585 0.014212079 0.022097087 0.022097087
0.022097087 0.014537169 0.022097087 0.022097087 0.016905542 0.022097087 -0.0026679407 -0.0076879454
0.0025728417 0.022097087 -0.003589503 0.0050924737 0.003338385 0.016094472 0.0157211 0.011684481
0.0047220765 0.014439068 -0.009777058 0.022097087 0.051387746 0.022097087 -0.003733843 0.01958201
0.013137356 -0.008073664 0.0019073938 0.022097087 0.032605268 0.022097087 -0.015337066 0.010892549
-0.019992506 0.015641488 0.022097087 -0.00024241075 0.015666334 -0.01069854 0.005099652 0.016091725
-0.014055852 0.014069519 -0.032015935 0.022097087 0.022971075 -0.0015010304 -0.021767497 -0.024286639

Q.4.bias_mu f4 [4]
00000000: 12f6 8d3e ac26 4a3e 40ce cdbd 14bb 5f3f
0.277268 0.19741315 -0.10049105 0.87394834

Q.4.bias_sigma f4 [4]
00000000: e5ad 063d 0aef 0c3d 07dd e93c 9429 48bd
0.032880682 0.034407653 0.028547777 -0.048867777

Q.4.weight_epsilon f4 [4, 128]
00000000: 56d9 2d3f 945d 943f 280c dc3f 00c7 a2bf
00000010: 99a5 e93d 8991 89bf 150d 28bf c373 9c3f
00000020: e91e 843e c202 52bf bfa7 8c3f bc72 90bf
00000030: de05 8b3f 8f8a 85bf 0aa0 723f 9d88 003f
00000040: d9ac 24bf 9e3a 183f 702d 3a3f 9df9 383f
00000050: 8356 ddbf 78bd 9fbf 3d40 293f cdb6 9cbf
00000060: e132 bdbf 5b3c a0bf c93b a63f 62a5 2b3f
00000070: 2afa 0040 982c e33f 04bb 4a3f 5494 c8bf
00000080: 847a 443f f1b9 88bf daac d6be 6ba5 19bf
00000090: b553 09bf 772d eebf e899 6a3f 8a6d 293f
000000a0: dc99 edbe 5f58 f53e 0e40 9dbf c063 afbf
000000b0: 2f59 ee3f 290e b53f e652 96be 6b41 993f
000000c0: f671 83bf d5e4 b9bf 6687 f4be dc07 353f
000000d0: f9f0 b8bf 6273 a9be cac1 943f 10a4 c83f
000000e0: e771 65be 07df a33f 409a 82bf 43f4 d0be
000000f0: 12bb e53f 3722 573f 9ebf a0bf 5e83 553f
00000100: 8f0e 87bf 854b 203f e545 bf3f 428d c1bf
00000110: 2edd 81bf 9656 91bf 3a70 37bf a729 debe
00000120: ff77 b1be 4e6b e73f 0bf5 9e3e 3d41 55bd
00000130: 56ce 8ebf cf42 01bf aab0 8f3f 6153 b7bf
00000140: 0eb0 cabf c909 1a3f c41d e5bf 3b01 b7bf
00000150: 9c20 a13d 7bd3 6fbf 5cdd 693f 2cc9 8cbf
00000160: f3e4 393f b171 46bf 260f e03e 9b6a 4c3f
00000170: eaf1 693f 53ad 5cbf d2c8 b0be f353 2c3f
00000180: 2878 c53f d657 33bf e28e b6bf 9248 e1bf
00000190: 2f16 c53f d8f1 8a3f c86a e5bf af6c bdbf
000001a0: d95a ea3f c8dd 39bf 5e7d 71bf 11ff df3f
000001b0: ec90 ae3f 4c3c 96bf a7bd 5abf 4d68 813f
000001c0: 1923 b13f f840 43bf 7e9f 27bf d73c e1bf
000001d0: e8e9 d53f 397d 813f 656c 3d3f 8bac 96bf
000001e0: bea6 5f3f 27ed b53f f95f afbf 388e ee3f
000001f0: 693d 7dbf 9371 d3bf 5dd3 c83f 5d00 c2bf
00000200: ab9a e23e 4163 413f 3269 8f3f 3e2c 54bf
00000210: 2546 983d 7350 33bf 030c dbbe a5ed 4b3f
00000220: 9d36 2c3e a6de 08bf 7356 373f 1748 3cbf
00000230: c435 353f 9e10 2ebf 1a20 1e3f a889 a73e
00000240: 87a5 d6be 6c6c c63e 82ac f23e 451b f13e
00000250: 7f40 90bf c536 50bf 619c dc3e 0545 4cbf
00000260: a79c 76bf 29dc 50bf 85ad 583f 96bb df3e
00000270: aa1d a83f 3b0e 943f 0020 043f 19b9 82bf
00000280: e90c 003f 6e37 32bf dfe8 8bbe 5045 c8be
00000290: dcff b2be 103a 9bbf 5ee5 183f 6ed7 dc3e
000002a0: ddd9 9abe ece5 9f3e edf7 4cbf c69c 64bf
000002b0: 8e56 9b3f 51ff 6b3f b3f0 43be f7c2 473f
000002c0: 3055 2bbf de4d 72bf ba5d 9fbe 1af7 eb3e
000002d0: 0210 71bf 0bdf 5cbe dfe5 413f 5bc3 823f
000002e0: 1689 15be 4099 553f 043c 2abf 5c2e 88be
000002f0: c5b8 953f 5c35 0c3f 4187 51bf fe26 0b3f
00000300: 5b0a 30bf ecef d03e ce50 793f 3149 7cbf
00000310: 9345 29bf 1571 3dbf 831a efbe 1bca 90be
00000320: 8852 67be 78d2 963f 8631 4f3e e5fb 0abd
00000330: 1f24 3abf 5b7c a8be 204b 3b3f e9f4 6ebf
00000340: db18 84bf 23c8 c83e 4052 95bf d589 6ebf
00000350: ad05 523d 1a4d 1cbf 7d6a 183f 0582 37bf
00000360: 054e f23e d754 01bf 8406 923e 4739 053f
00000370: e277 183f 3cd2 0fbf 336e 66be 209f e03e
00000380: 36b2 803f fbc3 e9be c9f4 6dbf c7d2 92bf
00000390: 5c72 803f aa1b 353f 7284 95bf 00e8 76bf
000003a0: 45bc 983f ad44 f2be aa62 1dbf 09fc 913f
000003b0: f889 633f 3ed3 43bf 318f 0ebf 39ad 283f
000003c0: dee3 663f 2081 febe 2c7d dabe 22cb 92bf
000003d0: d269 8b3f 7fc8 283f 9fe7 f63e 8c65 44bf
000003e0: 78c2 113f fa21 6d3f d997 64bf 1f79 9b3f
000003f0: 160b 25bf b6cd 89bf 2ee2 823f 3adf 7cbf
0.67909753 1.1591058 1.719121 -1.271698 0.11408538 -1.0747539 -0.6564496 1.2222828
0.25804833 -0.8203546 1.0988692 -1.1285014 1.0861166 -1.043291 0.9477545 0.50208455
-0.64326245 0.5946444 0.7272558 0.7225588 -1.7292026 -1.2479696 0.66113645 -1.2243286
-1.4781152 -1.2518419 1.2986995 0.6704923 2.0152688 1.7747984 0.79191613 -1.5670266
0.76749444 -1.0681745 -0.4192875 -0.6001803 -0.5364335 -1.8607625 0.9164109 0.6618277
-0.46406448 0.47918984 -1.2285173 -1.3702316 1.8620967 1.4144946 -0.2936012 1.1973089
-1.0269153 -1.4522959 -0.4775955 0.7071512 -1.4448539 -0.33095843 1.162164 1.5675068
-0.22406732 1.2802438 -1.0203323 -0.40811357 1.7947714 0.8403658 -1.2558477 0.83403575
-1.0551318 0.62615234 1.4943205 -1.5121233 -1.0145624 -1.1354549 -0.7165562 -0.43391153
-0.34661862 1.8079622 0.31046328 -0.05206417 -1.1156719 -0.50492567 1.1225789 -1.432232
-1.5834978 0.6017118 -1.7899709 -1.429725 0.07867548 -0.9368207 0.9135339 -1.0998893
0.72614974 -0.7751723 0.43761557 0.7985017 0.91384757 -0.8620197 -0.34528214 0.67315596
1.5427294 -0.700559 -1.4262354 -1.7600272 1.5397395 1.0855055 -1.7923212 -1.4798793
1.8308975 -0.72604036 -0.9433192 1.7499715 1.3637977 -1.1737151 -0.85445637 1.0109955
1.3838836 -0.7627101 -0.6547774 -1.7596692 1.6712008 1.011634 0.7399352 -1.1771406
0.87363803 1.4212998 -1.3701164 1.8637152 -0.9892183 -1.6519035 1.5689503 -1.5156361
0.44258627 0.75542074 1.1203978 -0.8288001 0.07435254 -0.7004463 -0.42782602 0.7965949
0.16817708 -0.53464735 0.71616286 -0.735475 0.70785165 -0.67994106 0.61767733 0.3272221
-0.41923162 0.38754594 0.47397238 0.47091118 -1.1269683 -0.8133357 0.43088058 -0.79792815
-0.9633278 -0.8158594 0.8463977 0.43697804 1.3134053 1.1566843 0.5161133 -1.0212737
0.500197 -0.6961583 -0.27326104 -0.3911538 -0.3496083 -1.2127094 0.59724987 0.4313311
-0.30244341 0.31230104 -0.80065805 -0.8930172 1.2135789 0.92186457 -0.19134788 0.7803187
-0.6692686 -0.94650066 -0.31126195 0.4608696 -0.9416505 -0.21569459 0.7574138 1.0215868
-0.14603075 0.83436966 -0.66497827 -0.2659787 1.1697012 0.5476892 -0.81847006 0.5435637
-0.687658 0.40808046 0.97388923 -0.9854918 -0.66121787 -0.74000674 -0.46699914 -0.28279194
-0.22590077 1.178298 0.20233735 -0.03393163 -0.72711366 -0.32907376 0.73161507 -0.93342453
-1.0320085 0.39215192 -1.1665726 -0.93179065 0.051274944 -0.6105515 0.5953749 -0.7168277
0.4732515 -0.5052008 0.28520596 0.52040523 0.59557927 -0.5618017 -0.22502975 0.43871403
1.0054386 -0.45657334 -0.9295164 -1.1470574 1.00349 0.70745337 -1.1681044 -0.96447754
1.1932455 -0.4731802 -0.61478674 1.140504 0.888824 -0.76494205 -0.5568724 0.65889317
0.9019145 -0.4970789 -0.42673624 -1.1468241 1.0891669 0.6593093 0.48223588 -0.7671745
0.5693736 0.9262997 -0.892942 1.2146338 -0.6447004 -1.0765903 1.0225275 -0.98778117

Q.4.bias_epsilon f4 [4]
00000000: 2a9a a53f dbda 573f ccbc dfbe c794 3abf
1.2937672 0.8431832 -0.43698728 -0.72883266
