model_w/DQA_2/model_0.pth (torch, 71880 bytes, 6 tensors)

fc1.weight f4 [128, 2]
0.5108732 0.54124564 -0.5420113 -0.067430556 0.41652957 -0.592214 0.030564904 -0.036634386
0.095244825 -0.5703178 0.36543787 0.35994506 0.50141853 -0.56631917 0.10832811 0.24496622
-0.36538956 -0.2540521 -0.44987798 -0.43223575 -0.51106745 -0.6120127 -0.6548879 0.073023096
0.055832393 0.6861588 -0.51036763 -0.4171254 0.38985768 -0.23795833 0.32608956 0.68560034
-0.15135734 0.52217036 -0.14459516 0.1791264 0.46589568 0.7207427 0.6937837 0.64252055
0.7172535 0.36760038 0.5055609 -0.43282914 0.2494638 0.6943478 0.609402 -0.00861061
-0.34667224 0.0077249687 -0.5464941 0.30356744 -0.5617687 0.38883743 -0.67745477 0.046775937
-0.2837727 0.23189318 -0.41689983 -0.117639095 0.59738284 -0.40716016 -0.17476946 -0.40065518
0.015982091 -0.015551746 0.6899288 -0.45826697 0.1263095 0.39447042 -0.17429054 -0.008237839
0.0775033 0.55965585 -0.37177077 0.25375757 -0.27858073 -0.07121831 0.70236427 -0.4850759
-0.034846723 0.6363016 -0.028733253 -0.06717795 0.40001407 0.5079993 0.60237175 0.036826745
0.390029 -0.26763305 0.53590417 0.3529496 0.4330312 -0.6034485 0.052299466 -0.27357084
0.44863653 -0.3814714 0.0034614562 0.09510922 0.16953914 0.7236204 0.51024246 -0.04005547
0.5933289 0.5104327 -0.07848823 0.7715111 -0.59494805 0.274027 0.44508037 0.14387798
0.49972987 0.10008538 -0.22319908 0.61843467 0.17649059 0.23492303 -0.108489774 -0.001981325
0.41849983 0.32596943 -0.18899971 -0.49181384 -0.091735125 -0.6548866 0.58223885 0.5740651
-0.6044146 0.36877924 -0.37375036 0.21313792 -0.13311511 0.22240956 0.12948187 0.16342957
-0.020813966 0.5427786 -0.55587417 0.23302698 0.13539448 0.5357231 -0.6867312 -0.038034815
-0.20561767 -0.43829292 -0.10465688 0.5546879 0.7528426 -0.55541277 -0.5614459 0.3763643
0.01147922 0.31875664 0.26928332 -0.37007537 0.46865085 -0.45865056 0.6686552 0.27822334
0.43009326 -0.61604524 0.41940573 0.7807931 -0.41250604 -0.08824545 0.039861135 0.76358706
-0.29582578 -0.6090158 0.2741815 0.4099675 -0.5144965 -0.59506243 -0.3663388 0.629641
0.04675488 -0.50914675 0.028273974 0.63137776 0.68841124 0.74955136 0.19429238 -0.35339764
0.40224674 0.03270445 0.56196606 0.29528418 0.16501254 0.32724646 -0.09125525 -0.64087933
-0.7100055 0.75622857 0.58898515 0.3192301 0.012001205 0.25394642 -0.22664475 -0.2056849
0.71975404 -0.5077242 0.047482125 0.29073417 -0.3731476 -0.53016907 0.4094558 -0.4465058
0.29769853 -0.24043821 -0.07020974 -0.63507 0.3109313 -0.22907196 0.4027129 -0.57496715
0.41474196 -0.34202626 -0.59499556 -0.3402087 0.04117644 0.5434519 -0.48799014 0.6964084
0.34769323 0.072264016 0.53908396 0.015778871 -0.42558295 -0.3021827 -0.42135754 -0.62791955
-0.45743924 0.40461054 -0.5297869 -0.48901385 0.20943645 0.56779176 0.48351735 -0.33154923
0.15649658 0.6824908 -0.6474143 -0.28611445 0.51677734 -0.6166558 0.1553188 -0.5673739
0.6169135 -0.7004806 -0.57279485 0.1622045 0.6304914 -0.5519867 0.10426449 0.58383846
00000000: 96c8 023f 138f 0a3f 41c1 0abf 0819 8abd
00000010: 5d43 d53e 569b 17bf 4063 fa3c f00d 16bd
00000020: b80f c33d 5900 12bf ac1a bb3e b84a b83e
00000030: f75c 003f 4bfa 10bf 21db dd3d 6dd8 7a3e
00000040: 5714 bbbe 1e13 82be 6856 e6be 014e ddbe
00000050: 51d5 02bf ddac 1cbf bca6 27bf 228d 953d
00000060: 82b0 643d 1aa8 2f3f 74a7 02bf 7691 d5be
00000070: 6d9b c73e 59ab 73be 36f5 a63e 8183 2f3f
00000080: 6bfd 1abe f5ac 053f c110 14be e96c 373e
00000090: e189 ee3e 9882 383f cf9b 313f 3a7c 243f
000000a0: ed9d 373f 1e36 bc3e 706c 013f c89b ddbe
000000b0: 7073 7f3e c7c0 313f c501 1c3f 8413 0dbc
000000c0: 067f b1be bc21 fd3b 0ae7 0bbf 316d 9b3e
000000d0: 13d0 0fbf b315 c73e ad6d 2dbf 2098 3f3d
000000e0: a84a 91be 6875 6d3e e573 d5be c4ec f0bd
000000f0: 15ee 183f 4c77 d0be c4f6 32be ad22 cdbe
00000100: e0ec 823c c0cc 7ebc 2d9f 303f f8a1 eabe
00000110: 4757 013e 07f8 c93e 3879 32be 00f8 06bc
00000120: 0dba 9e3d 9b45 0f3f bd58 bebe 83ec 813e
00000130: 22a2 8ebe e8da 91bd 25ce 333f de5b f8be
00000140: 70bb 0ebd a9e4 223f 0062 ebbc 9894 89bd
00000150: a5ce cc3e 3e0c 023f 0935 1a3f a4d7 163d
00000160: e2b1 c73e 3307 89be 0431 093f cfb5 b43e
00000170: 44b6 dd3e 9a7b 1abf f737 563d 7a11 8cbe
00000180: b0b3 e53e 3850 c3be 99d9 623b 9fc8 c23d
00000190: ab9b 2d3e 303f 393f 409f 023f 3411 24bd
000001a0: 67e4 173f b8ab 023f 70be a0bd c081 453f
000001b0: 844e 18bf 444d 8c3e 93e1 e33e c054 133e
000001c0: 98dc ff3e 90f9 cc3d 4d8e 64be bc51 1e3f
000001d0: f3b9 343e aa8f 703e e32f debd 1ed9 01bb
000001e0: 9c45 d63e 77e5 a63e 2489 41be 06cf fbbe
000001f0: a0df bbbd a6a6 27bf 9b0d 153f eef5 123f
00000200: eaba 1abf a2d0 bc3e 355c bfbe d440 5a3e
00000210: 544f 08be 55bf 633e e596 043e 155a 273e
00000220: 0d82 aabc 8af3 0a3f c54d 0ebf a09e 6e3e
00000230: daa4 0a3e 2625 093f 9ecd 2fbf 65ca 1bbd
00000240: 708d 52be ee67 e0be 5956 d6bd 0700 0e3f
00000250: 4bba 403f 882f 0ebf ebba 0fbf d2b2 c03e
00000260: 5713 3c3c 1234 a33e 81df 893e 857a bdbe
00000270: 01f3 ef3e 3fd4 eabe fd2c 2b3f 4a73 8e3e
00000280: 2f35 dc3e 24b5 1dbf 59bc d63e 0ee2 473f
00000290: fe33 d3be 08ba b4bd 6e45 233d 717a 433f
000002a0: 7a76 97be 76e8 1bbf 8461 8c3e 43e7 d13e
000002b0: 0bb6 03bf 0356 18bf c290 bbbe 2730 213f
000002c0: 0c82 3f3d 7157 02bf d29e e73c f9a1 213f
000002d0: b83b 303f 99e2 3f3f 95f4 463e 89f0 b4be
000002e0: 49f3 cd3e 1af5 053d 02dd 0f3f 7d2f 973e
000002f0: 0cf9 283e d98c a73e 08e4 babd ab10 24bf
00000300: ecc2 35bf 3298 413f bbc7 163f 2172 a33e
00000310: b4a0 443c 4405 823e 9015 68be 109f 52be
00000320: cd41 383f 37fa 01bf 9e7c 423d 1cdb 943e
00000330: 340d bfbe 29b9 07bf 31a4 d13e 699c e4be
00000340: f16b 983e 6f35 76be 20ca 8fbd f393 22bf
00000350: 6332 9f3e d791 6abe 6330 ce3e 0c31 13bf
00000360: 0f59 d43e 111e afbe a151 18bf d62f aebe
00000370: a0a8 283d aa1f 0b3f d8d9 f9be d247 323f
00000380: d904 b23e 28ff 933d 6801 0a3f b142 813c
00000390: 02e6 d9be b1b7 9abe 2dbc d7be 56bf 20bf
000003a0: 7a35 eabe 1d29 cf3e 1da0 07bf 0660 fabe
000003b0: 8276 563e cd5a 113f 968f f73e d2c0 a9be
000003c0: a440 203e b8b7 2e3f f2bc 25bf 987d 92be
000003d0: 854b 043f 28dd 1dbf e40b 1f3e 6a3f 11bf
000003e0: 0bee 1d3f b252 33bf afa2 12bf f018 263e
000003f0: e267 213f 004f 0dbf 9f88 d53d 7076 153f

fc1.bias f4 [128]
-0.098577686 -0.5500319 0.06624807 -0.27892733 -0.36488464 0.34031445 0.1817044 0.07771541
-0.06340468 -0.61129415 0.4588011 -0.44961673 0.448882 -0.3367197 0.26050326 0.0025005634
0.42955634 0.6779126 0.5659572 0.4357208 0.71276516 -0.09003883 -0.45317847 -0.22989494
0.41130757 0.08179532 -0.49640584 -0.51894814 0.082017176 0.8630259 0.6140044 -0.08655816
-0.10936642 0.11444229 -0.028902492 -0.3478607 0.27855927 -0.18512575 -0.46121937 0.83101356
-0.36350134 -0.09573805 0.51394844 0.5160145 -0.007824336 -0.4045418 0.40929937 0.44080925
0.68317854 0.7712646 0.6164962 -0.44216275 -0.5368486 -0.22647275 0.6210753 0.369117
-0.5824495 0.45045283 -0.5994748 0.50429064 0.22112168 -0.3116128 0.55374587 0.5331678
0.22764777 0.21401575 0.33698085 0.04742399 0.12667231 -0.4791787 0.253376 0.4919846
-0.67203134 -0.2034132 -0.370832 -0.5967286 -0.45423734 0.26936626 0.12113488 0.4203293
0.53181654 0.30707377 -0.6836991 0.7347686 -0.6990907 0.673858 0.4334211 -0.5851507
0.32561252 0.5781022 -0.22096871 0.7653798 -0.4820287 0.45100138 -0.17865536 -0.0032598972
0.50622976 -0.287458 -0.3572781 -0.47092205 0.7317824 0.40467983 0.5883533 0.83619076
0.6070474 -0.34711072 0.40175435 -0.042062055 0.05103837 0.37429038 -0.07480215 0.61058205
0.4359685 -0.555617 -0.54678446 -0.102978766 -0.031482916 -0.6204885 -0.05034074 0.6023129
0.29100582 -0.27263507 -0.20910619 -0.38089052 -0.2567288 -0.055844028 0.17133391 0.7351273
00000000: 19e3 c9bd e4ce 0cbf 11ad 873d 90cf 8ebe
00000010: 29d2 babe b23d ae3e b810 3a3e 4229 9f3d
00000020: 50da 81bd c67d 1cbf fae7 ea3e 2a34 e6be
00000030: ddd3 e53e 8666 acbe af60 853e 7ee0 233b
00000040: cfee db3e ae8b 2d3f 92e2 103f cc16 df3e
00000050: c777 363f 4766 b8bd 0207 e8be 9469 6bbe
00000060: e896 d23e 4e84 a73d e828 febe c9d9 04bf
00000070: 9ff8 a73d 44ef 5c3f 642f 1d3f 6845 b1bd
00000080: 80fb dfbd b860 ea3d ebc4 ecbc cc1a b2be
00000090: 529f 8e3e 9b91 3dbe f224 ecbe 4ebd 543f
000000a0: d91c babe 5012 c4bd 2092 033f 8719 043f
000000b0: a531 00bc 1a20 cfbe b08f d13e c0b1 e13e
000000c0: cae4 2e3f 9971 453f b2d2 1d3f 2863 e2be
000000d0: e96e 09bf 79e8 67be cafe 1e3f e7fc bc3e
000000e0: 691b 15bf c1a1 e63e 2e77 19bf 3119 013f
000000f0: b96d 623e b78b 9fbe 4ac2 0d3f af7d 083f
00000100: 7f1c 693e f226 5b3e c188 ac3e a83f 423d
00000110: 63b6 013e e956 f5be 80ba 813e 68e5 fb3e
00000120: 3f0a 2cbf 8d4b 50be b1dd bdbe 35c3 18bf
00000130: cc91 e8be 60ea 893e 9015 f83d 6735 d73e
00000140: 2125 083f c638 9d3e e706 2fbf cc19 3c3f
00000150: 9cf7 32bf f581 2c3f 5fe9 dd3e 70cc 15bf
00000160: afb6 a63e 81fe 133f 9f45 62be eeef 433f
00000170: 77cc f6be a7e9 e63e 6ef1 36be 00a4 55bb
00000180: 4698 013f b22d 93be 28ed b6be b21c f1be
00000190: 1756 3b3f 3232 cf3e 529e 163f 9910 563f
000001a0: 7567 1b3f 7fb8 b1be bfb2 cd3e 4349 2cbd
000001b0: 9c0d 513d fda2 bf3e df31 99bd 1b4f 1c3f
000001c0: 4337 df3e ea3c 0ebf 11fa 0bbf 88e6 d2bd
000001d0: 3bf4 00bd 56d8 1ebf 1732 4ebd 2e31 1a3f
000001e0: b7fe 943e d396 8bbe ef1f 56be 1504 c3be
000001f0: f571 83be b5bc 64bd 2872 2f3e 4d31 3c3f

fc2.weight f4 [128, 128]
-0.009507628 -0.02879066 -0.019564107 0.0030726194 -0.06807056 0.030700175 0.030101843 -0.00010427388
-0.073161185 0.059249975 -0.027899161 0.0717619 0.0665413 0.0047155693 0.040938795 -0.07166011
-0.0628937 0.05752348 0.050916504 -0.07825479 0.06319293 -0.014756671 0.015355725 -0.0064142253
0.06444378 -0.063820004 -0.033438724 0.035202965 -0.05845204 -0.076953836 -0.10254227 -0.008682281
0.028213851 -0.010896212 -0.015685994 -0.07841843 -0.08661005 0.057134934 0.041830637 -0.03821579
0.063873336 -0.06537739 -0.08702368 0.016953647 0.034654424 -0.094928995 -0.02902137 -0.10514797
-0.110221565 0.059881162 0.023222871 0.0076169753 -0.052765533 0.0013668686 0.06788068 0.019666478
0.017567437 0.0039959545 -0.09411883 0.035878934 -0.082446754 -0.08669441 -0.10316701 0.0108386455
0.054693393 -0.08474525 0.03874782 0.062112123 -0.040317744 0.0072796717 -0.03415763 -0.041672606
-0.044814236 -0.06798942 -0.00648202 -0.07171129 0.029688882 -0.06502743 0.02265519 0.06263277
-0.107441284 0.066213764 -0.033059344 -0.064455226 -0.0657561 0.037689466 0.011996656 -0.032251608
0.030378843 -0.068022504 -0.08428183 0.060909446 0.009342002 0.050418697 -0.084547535 -0.046160355
-0.07749561 -0.06781349 0.029765872 0.08235865 -0.03212983 -0.075136326 -0.07615868 0.05507269
-0.036801055 0.07240821 0.03725438 0.008714529 0.0031104262 0.056416996 0.01067105 -0.008195109
-0.07863094 -0.09897449 -0.037600257 0.025007159 0.05712585 -0.061512753 -0.00310697 0.062575586
0.032416474 -0.023173884 0.06433106 -0.0005599186 0.04044786 0.079656444 -0.051279448 -0.051579747
0.038177498 0.08801287 0.041767634 -0.047031604 0.018373065 -0.07660049 0.07124942 0.0027328506
-0.05134427 0.034248732 0.08138279 -0.021243624 0.022420645 0.08758772 -0.008751795 0.07139348
-0.07767976 -0.08156754 0.035942517 -0.024382353 -0.08761519 -0.00494083 0.025162429 0.012776509
-0.07985963 -0.07616206 -0.03842345 0.026512519 0.07831996 -0.023497924 0.03192041 -0.08125734
0.08811093 -0.08161111 0.06960528 0.03819046 -0.02465494 -0.022440396 -0.06752443 -0.021966755
-0.08153284 0.084712856 -0.028406069 0.042290144 -0.054056853 -0.08375038 -0.070443116 0.049679823
0.06510743 0.012594931 -0.029809728 0.06607143 0.01580616 -0.029880736 -0.022045024 -0.02745568
-0.07811925 -0.009117082 0.029879637 0.016951717 0.07688361 0.03448935 0.026730888 -0.07036825
0.06536821 -0.045794856 0.045071 -0.059015162 -0.059350885 0.06604151 0.0393356 -0.060471706
0.0867944 -0.020504504 -0.068430476 0.05796232 -0.060126 0.06563889 -0.033748172 0.049525343
0.021496497 -0.047830068 -0.07897981 0.0582627 0.031322286 -0.036376037 -0.003706649 -0.029171646
-0.014235996 -0.031025529 -0.062159035 -0.040093496 0.067011304 0.0653395 0.012622021 0.083750226
-0.0200961 -0.022406444 0.01237601 -0.00356853 -0.026485596 0.00042761862 0.06281621 0.07936435
-0.041875232 -0.054548085 0.011027388 -0.032974273 -0.046572626 0.060009904 -0.030921023 0.07699487
-0.03401317 -0.0044465214 0.027365506 0.033066943 0.007395707 0.02247347 -0.008650504 0.034709275
-0.08129767 0.042958356 -0.015428156 0.03606561 -0.007843874 0.0046955794 -0.020428248 -0.010302007
00000000: e2c5 1bbc 64da ebbc e844 a0bc 005e 493b
00000010: 9468 8bbd ef7e fb3c 2498 f63c 9dad dab8
00000020: 88d5 95bd 1ab0 723d c88c e4bc e7f7 923d
00000030: ce46 883d 1085 9a3b 70af 273d 89c2 92bd
00000040: 6ace 80bd be9d 6b3d d38d 503d 0c44 a0bd
00000050: 4b6b 813d f7c5 71bc 9496 7b3c 6c2e d2bb
00000060: 1afb 833d 10b4 82bd 0bf7 08bd fc30 103d
00000070: 686b 6fbd f999 9dbd af01 d2bd 2040 0ebc
00000080: bc20 e73c 0786 32bc ea7f 80bc d899 a0bd
00000090: 9c60 b1bd 5206 6a3d 9a56 2b3d 2988 1cbd
000000a0: 06d0 823d 95e4 85bd 7939 b2bd 60e2 8a3c
000000b0: ccf1 0d3d 226a c2bd 39be edbc d257 d7bd
000000c0: d8bb e1bd f345 753d e43d be3c d297 f93b
000000d0: ac20 58bd 8028 b33a 0705 8b3d 981b a13c
000000e0: 96e9 8f3c 7ff0 823b 60c1 c0bd caf5 123d
000000f0: d8d9 a8bd d78c b1bd 3a49 d3bd 9394 313c
00000100: 2e06 603d eb8e adbd 09b6 1e3d 4869 7e3d
00000110: 3824 25bd 508a ee3b dfe8 0bbd e5b0 2abd
00000120: 228f 37bd 093e 8bbd 2067 d4bb 5edd 92bd
00000130: 1936 f33c 1a2d 85bd 6197 b93c 9c45 803d
00000140: 2d0a dcbd 159b 873d 3c69 07bd 1a01 84bd
00000150: 22ab 86bd 4560 1a3d 9f8d 443c 431a 04bd
00000160: 0ddd f83c 624f 8bbd f49b acbd 2f7c 793d
00000170: 320f 193c d683 4e3d 4227 adbd a412 3dbd
00000180: 05b6 9ebd cde1 8abd 8fd7 f33c a7ab a83d
00000190: 929a 03bd 13e1 99bd 15f9 9bbd e793 613d
000001a0: b4bc 16bd c14a 943d 0c98 183d 62c7 0e3c
000001b0: 4bd8 4b3b 8215 673d a1d5 2e3c c744 06bc
000001c0: 4209 a1bd 23b3 cabd ba02 1abd d0db cc3c
000001d0: ccfc 693d ccf4 7bbd 4f9e 4bbb a127 803d
000001e0: 23c7 043d 28d7 bdbc 01c0 833d 80c7 12ba
000001f0: a8ac 253d eb22 a33d 660a 52bd 4945 53bd
00000200: 0260 1c3d 1740 b43d 8a14 2b3d 36a4 40bd
00000210: 1c83 963c b8e0 9cbd 37eb 913d a019 333b
00000220: 5f4e 52bd 6648 0c3d 05ac a63d 1c07 aebc
00000230: 80ab b73c 3161 b33d b063 0fbc bf36 923d
00000240: 9116 9fbd e20c a7bd 7638 133d 80bd c7bc
00000250: 986f b3bd b0e6 a1bb 7021 ce3c 9054 513c
00000260: 728d a3bd dbfa 9bbd e861 1dbd c830 d93c
00000270: 3766 a03d b87e c0bc fabe 023d 406a a6bd
00000280: 8173 b43d ba23 a7bd 378d 8e3d 9a6d 1c3d
00000290: 28f9 c9bc ecd4 b7bc 404a 8abd a0f3 b3bc
000002a0: b1fa a6bd ef7d ad3d d8b3 e8bc 6e38 2d3d
000002b0: b86a 5dbd 5285 abbd 7b44 90bd 127d 4b3d
000002c0: 0b57 853d f85a 4e3c 8833 f4bc 7550 873d
000002d0: ec7b 813c 72c8 f4bc c497 b4bc bcea e0bc
000002e0: fcfc 9fbd d05f 15bc 24c6 f43c 54de 8a3c
000002f0: 2775 9d3d b444 0d3d bcfa da3c 3b1d 90bd
00000300: c5df 853d 6393 3bbd 5e9c 383d e2b9 71bd
00000310: ea19 73bd c540 873d 5e1e 213d 2eb1 77bd
00000320: 43c1 b13d 10f9 a7bc 4725 8cbd e669 6d3d
00000330: ae46 76bd af6d 863d 863b 0abd 16db 4a3d
00000340: 6c19 b03c 76e9 43bd 2bc0 a1bd dea4 6e3d
00000350: cc4b 003d 0aff 14bd 40eb 72bb 60f9 eebc
00000360: 183e 69bc 4029 febc 799a 7ebd 1439 24bd
00000370: 393d 893d b7d0 853d 98cc 4e3c 3d85 ab3d
00000380: 94a0 a4bc b88d b7bc c0c4 4a3c 00de 69bb
00000390: 52f8 d8bc 0032 e039 c9a5 803d c789 a23d
000003a0: 5d85 2bbd d06d 5fbd 38ac 343c 0810 07bd
000003b0: f0c2 3ebd f2cc 753d 164e fdbc 7daf 9d3d
000003c0: 6551 0bbd 20b4 91bb a02d e03c 3471 073d
000003d0: b057 f23b 481a b83c d8ba 0dbc 502b 0e3d
000003e0: 657f a6bd 1af5 2f3d 60c6 7cbc 88b9 133d
000003f0: 9883 00bc 60dd 993b 2459 a7bc c0c9 28bc

fc2.bias f4 [128]
0.041531246 -0.0013552085 -0.03683476 -0.026659613 -0.08051168 -0.060326234 0.02307515 -0.003864477
0.024044903 0.081317425 0.05125361 0.066489734 0.13046509 -0.09197443 0.12033474 -0.050996747
-0.039988354 0.026885048 0.04448563 0.08923972 0.03916437 0.054276384 -0.04374901 0.07979224
-0.020100432 0.04604984 0.21809967 0.1112952 -0.018673282 0.028429171 0.06994353 0.21049014
0.16247605 0.19449918 -0.05303854 -0.07383282 0.015385191 -0.035216805 0.09922049 0.0073971353
0.01574081 -0.0066720247 0.07231726 0.0992645 0.20845638 0.0935541 0.030416345 -0.020383693
0.18938106 0.07452703 -0.022591576 0.041862406 0.12210067 -0.012471661 0.049439684 0.14623109
-4.333862e-05 0.0904436 0.15321586 0.042531352 0.1242693 0.13598253 0.18335295 0.16358097
0.120743714 -0.08485272 0.2160001 0.00969246 0.16166872 -0.014856309 0.14333768 0.21276692
-0.00066746667 -0.06613992 0.09314375 0.032788858 -0.0012705746 0.17131189 0.012630018 -0.04064708
0.1647383 0.024811594 0.05898283 0.16421224 0.10038524 -0.004562825 0.066711746 0.011605782
0.1683013 0.19293864 -0.10319807 -0.024975725 0.11044503 0.007485017 0.08106793 -0.07044223
-0.026322467 0.079081245 0.1469401 -0.07384646 0.12613581 0.106725916 0.05186481 -0.043658137
-0.012504324 0.081515945 -0.019432873 0.16568647 0.13968015 0.15078387 -0.07295081 -0.10662536
0.09129943 0.022307314 0.1493264 0.03922852 0.06944178 0.13250253 0.16834174 0.15931997
0.03744369 0.12090272 0.045603644 0.17680447 0.056942545 0.12480565 0.0064037372 0.1342138
00000000: ab1c 2a3d 40a1 b1ba 0ce0 16bd 4365 dabc
00000010: 4fe3 a4bd a418 77bd 1908 bd3c 2a43 7dbb
00000020: d1f9 c43c c089 a63d 4eef 513d c52b 883d
00000030: a498 053e 175d bcbd 0f72 f63d f7e1 50bd
00000040: d4ca 23bd 083e dc3c 9036 363d 50c3 b63d
00000050: d26a 203d ea50 5e3d 2932 33bd 1d6a a33d
00000060: a9a9 a4bc c29e 3c3d 8555 5f3e bdee e33d
00000070: b6f8 98bc 4be4 e83c 8e3e 8f3d ba8a 573e
00000080: 1f60 263e cb2a 473e f13e 59bd a935 97bd
00000090: 2b12 7c3c 7f3f 10bd 1d34 cb3d ab63 f23b
000000a0: dff2 803c 00a1 dabb 121b 943d 304b cb3d
000000b0: 9775 553e 4b99 bf3d b32b f93c b4fb a6bc
000000c0: 1ced 413e a1a1 983d f811 b9bc ea77 2b3d
000000d0: eb0f fa3d f055 4cbc 4481 4a3d 9abd 153e
000000e0: 7dc6 35b8 7f3a b93d 9ee4 1c3e 5b35 2e3d
000000f0: e780 fe3d 013f 0b3e e0c0 3b3e c581 273e
00000100: 7b48 f73d 43c7 adbd 212f 5d3e 20cd 1e3c
00000110: 7c8c 253e e067 73bc 1dc7 123e 92df 593e
00000120: eef8 2eba 5e74 87bd 27c2 be3d 9c4d 063d
00000130: 6989 a6ba 626c 2f3e 23ee 4e3c 8d7d 26bd
00000140: 28b1 283e af41 cb3c fb97 713d 4127 283e
00000150: c796 cd3d c083 95bb 2ba0 883d 2e26 3e3c
00000160: 2d57 2c3e b591 453e 8259 d3bd e499 ccbc
00000170: 0131 e23d e044 f53b f106 a63d 0444 90bd
00000180: 37a2 d7bc 59f5 a13d 7777 163e d03c 97bd
00000190: bf29 013e 1e93 da3d 3270 543d e0d2 32bd
000001a0: f0de 4cbc d5f1 a63d b031 9fbc b7a9 293e
000001b0: 5008 0f3e 1667 1a3e 3c67 95bd 665e dabd
000001c0: 32fb ba3d d4bd b63c 05e9 183e 16ae 203d
000001d0: 7e37 8e3d beae 073e c761 2c3e c624 233e
000001e0: 8e5e 193d d89b f73d e3ca 3a3d 3b0c 353e
000001f0: 963c 693d 1b9a ff3d 71d6 d13b 586f 093e

fc3.weight f4 [4, 128]
-0.046871472 0.086983226 0.013814025 -0.047021765 0.019307606 0.03534063 0.06399173 0.03284334
0.04443429 -0.08350045 0.07034855 -0.07799937 -0.05350118 -0.071241446 -0.054975107 0.03557059
0.030256907 0.017041527 -0.13558072 -0.1452317 -0.07178597 -0.074181855 -0.06326125 -0.03704183
0.058336217 -0.050014935 -0.1256773 -0.111764096 0.018768407 0.07161478 -0.08013087 -0.010455685
-0.046880934 -0.015133393 0.017121062 0.065175556 0.04493778 0.017130626 -0.08315182 0.021974834
0.0694023 -0.0878989 0.0032432007 -0.14227805 -0.034738634 -0.0036665113 -0.1613497 0.037265006
-0.08096846 -0.056608528 -0.02177924 -0.0872806 -0.13086879 -0.06679782 0.0015668882 -0.13190722
-0.028009888 -0.14426778 -0.1900329 0.036900043 -0.13545991 -0.14998762 -0.10868412 -0.12528963
-0.08795155 -0.082708545 -0.04765712 -0.015313245 -0.07096497 -0.047873087 -0.07063974 -0.13399462
0.0283244 -0.04839086 -0.10239386 -0.072916515 0.017548438 -0.13380654 0.016226947 -0.06335417
-0.1337411 0.045889962 -0.15895769 -0.14468335 -0.1328457 0.050198607 -0.15254512 0.038758155
-0.14788602 -0.09454395 0.03667488 0.057675354 -0.16382852 0.018279605 -0.033649642 -0.0590669
0.04215105 0.007813898 -0.10331401 0.0616291 0.010021467 0.044539202 -0.01743009 -0.03823166
0.025789358 -0.055633206 0.013212559 -0.018807817 -0.12919667 -0.1905804 -0.020199 -0.020179603
-0.027867688 0.055992022 -0.1513342 0.06602279 -0.090840526 -0.18701811 -0.08565162 -0.1477622
-0.055204615 -0.13903555 0.06337886 -0.14882317 -0.024316214 -0.105898194 0.05361615 -0.09305047
-0.053062804 0.0741264 0.08006031 -0.09953972 0.04959678 -0.06881309 -0.100749895 0.08980837
-0.024530299 -0.054717023 -0.024231873 0.024933286 -0.090581976 -0.018902756 -0.15822206 -0.04422921
-0.031940043 -0.049728256 -0.031182969 -0.15913677 0.07370486 0.06287443 0.064293094 -0.061912827
0.04244118 0.08406695 -0.11817924 -0.023064133 -0.015135457 0.07069903 -0.06309193 -0.087832764
-0.072258 -0.05176802 -0.060819484 -0.030847382 0.053489454 -0.0064999633 -0.023939986 -0.046480827
0.055576228 0.03201598 -0.058188118 -0.16182646 -0.12130652 -0.10876146 -0.11933406 0.07571405
-0.062362127 -0.032136783 -0.044782173 0.07720142 0.000771266 0.037371002 0.015069151 -0.080566704
-0.021749247 -0.11941071 -0.11142811 -0.06328918 -0.14506751 -0.014970773 -0.02440442 -0.124875546
-0.09126757 0.045114644 -0.13681713 -0.06959012 -0.005640525 0.036934964 -0.01552045 -0.18403108
-0.060244072 0.06560308 -0.07138593 0.012823202 0.07488592 -0.1383933 0.061173674 0.07839721
-0.10734859 -0.054184124 -0.089627676 -0.14955951 -0.05365996 0.04757174 -0.12727313 -0.030119423
-0.13249148 -0.07703791 -0.0381273 0.07353971 -0.13101563 -0.022382945 -0.02916171 -0.022021793
-0.057450343 -0.04338293 -0.09087983 0.0014415323 -0.12213007 -0.22639205 0.087703295 -0.016289555
0.07089033 0.023383304 0.082052484 -0.12171896 -0.055529673 -0.15940532 -0.0023613498 -0.05962085
-0.09360335 0.08563937 -0.06309722 -0.014620751 -0.021576185 -0.1790734 -0.09210438 -0.05277
0.081471704 -0.1620661 -0.049485434 -0.019106619 -0.13323425 -0.014699821 0.023247434 -0.07423367
00000000: 4dfc 3fbd 4324 b23d 3854 623c e599 40bd
00000010: fc2a 9e3c 56c1 103d 190e 833d bd86 063d
00000020: bb00 363d 4902 abbd e712 903d 22be 9fbd
00000030: 0e24 5bbd 09e7 91bd 942d 61bd 78b2 113d
00000040: 55dd f73c ac9a 8b3c acd5 0abe 9eb7 14be
00000050: 8604 93bd a8ec 97bd 1d8f 81bd 2db9 17bd
00000060: f5f1 6e3d 76dc 4cbd 8db1 00be 93e4 e4bd
00000070: 34c0 993c c5aa 923d a71b a4bd 524e 2bbc
00000080: 3906 40bd 0df2 77bc 7841 8c3c c37a 853d
00000090: ad10 383d 8755 8c3c 804b aabd 9104 b43c
000000a0: cb22 8e3d 5704 b4bd e18b 543b 56b1 11be
000000b0: 194a 0ebd da49 70bb db38 25be 31a3 183d
000000c0: cbd2 a5bd 58de 67bd 606a b2bc 2cc0 b2bd
000000d0: 7802 06be 4ccd 88bd 0b60 cd3a b012 07be
000000e0: fe74 e5bc efba 13be fc97 42be 8024 173d
000000f0: 01b6 0abe 5b96 19be c895 debd ed4b 00be
00000100: f11f b4bd 1963 a9bd 1d34 43bd 68e4 7abc
00000110: 1556 91bd 9216 44bd 91ab 90bd e335 09be
00000120: 9208 e83c 7f35 46bd dfb3 d1bd 4155 95bd
00000130: bec1 8f3c 9504 09be 60ee 843c d5bf 81bd
00000140: 6df3 08be 1df7 3b3d cec5 22be df27 14be
00000150: b408 08be 0e9d 4d3d ca34 1cbe dfc0 1e3d
00000160: 6f6f 17be 42a0 c1bd 6638 163d fe3c 6c3d
00000170: aac2 27be 1cbf 953c 35d4 09bd 22f0 71bd
00000180: 94a6 2c3d dd05 003c 4c96 d3bd cc6e 7c3d
00000190: 1431 243c bd6e 363d 8cc9 8ebc cd98 1cbd
000001a0: 3444 d33c a5df 63bd 7d79 583c da12 9abc
000001b0: 224c 04be 8227 43be 6078 a5bc b24f a5bc
000001c0: c74a e4bc e457 653d 5af7 1abe f536 873d
000001d0: 990a babd ad81 3fbe 1e6a afbd f94e 17be
000001e0: 3c1e 62bd 565f 0ebe c7cc 813d 1a65 18be
000001f0: cc32 c7bc 27e1 d8bd 9c9c 5b3d 3f91 bebd
00000200: 6258 59bd 95cf 973d a9f6 a33d 7bdb cbbd
00000210: fe25 4b3d e1ed 8cbd f655 cebd 73ed b73d
00000220: c4f3 c8bc f51e 60bd ec81 c6bc e440 cc3c
00000230: 0b83 b9bd f4d9 9abc f704 22be b029 35bd
00000240: 90d3 02bd dbaf 4bbd 6d73 ffbc c0f4 22be
00000250: 93f2 963d 4fc4 803d 19ac 833d 4e98 7dbd
00000260: ced6 2d3d 4b2b ac3d f507 f2bd fef0 bcbc
00000270: b5fa 77bc a7ca 903d 5736 81bd aae1 b3bd
00000280: 01fc 93bd b40a 54bd da1d 79bd a6b3 fcbc
00000290: c217 5b3d a5fd d4bb ca1d c4bc ae62 3ebd
000002a0: e6a3 633d 3023 033d aa56 6ebd d6b5 25be
000002b0: 8e6f f8bd 54be debd 6a65 f4bd f80f 9b3d
000002c0: 6e6f 7fbd dca1 03bd 836d 37bd c71b 9e3d
000002d0: c92e 4a3a 5612 193d 9ae4 763c 2800 a5bd
000002e0: 7a2b b2bc 9a8d f4bd 6c34 e4bd c29d 81bd
000002f0: 948c 14be f947 75bc c7eb c7bc c0be ffbd
00000300: 7eea babd 22ca 383d ca19 0cbe 4485 8ebd
00000310: 27d4 b8bb 1e49 173d 7c49 7ebc a572 3cbe
00000320: 7dc2 76bd e85a 863d c932 92bd 6818 523c
00000330: ca5d 993d f9b6 0dbe 3f91 7a3d b78e a03d
00000340: 94d9 dbbd 2cf0 5dbd b78e b7bd 2126 19be
00000350: 8cca 5bbd 96da 423d e353 02be 02bd f6bc
00000360: d9ab 07be 0dc6 9dbd 5f2b 1cbd fd9b 963d
00000370: f628 06be 705c b7bc 8ae4 eebc 0c67 b4bc
00000380: 0d51 6bbd 4db2 31bd 341f babd ccf1 bc3a
00000390: 551f fabd 51d3 67be c99d b33d ac71 85bc
000003a0: f32e 913d 588e bf3c 220b a83d ca47 f9bd
000003b0: 1573 63bd 263b 23be e0c0 1abb fe34 74bd
000003c0: 1db3 bfbd b263 af3d 1e39 81bd e08b 6fbc
000003d0: 8ac0 b0bc 045f 37be 39a1 bcbd 5b25 58bd
000003e0: a3da a63d a8f4 25be 3db1 4abd 7c85 9cbc
000003f0: 8f6e 08be 85d7 70bc 6771 be3c d307 98bd

fc3.bias f4 [4]
-0.05131682 -0.008588351 -0.12492383 -0.059418347
00000000: 9631 52bd 28b6 0cbc 11d8 ffbd a760 73bd
