model_w/DQA_2/model_14999.pth (torch, 72240 bytes, 6 tensors)

fc1.weight f4 [128, 2]
373.06735 348.604 -0.5420113 -0.067430556 372.69772 347.3693 372.79666 348.2311
372.9271 348.01248 372.72263 348.323 372.78107 347.4462 372.4707 348.20502
-0.36538956 -0.2540521 -0.44987798 -0.43223575 370.847 346.67685 371.02905 348.15347
372.32562 348.59366 -0.51036763 -0.4171254 372.62704 347.7761 372.75824 348.68253
371.97598 348.2552 371.8849 347.7423 372.78818 348.66147 373.07413 348.61377
373.04807 348.3137 372.82657 347.5479 372.7869 348.7677 373.19135 348.0819
371.83264 347.4417 371.67087 348.089 371.5955 348.23523 370.213 346.64886
371.91714 347.92935 371.73364 347.3314 372.82846 347.61523 -0.17476946 -0.40065518
0.0013892133 -0.030144596 372.9831 347.54523 372.63242 348.41516 -0.17429054 -0.008237839
372.40912 348.51138 371.82996 348.0639 -0.27858073 -0.07121831 372.92892 347.54224
372.31912 348.61432 -0.028733253 -0.06717795 372.74283 348.45718 372.85657 347.9181
372.6673 347.71252 373.1842 348.453 372.68842 347.3874 372.19708 347.72165
372.67596 347.6586 371.86612 347.60004 372.5037 348.66693 373.04202 348.14325
373.23288 348.6309 372.18256 348.69495 371.6835 347.87195 372.74164 348.05664
373.0865 348.29193 372.01175 348.41992 372.79916 348.44077 371.8018 347.4093
372.84787 348.32233 -0.18899971 -0.49181384 371.7639 346.99146 372.98727 348.55725
371.66812 348.1654 372.02893 347.97726 371.96094 347.86646 372.58102 348.16205
372.22314 348.431 371.35303 348.0711 372.46927 348.4842 371.08878 347.52774
-0.20561767 -0.43829292 372.17657 348.49976 373.0484 347.34113 371.56223 348.15207
372.39984 348.31668 372.51398 347.64944 372.75464 347.5546 373.0119 348.2293
372.69174 347.42526 372.84186 348.77847 -0.41250604 -0.08824545 372.23483 348.61017
-0.29582578 -0.6090158 372.55582 348.32553 370.82678 346.72992 371.97845 348.5506
372.10782 347.17252 372.2181 348.46744 373.25015 348.82007 372.37073 347.67505
372.9504 348.2408 372.90283 348.24368 372.72687 348.38284 -0.09125525 -0.64087933
371.44287 348.45197 373.22717 348.40253 372.43115 348.26816 -0.22664475 -0.2056849
372.94214 347.48572 372.21384 348.10474 371.73874 347.26468 372.61935 347.5979
372.49335 347.76703 -0.07020974 -0.63507 372.5272 347.78833 372.67303 347.31833
372.6937 347.6615 371.1544 347.5562 372.33957 348.49268 371.68237 348.3817
372.6204 347.96466 373.0888 348.17953 -0.42558295 -0.3021827 -0.42135754 -0.62791955
371.8132 348.24478 -0.5297869 -0.48901385 372.71606 348.59467 372.71024 347.71118
372.4929 348.63205 -0.6474143 -0.28611445 372.77533 347.27478 372.93695 347.95895
372.9006 347.22635 371.30682 347.94055 372.9226 347.47067 372.3708 348.48203
00000000: 9f88 ba43 504d ae43 41c1 0abf 0819 8abd
00000010: 4f59 ba43 45af ad43 f965 ba43 951d ae43
00000020: ab76 ba43 9901 ae43 7f5c ba43 5829 ae43
00000030: fa63 ba43 1db9 ad43 403c ba43 3e1a ae43
00000040: 5714 bbbe 1e13 82be 6856 e6be 014e ddbe
00000050: 6a6c b943 a356 ad43 b883 b943 a513 ae43
00000060: ae29 ba43 fd4b ae43 74a7 02bf 7691 d5be
00000070: 4350 ba43 57e3 ad43 0e61 ba43 5d57 ae43
00000080: edfc b943 aa20 ae43 44f1 b943 04df ad43
00000090: e364 ba43 ab54 ae43 7d89 ba43 904e ae43
000000a0: 2786 ba43 2728 ae43 cd69 ba43 22c6 ad43
000000b0: b964 ba43 4462 ae43 7e98 ba43 7c0a ae43
000000c0: 94ea b943 8ab8 ad43 dfd5 b943 640b ae43
000000d0: 39cc b943 1c1e ae43 441b b943 0e53 ad43
000000e0: 65f5 b943 f5f6 ad43 e8dd b943 6baa ad43
000000f0: 0b6a ba43 c0ce ad43 c4f6 32be ad22 cdbe
00000100: 4316 b63a cdf1 f6bc d67d ba43 cac5 ad43
00000110: f350 ba43 2435 ae43 3879 32be 00f8 06bc
00000120: 5e34 ba43 7541 ae43 3cea b943 2e08 ae43
00000130: 22a2 8ebe e8da 91bd e776 ba43 68c5 ad43
00000140: d928 ba43 a24e ae43 0062 ebbc 9894 89bd
00000150: 155f ba43 853a ae43 a46d ba43 84f5 ad43
00000160: 6a55 ba43 34db ad43 9497 ba43 fc39 ae43
00000170: 1e58 ba43 96b1 ad43 3a19 ba43 5fdc ad43
00000180: 8656 ba43 4dd4 ad43 ddee b943 cecc ad43
00000190: 7940 ba43 5e55 ae43 6185 ba43 5612 ae43
000001a0: cf9d ba43 c150 ae43 5e17 ba43 f458 ae43
000001b0: 7dd7 b943 9cef ad43 ee5e ba43 4007 ae43
000001c0: 128b ba43 5e25 ae43 8101 ba43 c035 ae43
000001d0: 4b66 ba43 6b38 ae43 a1e6 b943 64b4 ad43
000001e0: 876c ba43 4229 ae43 2489 41be 06cf fbbe
000001f0: c7e1 b943 e87e ad43 5f7e ba43 5447 ae43
00000200: 85d5 b943 2c15 ae43 b403 ba43 17fd ad43
00000210: 00fb b943 e8ee ad43 5f4a ba43 be14 ae43
00000220: 901c ba43 2b37 ae43 30ad b943 1a09 ae43
00000230: 113c ba43 fa3d ae43 5d8b b943 8dc3 ad43
00000240: 708d 52be ee67 e0be 9a16 ba43 f83f ae43
00000250: 3286 ba43 aaab ad43 f7c7 b943 7713 ae43
00000260: 2e33 ba43 8928 ae43 ca41 ba43 21d3 ad43
00000270: 9860 ba43 fdc6 ad43 8681 ba43 5a1d ae43
00000280: 8b58 ba43 6fb6 ad43 c26b ba43 a563 ae43
00000290: fe33 d3be 08ba b4bd 0f1e ba43 1a4e ae43
000002a0: 7a76 97be 76e8 1bbf 2547 ba43 ab29 ae43
000002b0: d469 b943 6e5d ad43 3efd b943 7a46 ae43
000002c0: cd0d ba43 1596 ad43 eb1b ba43 d53b ae43
000002d0: 05a0 ba43 f868 ae43 742f ba43 68d6 ad43
000002e0: a779 ba43 d31e ae43 9073 ba43 311f ae43
000002f0: 0a5d ba43 0131 ae43 08e4 babd ab10 24bf
00000300: b0b8 b943 da39 ae43 149d ba43 8633 ae43
00000310: 3037 ba43 5322 ae43 9015 68be 109f 52be
00000320: 9878 ba43 2cbe ad43 5f1b ba43 680d ae43
00000330: 8fde b943 e1a1 ad43 474f ba43 88cc ad43
00000340: 263f ba43 2ee2 ad43 20ca 8fbd f393 22bf
00000350: 7b43 ba43 e8e4 ad43 2656 ba43 bfa8 ad43
00000360: cb58 ba43 acd4 ad43 c393 b943 32c7 ad43
00000370: 772b ba43 103f ae43 58d7 b943 dc30 ae43
00000380: 694f ba43 7afb ad43 5e8b ba43 fb16 ae43
00000390: 02e6 d9be b1b7 9abe 2dbc d7be 56bf 20bf
000003a0: 17e8 b943 551f ae43 1da0 07bf 0660 fabe
000003b0: a85b ba43 1e4c ae43 e95a ba43 08db ad43
000003c0: 173f ba43 e750 ae43 f2bc 25bf 987d 92be
000003d0: 3e63 ba43 2ca3 ad43 ee77 ba43 bffa ad43
000003e0: 4773 ba43 f99c ad43 46a7 b943 64f8 ad43
000003f0: 1876 ba43 3fbc ad43 762f ba43 b33d ae43

fc1.bias f4 [128]
985.30927 -0.5500319 985.48035 985.11633 985.10315 985.7969 985.627 985.5432
-0.06340468 -0.61129415 985.50775 985.0245 985.8928 -0.3367197 985.7268 985.47394
985.77686 985.8706 986.01685 985.9006 986.16095 985.34534 985.0084 985.1301
985.51276 985.4235 984.785 983.53284 985.34393 985.94183 986.0799 -0.08655816
-0.12395925 985.58215 985.4409 -0.3478607 985.74835 985.1103 -0.46121937 986.29565
985.0784 -0.09573805 985.97314 985.9263 985.446 984.86615 985.8489 985.8285
986.1456 985.8614 986.085 984.7194 984.7571 985.18744 985.86163 985.79944
984.70734 985.8518 984.91034 985.54626 985.68976 -0.3116128 985.62823 986.01263
985.5515 985.5582 985.6128 985.5163 985.5565 984.803 985.7132 985.59814
-0.67203134 985.169 985.00964 984.62585 984.96747 985.72095 985.5755 985.869
985.9923 985.7828 -0.6836991 986.1362 -0.6990907 986.1106 985.52386 984.7914
985.5368 985.9698 985.177 986.18585 984.8015 985.90094 985.25806 -0.0032598972
985.77924 985.0596 985.07556 -0.47092205 986.18787 985.7756 985.72504 986.2856
986.0544 -0.34711072 985.8575 985.35144 985.50714 985.5889 985.3491 985.92786
985.858 984.6461 -0.54678446 -0.102978766 985.2965 -0.6204885 985.39105 986.067
985.75214 -0.27263507 985.14056 985.1107 985.1122 985.25366 985.6304 986.17004
00000000: cb53 7644 e4ce 0cbf be5e 7644 7247 7644
00000010: 9a46 7644 0073 7644 2168 7644 c462 7644
00000020: 50da 81bd c67d 1cbf 7f60 7644 9141 7644
00000030: 2479 7644 8666 acbe 846e 7644 555e 7644
00000040: b871 7644 b877 7644 1481 7644 a379 7644
00000050: 4d8a 7644 1a56 7644 8a40 7644 5448 7644
00000060: d160 7644 1b5b 7644 3d32 7644 1ae2 7544
00000070: 0356 7644 477c 7644 1d85 7644 6845 b1bd
00000080: 59de fdbd 4265 7644 385c 7644 cc1a b2be
00000090: e56f 7644 0f47 7644 f224 ecbe ec92 7644
000000a0: 0545 7644 5012 c4bd 487e 7644 487b 7644
000000b0: 8b5c 7644 6f37 7644 5476 7644 0675 7644
000000c0: 5289 7644 2177 7644 7185 7644 0b2e 7644
000000d0: 7430 7644 ff4b 7644 2577 7644 2a73 7644
000000e0: 452d 7644 8476 7644 433a 7644 f662 7644
000000f0: 256c 7644 b78b 9fbe 3568 7644 cf80 7644
00000100: 4c63 7644 ba63 7644 3867 7644 0b61 7644
00000110: 9e63 7644 6433 7644 a56d 7644 4866 7644
00000120: 3f0a 2cbf d14a 7644 9e40 7644 0e28 7644
00000130: eb3d 7644 246e 7644 d564 7644 9e77 7644
00000140: 827f 7644 1972 7644 e706 2fbf b888 7644
00000150: 9cf7 32bf 1487 7644 8761 7644 a632 7644
00000160: 5b62 7644 117e 7644 544b 7644 e58b 7644
00000170: 4c33 7644 a979 7644 8450 7644 00a4 55bb
00000180: df71 7644 d043 7644 d644 7644 b21c f1be
00000190: 068c 7644 a371 7644 676e 7644 4792 7644
000001a0: 7b83 7644 7fb8 b1be e176 7644 7e56 7644
000001b0: 7560 7644 b165 7644 5856 7644 627b 7644
000001c0: e976 7644 5a29 7644 11fa 0bbf 88e6 d2bd
000001d0: fa52 7644 56d8 1ebf 0759 7644 4a84 7644
000001e0: 2370 7644 d396 8bbe ff48 7644 1647 7644
000001f0: 2e47 7644 3c50 7644 5868 7644 e28a 7644

fc2.weight f4 [128, 128]
-0.009507653 -0.02879066 -0.019564163 0.0030726194 -0.06807056 0.030700143 0.030101787 -0.00010429396
-0.073161185 0.059249975 -0.027899206 0.0717619 0.0665413 0.0047155693 0.040938746 -0.07166011
-0.0628937 0.05752345 0.050916478 -0.07825479 0.06319292 -0.014756729 0.015355709 -0.00641427
0.06444376 -0.063820004 -0.033438724 0.035202965 -0.05845204 -0.076953866 -0.10254231 -0.008682281
0.028213851 -0.010896271 -0.01568601 -0.07841843 -0.08661005 0.057134934 0.041830637 -0.03821583
0.063873336 -0.06537739 -0.08702368 0.016953608 0.034654375 -0.094928995 -0.029021425 -0.10514801
-0.1102216 0.05988113 0.023222843 0.007616964 -0.052765537 0.001366851 0.06788068 0.01966644
0.017567424 0.0039959294 -0.09411883 0.035878893 -0.082446754 -0.08669441 -0.10316705 0.01083861
0.054693393 -0.08474525 0.0387478 0.06211212 -0.040317748 0.0072796764 -0.03415765 -0.041672643
-0.044814236 -0.06798942 -0.0064820824 -0.07171129 0.029688882 -0.06502747 0.022655135 0.06263276
-0.10744132 0.066213764 -0.033059344 -0.064455226 -0.0657561 0.037689436 0.011996607 -0.032251608
0.030378787 -0.068022504 -0.08428183 0.060909398 0.009341987 0.050418667 -0.084547535 -0.046160355
-0.07749561 -0.06781349 0.029765872 0.08235865 -0.032129876 -0.075136326 -0.0761587 0.055072647
-0.036801104 0.07240821 0.03725433 0.008714475 0.003110364 0.05641696 0.010671034 -0.00819513
-0.078630954 -0.09897449 -0.037600257 0.025007159 0.05712585 -0.061512753 -0.0031069897 0.06257556
0.03241646 -0.023173884 0.06433103 -0.0005599186 0.04044781 0.079656444 -0.051279496 -0.051579773
0.038177498 0.08801287 0.041767634 -0.047031604 0.018373065 -0.07660049 0.07124942 0.0027328506
-0.05134427 0.034248732 0.08138279 -0.021243624 0.022420645 0.08758772 -0.008751795 0.07139348
-0.07767976 -0.08156754 0.035942517 -0.024382353 -0.08761519 -0.00494083 0.025162429 0.012776509
-0.07985963 -0.07616206 -0.03842345 0.026512519 0.07831996 -0.023497924 0.03192041 -0.08125734
0.08811093 -0.08161111 0.06960528 0.03819046 -0.02465494 -0.022440396 -0.06752443 -0.021966755
-0.08153284 0.084712856 -0.028406069 0.042290144 -0.054056853 -0.08375038 -0.070443116 0.049679823
0.06510743 0.012594931 -0.029809728 0.06607143 0.01580616 -0.029880736 -0.022045024 -0.02745568
-0.07811925 -0.009117082 0.029879637 0.016951717 0.07688361 0.03448935 0.026730888 -0.07036825
0.06536821 -0.045794856 0.045071 -0.059015162 -0.059350885 0.06604151 0.0393356 -0.060471706
0.0867944 -0.020504504 -0.068430476 0.05796232 -0.060126 0.06563889 -0.033748172 0.049525343
0.021496497 -0.047830068 -0.07897981 0.0582627 0.031322286 -0.036376037 -0.003706649 -0.029171646
-0.014235996 -0.031025529 -0.062159035 -0.040093496 0.067011304 0.0653395 0.012622021 0.083750226
-0.0200961 -0.022406444 0.01237601 -0.00356853 -0.026485596 0.00042761862 0.06281621 0.07936435
-0.041875232 -0.054548085 0.011027388 -0.032974273 -0.046572626 0.060009904 -0.030921023 0.07699487
-0.03401317 -0.0044465214 0.027365506 0.033066943 0.007395707 0.02247347 -0.008650504 0.034709275
-0.08129767 0.042958356 -0.015428156 0.03606561 -0.007843874 0.0046955794 -0.020428248 -0.010302007
00000000: fdc5 1bbc 64da ebbc 0645 a0bc 005e 493b
00000010: 9468 8bbd de7e fb3c 0698 f63c 65b8 dab8
00000020: 88d5 95bd 1ab0 723d e08c e4bc e7f7 923d
00000030: ce46 883d 1085 9a3b 63af 273d 89c2 92bd
00000040: 6ace 80bd b69d 6b3d cc8d 503d 0c44 a0bd
00000050: 4a6b 813d 35c6 71bc 8396 7b3c cc2e d2bb
00000060: 17fb 833d 10b4 82bd 0bf7 08bd fc30 103d
00000070: 686b 6fbd fd99 9dbd b401 d2bd 2040 0ebc
00000080: bc20 e73c 4686 32bc f27f 80bc d899 a0bd
00000090: 9c60 b1bd 5206 6a3d 9a56 2b3d 3488 1cbd
000000a0: 06d0 823d 95e4 85bd 7939 b2bd 4be2 8a3c
000000b0: bff1 0d3d 226a c2bd 57be edbc d757 d7bd
000000c0: ddbb e1bd ea45 753d d53d be3c ba97 f93b
000000d0: ad20 58bd e927 b33a 0705 8b3d 841b a13c
000000e0: 8fe9 8f3c 49f0 823b 60c1 c0bd bff5 123d
000000f0: d8d9 a8bd d78c b1bd 3f49 d3bd 6d94 313c
00000100: 2e06 603d eb8e adbd 03b6 1e3d 4769 7e3d
00000110: 3924 25bd 5a8a ee3b e4e8 0bbd efb0 2abd
00000120: 228f 37bd 093e 8bbd a667 d4bb 5edd 92bd
00000130: 1936 f33c 1f2d 85bd 4397 b93c 9b45 803d
00000140: 320a dcbd 159b 873d 3c69 07bd 1a01 84bd
00000150: 22ab 86bd 3d60 1a3d 6b8d 443c 431a 04bd
00000160: efdc f83c 624f 8bbd f49b acbd 227c 793d
00000170: 220f 193c ce83 4e3d 4227 adbd a412 3dbd
00000180: 05b6 9ebd cde1 8abd 8fd7 f33c a7ab a83d
00000190: 9e9a 03bd 13e1 99bd 18f9 9bbd db93 613d
000001a0: c1bc 16bd c14a 943d ff97 183d 28c7 0e3c
000001b0: 40d7 4b3b 7815 673d 90d5 2e3c de44 06bc
000001c0: 4409 a1bd 23b3 cabd ba02 1abd d0db cc3c
000001d0: ccfc 693d ccf4 7bbd a39e 4bbb 9d27 803d
000001e0: 1fc7 043d 28d7 bdbc fdbf 833d 80c7 12ba
000001f0: 9aac 253d eb22 a33d 730a 52bd 5045 53bd
00000200: 0260 1c3d 1740 b43d 8a14 2b3d 36a4 40bd
00000210: 1c83 963c b8e0 9cbd 37eb 913d a019 333b
00000220: 5f4e 52bd 6648 0c3d 05ac a63d 1c07 aebc
00000230: 80ab b73c 3161 b33d b063 0fbc bf36 923d
00000240: 9116 9fbd e20c a7bd 7638 133d 80bd c7bc
00000250: 986f b3bd b0e6 a1bb 7021 ce3c 9054 513c
00000260: 728d a3bd dbfa 9bbd e861 1dbd c830 d93c
00000270: 3766 a03d b87e c0bc fabe 023d 406a a6bd
00000280: 8173 b43d ba23 a7bd 378d 8e3d 9a6d 1c3d
00000290: 28f9 c9bc ecd4 b7bc 404a 8abd a0f3 b3bc
000002a0: b1fa a6bd ef7d ad3d d8b3 e8bc 6e38 2d3d
000002b0: b86a 5dbd 5285 abbd 7b44 90bd 127d 4b3d
000002c0: 0b57 853d f85a 4e3c 8833 f4bc 7550 873d
000002d0: ec7b 813c 72c8 f4bc c497 b4bc bcea e0bc
000002e0: fcfc 9fbd d05f 15bc 24c6 f43c 54de 8a3c
000002f0: 2775 9d3d b444 0d3d bcfa da3c 3b1d 90bd
00000300: c5df 853d 6393 3bbd 5e9c 383d e2b9 71bd
00000310: ea19 73bd c540 873d 5e1e 213d 2eb1 77bd
00000320: 43c1 b13d 10f9 a7bc 4725 8cbd e669 6d3d
00000330: ae46 76bd af6d 863d 863b 0abd 16db 4a3d
00000340: 6c19 b03c 76e9 43bd 2bc0 a1bd dea4 6e3d
00000350: cc4b 003d 0aff 14bd 40eb 72bb 60f9 eebc
00000360: 183e 69bc 4029 febc 799a 7ebd 1439 24bd
00000370: 393d 893d b7d0 853d 98cc 4e3c 3d85 ab3d
00000380: 94a0 a4bc b88d b7bc c0c4 4a3c 00de 69bb
00000390: 52f8 d8bc 0032 e039 c9a5 803d c789 a23d
000003a0: 5d85 2bbd d06d 5fbd 38ac 343c 0810 07bd
000003b0: f0c2 3ebd f2cc 753d 164e fdbc 7daf 9d3d
000003c0: 6551 0bbd 20b4 91bb a02d e03c 3471 073d
000003d0: b057 f23b 481a b83c d8ba 0dbc 502b 0e3d
000003e0: 657f a6bd 1af5 2f3d 60c6 7cbc 88b9 133d
000003f0: 9883 00bc 60dd 993b 2459 a7bc c0c9 28bc

fc2.bias f4 [128]
0.041531213 -0.0013552085 -0.036834795 -0.026659634 -0.08051168 -0.060326234 980.56024 -0.0038645018
0.024044901 0.07802041 0.05125361 0.05160123 0.057978682 980.2735 0.031590667 -0.050996747
-0.03998836 0.026885029 -0.008212088 980.2112 0.025793916 0.054276384 -0.04374901 980.33466
-0.02010053 0.04604984 980.033 980.53906 -0.018673299 0.02842915 -0.005294534 980.25543
980.3097 0.11038524 -0.05303854 -0.07383282 0.015385147 -0.035216805 980.059 0.0073971255
0.015740784 -0.0066720247 0.07231726 0.00920076 980.3236 0.023170533 -0.076615915 -0.020383697
980.5495 0.07452703 -0.04137345 0.041862406 980.60565 -0.012471661 0.049439684 980.23285
-0.028025787 980.3483 980.31384 0.042531323 0.020646662 980.54315 980.4378 980.0479
0.05212303 -0.08485272 980.28455 0.00969246 980.644 -0.014856309 980.3949 980.23535
-0.0006674973 -0.06613992 0.022823866 0.032788858 980.2925 980.0691 0.012630004 -0.045706138
980.223 0.024811586 980.0121 0.07191822 0.06262068 -0.004562825 -0.030562583 0.011605765
0.07170629 980.258 -0.11529332 -0.037802186 980.3211 0.007485017 0.08106793 980.4927
-0.026322499 0.079081245 980.4608 -0.07384646 980.1388 0.06251762 0.05186481 -0.05852016
-0.012504324 0.06665396 -0.019432912 980.3856 980.3544 0.07042992 -0.07295081 -0.10662538
979.9581 0.022307279 980.4331 0.03922852 980.27576 980.2386 980.2476 980.49725
0.037443634 980.1799 0.045603644 980.4397 979.944 980.48474 0.0064036925 980.3738
00000000: a21c 2a3d 40a1 b1ba 15e0 16bd 4e65 dabc
00000010: 4fe3 a4bd a418 77bd db23 7544 9543 7dbb
00000020: d0f9 c43c 2ac9 9f3d 4eef 513d d05b 533d
00000030: 0e7b 6d3d 8111 7544 3765 013d f7e1 50bd
00000040: d6ca 23bd fe3d dc3c fe8b 06bc 840d 7544
00000050: c34d d33c ea50 5e3d 2932 33bd 6b15 7544
00000060: dea9 a4bc c29e 3c3d 1d02 7544 8022 7544
00000070: bff8 98bc 40e4 e83c c57d adbb 5910 7544
00000080: d213 7544 a811 e23d f13e 59bd a935 97bd
00000090: fc11 7c3c 7f3f 10bd c703 7544 9663 f23b
000000a0: d1f2 803c 00a1 dabb 121b 943d c9be 163c
000000b0: b614 7544 21d0 bd3c cee8 9cbd b6fb a6bc
000000c0: 2b23 7544 a1a1 983d 3577 29bd ea77 2b3d
000000d0: c326 7544 f055 4cbc 4481 4a3d e70e 7544
000000e0: 5696 e5bc 4b16 7544 1614 7544 5335 2e3d
000000f0: 3023 a93c c322 7544 051c 7544 1103 7544
00000100: f57e 553d 43c7 adbd 3612 7544 20cd 1e3c
00000110: 3729 7544 e067 73bc 4619 7544 100f 7544
00000120: fcfa 2eba 5e74 87bd 1ef9 ba3c 9c4d 063d
00000130: b812 7544 6c04 7544 14ee 4e3c 5c36 3bbd
00000140: 460e 7544 ab41 cb3c c600 7544 dc49 933d
00000150: 453f 803d c083 95bb 625e fabc 1b26 3e3c
00000160: bfda 923d 8310 7544 e71e ecbd 77d6 1abd
00000170: 8d14 7544 e044 f53b f106 a63d 881f 7544
00000180: 48a2 d7bc 59f5 a13d 7e1d 7544 d03c 97bd
00000190: e208 7544 3d09 803d 3270 543d d6b2 6fbd
000001a0: f0de 4cbc df81 883d c531 9fbc ae18 7544
000001b0: ae16 7544 903d 903d 3c67 95bd 685e dabd
000001c0: 52fd 7444 c1bd b63c b81b 7544 16ae 203d
000001d0: a611 7544 450f 7544 d90f 7544 d31f 7544
000001e0: 7f5e 193d 830b 7544 e3ca 3a3d 241c 7544
000001f0: 6afc 7444 061f 7544 11d6 d13b ec17 7544

fc3.weight f4 [4, 128]
-0.046871495 0.086983226 0.013814002 -0.047021765 0.019307606 0.03534063 278.79697 0.032843336
0.04443429 0.0013686995 0.07034855 -0.07799937 -0.015575742 278.63663 -0.034287706 0.03557059
0.030256893 0.017041512 -0.0900195 277.81348 -0.058417156 -0.074181855 -0.06326125 278.10382
0.058336195 -0.050014935 277.66135 278.03174 0.018768394 0.07161478 -0.042965226 278.0058
278.009 0.050619047 0.017121062 0.065175556 0.044937756 0.017130623 277.9779 0.021974817
0.0694023 -0.0878989 0.0032431912 -0.120099746 277.88565 0.0571811 -0.145412 0.037265006
278.02567 -0.056608528 -0.0029973595 -0.0872806 278.13934 -0.06679782 0.0015668754 277.8676
-2.8581106e-05 277.88748 277.79163 0.03690003 -0.12073551 277.9882 278.0113 277.697
-0.05430684 -0.082708545 277.94458 -0.015313245 278.20316 -0.047873087 277.9864 277.6802
0.02832438 -0.04839086 -0.0647448 -0.072916515 278.72226 277.7123 0.01622694 -0.06335417
277.84302 0.045889962 277.76855 -0.1616489 -0.09264331 0.050198607 -0.1404645 0.038758155
-0.11401224 277.9122 0.036650382 0.057675354 277.8488 0.018279605 -0.033649642 278.43106
0.042151034 0.00781389 277.947 0.0616291 277.99603 0.04214897 -0.01743009 -0.03823166
0.025789358 -0.055633206 0.013212534 278.00873 277.90305 -0.20012134 -0.020199 -0.020179627
277.87912 0.055992007 277.88324 0.06602279 278.139 277.71487 277.91913 277.92526
-0.05520464 277.7993 0.06337886 277.90173 277.9262 278.10614 0.05361613 277.98328
-0.053062797 0.0741264 0.08006031 -0.09953972 0.04959678 -0.06881309 274.81763 0.08980837
-0.024530295 -0.1255858 -0.024231873 0.024933286 -0.0016364539 275.32712 -0.05635727 -0.04422921
-0.03194004 -0.04972823 0.051813632 274.4552 0.07370486 0.06287443 0.064293094 274.61932
0.042441055 0.08406695 274.31354 274.7487 -0.015135438 0.07069903 0.021866994 274.45944
274.48492 0.017496606 -0.060819484 -0.030847378 0.053489503 -0.0064999536 274.56393 -0.046480816
0.05557622 0.03201598 -0.058188118 -0.073180236 274.36212 -0.0221799 -0.01715088 0.07571405
274.69162 -0.032136783 -0.044782173 0.07720142 274.83212 0.037371002 0.015069144 274.55362
0.0062309713 274.62192 274.54013 -0.063289165 -0.06213247 274.78644 274.73798 274.35938
0.0043480843 0.045114644 274.43405 -0.06959012 274.8181 0.036934964 274.65784 274.3118
-0.060244072 0.06560308 0.008792044 0.012823202 275.4763 274.35483 0.061173674 0.07337545
274.4692 -0.054184124 274.4474 -0.07400816 0.029777322 0.04757174 -0.018271936 -0.030119432
-0.025839826 274.53546 -0.020924754 0.060716074 274.577 -0.022382945 -0.02916171 274.79416
-0.05745032 -0.04338293 274.6319 0.0014415412 274.31686 -0.18018332 0.087703295 -0.016289555
0.07089033 0.023383304 0.0820525 274.4099 274.6678 -0.04427772 -0.0023613498 -0.05962082
274.3539 0.08563937 274.66977 -0.014620751 274.7771 274.36145 274.49347 274.70264
0.081471734 274.40833 -0.049485434 274.72888 274.3439 274.6979 0.02324749 274.6767
00000000: 53fc 3fbd 4324 b23d 2054 623c e599 40bd
00000010: fc2a 9e3c 56c1 103d 0366 8b43 bc86 063d
00000020: bb00 363d ef65 b33a e712 903d 22be 9fbd
00000030: 6631 7fbc 7d51 8b43 4471 0cbd 78b2 113d
00000040: 4edd f73c a49a 8b3c 255c b8bd 20e8 8a43
00000050: d446 6fbd a8ec 97bd 1d8f 81bd 4a0d 8b43
00000060: eff1 6e3d 76dc 4cbd a7d4 8a43 1004 8b43
00000070: 2dc0 993c c5aa 923d 4efc 2fbd be00 8b43
00000080: 2701 8b43 eb55 4f3d 7841 8c3c c37a 853d
00000090: a710 383d 8555 8c3c 2cfd 8a43 8804 b43c
000000a0: cb22 8e3d 5704 b4bd b88b 543b dbf6 f5bd
000000b0: 5df1 8a43 bb36 6a3d e2e6 14be 31a3 183d
000000c0: 4903 8b43 58de 67bd 596f 44bb 2cc0 b2bd
000000d0: d611 8b43 4ccd 88bd 9d5f cd3a 0eef 8a43
000000e0: 75c1 efb7 99f1 8a43 54e5 8a43 7c24 173d
000000f0: 2e44 f7bd 7dfe 8a43 7201 8b43 37d9 8a43
00000100: d970 5ebd 1963 a9bd e8f8 8a43 68e4 7abc
00000110: 011a 8b43 9216 44bd 42fe 8a43 11d7 8a43
00000120: 8808 e83c 7f35 46bd ec98 84bd 4155 95bd
00000130: 735c 8b43 2ddb 8a43 5cee 843c d5bf 81bd
00000140: e8eb 8a43 1df7 3b3d 60e2 8a43 4a87 25be
00000150: c7bb bdbd 0e9d 4d3d edd5 0fbe dfc0 1e3d
00000160: 407f e9bd c3f4 8a43 b61e 163d fe3c 6c3d
00000170: a5ec 8a43 1cbf 953c 35d4 09bd 2d37 8b43
00000180: 90a6 2c3d d505 003c 37f9 8a43 cc6e 7c3d
00000190: 7eff 8a43 66a4 2c3d 8cc9 8ebc cd98 1cbd
000001a0: 3444 d33c a5df 63bd 6279 583c 1e01 8b43
000001b0: 97f3 8a43 9cec 4cbe 6078 a5bc bf4f a5bc
000001c0: 87f0 8a43 e057 653d 0ef1 8a43 f536 873d
000001d0: cb11 8b43 81db 8a43 a6f5 8a43 6ff6 8a43
000001e0: 431e 62bd 4fe6 8a43 c7cc 813d 6cf3 8a43
000001f0: 8ef6 8a43 960d 8b43 969c 5b3d dcfd 8a43
00000200: 6058 59bd 95cf 973d a9f6 a33d 7bdb cbbd
00000210: fe25 4b3d e1ed 8cbd a868 8943 73ed b73d
00000220: c2f3 c8bc 9099 00be ec81 c6bc e440 cc3c
00000230: 487e d6ba dfa9 8943 e1d6 66bd b029 35bd
00000240: 8fd3 02bd d4af 4bbd 883a 543d 443a 8943
00000250: 93f2 963d 4fc4 803d 19ac 833d 464f 8943
00000260: acd6 2d3d 4b2b ac3d 2228 8943 d55f 8943
00000270: a1fa 77bc a7ca 903d 6922 b33c cf3a 8943
00000280: 123e 8943 0b55 8f3c da1d 79bd a4b3 fcbc
00000290: cf17 5b3d 90fd d4bb 2f48 8943 ab62 3ebd
000002a0: e4a3 633d 3023 033d aa56 6ebd 85df 95bd
000002b0: 5a2e 8943 9fb2 b5bc 0180 8cbc f80f 9b3d
000002c0: 8758 8943 dca1 03bd 836d 37bd c71b 9e3d
000002d0: 836a 8943 5612 193d 92e4 763c dd46 8943
000002e0: 2d2d cc3b 9b4f 8943 2345 8943 c09d 81bd
000002f0: 9e7e 7ebd aa64 8943 765e 8943 002e 8943
00000300: 607a 8e3b 22ca 383d 8f37 8943 4485 8ebd
00000310: b868 8943 1e49 173d 3454 8943 e927 8943
00000320: 7dc2 76bd e85a 863d 810c 103c 6818 523c
00000330: f7bc 8943 6b2d 8943 3f91 7a3d de45 963d
00000340: 0f3c 8943 2cf0 5dbd 4439 8943 9791 97bd
00000350: 92ef f33c 96da 423d 07af 95bc 07bd f6bc
00000360: 0bae d3bc 8a44 8943 646a abbc 6bb1 783d
00000370: db49 8943 705c b7bc 8ae4 eebc a765 8943
00000380: 0751 6bbd 4db2 31bd e250 8943 19f2 bc3a
00000390: 8f28 8943 fa81 38be c99d b33d ac71 85bc
000003a0: f32e 913d 588e bf3c 240b a83d 7834 8943
000003b0: 7a55 8943 8e5c 35bd e0c0 1abb f634 74bd
000003c0: 4d2d 8943 b263 af3d bb55 8943 e08b 6fbc
000003d0: 7863 8943 442e 8943 2a3f 8943 f059 8943
000003e0: a7da a63d 4434 8943 3db1 4abd 4c5d 8943
000003f0: 052c 8943 5559 8943 8571 be3c 9e56 8943

fc3.bias f4 [4]
728.242 934.3106 698.7752 934.9601
00000000: 7d0f 3644 e193 6944 9db1 2e44 72bd 6944
