model_w/DQA_3/model_0.pth (torch, 71880 bytes, 6 tensors)

fc1.weight f4 [128, 2]
0.17748266 0.048933923 -0.15485841 0.32966083 0.33615 0.5266234 0.287498 -0.1416704
-0.66679853 -0.06675434 0.6281168 -0.5351705 0.009472251 0.5653203 0.13217127 0.16430426
-0.11251664 0.6070449 -0.6636511 -0.48882073 -0.51864916 -0.12814987 -0.41129845 -0.5502582
0.60770506 -0.13288826 0.4140163 0.36342627 -0.65909946 -0.55204195 0.54498094 -0.18934327
-0.071342885 -0.4700811 0.19864619 -0.12870973 -0.41820076 -0.07630688 -0.626064 -0.3101337
-0.11904085 -0.37330592 -0.031394362 0.06233394 0.44704026 0.3793146 0.6160098 -0.147546
0.1029523 0.22204357 -0.48108107 -0.40827382 0.33952922 -0.41628727 0.055092156 0.14628917
0.021071732 0.6902103 0.06547034 0.31209797 -0.15575838 0.28991508 0.27735114 -0.03483528
-0.37677428 0.47286314 0.08121586 -0.29618672 0.3219828 0.18871284 -0.23556936 -0.0014125109
-0.5138741 -0.1815821 -0.5557105 0.62676793 -0.5614322 0.10090208 -0.58576196 -0.013465762
-0.22764784 0.18560535 0.4132511 0.4461518 -0.23126566 -0.42172676 -0.046157956 0.59252244
-0.35769078 0.5942512 -0.4180277 0.40584654 0.5238163 0.31190914 -0.638109 -0.1051777
0.3821079 0.5217964 -0.09742606 -0.38437065 0.35927385 -0.28207713 -0.33350936 -0.17695707
-0.1256777 -0.10389763 -0.22154498 -0.22420615 0.13498908 -0.6467728 -0.39864805 0.5766372
0.09403837 -0.48738372 -0.5735755 0.5123834 0.47030503 0.60734206 -0.60310173 0.3757246
0.18729484 -0.38347808 0.6779874 0.23042488 -0.17572308 0.11441898 0.16109073 -0.67242646
0.38307923 0.56095093 -0.6304264 -0.67209446 -0.10551137 0.29498607 0.41129166 0.6734287
-0.38955405 0.27420884 -0.18171805 0.53373927 -0.18610209 -0.37058628 -0.5405658 -0.6770872
0.15223199 -0.61872274 -0.522135 0.44018525 -0.15879846 -0.6269643 0.3395843 0.5925575
-0.6550766 0.1112622 -0.5291699 0.03030479 0.070491135 -0.0023794174 0.13067174 0.4090963
0.287911 -0.123061895 0.1302597 -0.5526518 -0.08744341 -0.37900174 -0.5259149 0.6650633
-0.10449588 0.2776898 -0.4046298 0.33727592 -0.108622134 -0.48265862 -0.25265047 -0.25715402
-0.14306074 0.6654816 -0.043077767 0.044290245 -0.21177593 0.15553898 0.7043429 -0.27653593
0.09999585 -0.45542964 0.61931115 -0.40342787 -0.15712237 -0.30293688 0.64159113 -0.6340708
0.072197974 -0.35358962 0.41778737 -0.10694611 -0.25952277 0.41370195 -0.20306033 -0.040447593
-0.10119516 -0.2360178 -0.51664853 0.13716424 0.24203444 -0.6905545 -0.05212325 -0.34472513
-0.53940135 -0.30599192 -0.24962169 0.14732295 0.521401 -0.17770255 -0.36559263 0.6804425
0.65974694 0.5712803 -0.2700265 0.18176234 0.36336356 0.56586784 -0.35147816 -0.6045531
0.007526815 -0.17447793 0.48282188 -0.5176225 -0.37109363 0.21270221 -0.039782345 0.29184717
0.3503211 0.17936575 0.26959127 -0.5444814 -0.010903835 0.27518666 0.64469784 0.5936393
-0.0033427477 -0.2168822 0.16214055 0.39824837 0.022536874 -0.28284675 -0.018914998 -0.651644
0.22806966 0.2350564 -0.53373784 -0.52367634 -0.1990872 -0.66995364 -0.685346 0.38852876
00000000: 04be 353e f06e 483d 3493 1ebe 4ec9 a83e
00000010: da1b ac3e cbd0 063f f032 933e 0c12 11be
00000020: 4fb3 2abf 80b6 88bd 43cc 203f ef00 09bf
00000030: 8031 1b3c d5b8 103f e857 073e 603f 283e
00000040: 206f e6bd 4b67 1b3f 0ae5 29bf b646 fabe
00000050: 31c6 04bf b839 03be b695 d2be b9dd 0cbf
00000060: 8f92 1b3f dc13 08be f2f9 d33e 0213 ba3e
00000070: beba 28bf 9f52 0dbf df83 0b3f 34e3 41be
00000080: 381c 92bd 78ae f0be e869 4b3e 7ccc 03be
00000090: 691e d6be c846 9cbd bb45 20bf d8c9 9ebe
000000a0: b0cb f3bd f421 bfbe 6097 00bd e051 7f3d
000000b0: 76e2 e43e 8635 c23e d1b2 1d3f 4c16 17be
000000c0: a8d8 d23d 645f 633e 4250 f6be 4409 d1be
000000d0: c6d6 ad3e 9b23 d5be 50a8 613d d4cc 153e
000000e0: a09e ac3c 9fb1 303f 5015 863d 4ecb 9f3e
000000f0: 207f 1fbe c06f 943e f800 8e3e 70af 0ebd
00000100: 8fe8 c0be 1e1b f23e 8054 a63d c9a5 97be
00000110: eeda a43e f03d 413e 1839 71be 0024 b9ba
00000120: 418d 03bf a8f0 39be 0b43 0ebf dd73 203f
00000130: 05ba 0fbf c0a5 ce3d 7ff4 15bf 809f 5cbc
00000140: 841c 69be 540f 3e3e a695 d33e 026e e43e
00000150: e8d0 6cbe 92ec d7be 2010 3dbd 8daf 173f
00000160: 3f23 b7be d920 183f ba07 d6be 1ecb cf3e
00000170: d318 063f 8eb2 9f3e 1d5b 23bf 6867 d7bd
00000180: a6a3 c33e 7394 053f 5087 c7bd 3bcc c4be
00000190: bef2 b73e 6a6c 90be bdc1 aabe 3c34 35be
000001a0: a8b1 00be 48c8 d4bd b0dc 62be 4c96 65be
000001b0: 943a 0a3e e792 25bf 991b ccbe 7f9e 133f
000001c0: 3097 c03d 5c8a f9be d8d5 12bf 8f2b 033f
000001d0: d2cb f03e c57a 1b3f e064 1abf fa5e c03e
000001e0: 38ca 3f3e 3d57 c4be 9590 2d3f 80f4 6b3e
000001f0: c0f0 33be 8054 ea3d f8f4 243e 2424 2cbf
00000200: f622 c43e 7b9a 0f3f a063 21bf 620e 2cbf
00000210: 5816 d8bd 6a08 973e d294 d23e d365 2c3f
00000220: a173 c7be 1a65 8c3e 4c14 3abe 23a3 083f
00000230: 8c91 3ebe 7cbd bdbe 8562 0abf 9655 2dbf
00000240: b4e2 1b3e 9d64 1ebf a4aa 05bf f65f e13e
00000250: 109c 22be bb80 20bf fedd ad3e d9b1 173f
00000260: 1ab3 27bf 70dd e33d ae77 07bf c041 f83c
00000270: a85d 903d 00f0 1bbb d0ce 053e 1275 d13e
00000280: 1269 933e e007 fcbd cc62 053e 977a 0dbf
00000290: 8815 b3bd 840c c2be 5ca2 06bf 9741 2a3f
000002a0: f001 d6bd 5c2d 8e3e a32b cfbe 6eaf ac3e
000002b0: 4875 debd 081f f7be 675b 81be b1a9 83be
000002c0: 847e 12be 015d 2a3f 5072 30bd b069 353d
000002d0: cadb 58be 9c45 1f3e d14f 343f 1e96 8dbe
000002e0: a0ca cc3d 132e e9be 2d8b 1e3f 198e cebe
000002f0: b0e4 20be 8b1a 9bbe 513f 243f 7752 22bf
00000300: 88dc 933d b309 b5be 3ae8 d53e 9006 dbbd
00000310: 2be0 84be bed0 d33e 0cef 4fbe 60ac 25bd
00000320: 683f cfbd a6ae 71be 1443 04bf c874 0c3e
00000330: e0d7 773e 2ec8 30bf 307f 55bd d07f b0be
00000340: 3516 0abf f9aa 9cbe d49c 7fbe d4db 163e
00000350: 897a 053f a8f7 35be f52e bbbe 7b31 2e3f
00000360: 2de5 283f 6d3f 123f ea40 8abe e81f 3a3e
00000370: ca0a ba3e b7dc 103f f2f4 b3be fec3 1abf
00000380: 80a3 f63b 58aa 32be 6e34 f73e e882 04bf
00000390: fcff bdbe 9cce 593e d0f2 22bd fe6c 953e
000003a0: 4a5d b33e a8ab 373e de07 8a3e 2263 0bbf
000003b0: 00a6 32bc 44e5 8c3e eb0a 253f bff8 173f
000003c0: 0012 5bbb 5e16 5ebe 2c08 263e 36e7 cb3e
000003d0: 409f b83c 4ad1 90be a0f3 9abc 24d2 26bf
000003e0: 188b 693e a0b2 703e 0ba3 08bf a70f 06bf
000003f0: 84dd 4bbe 1582 2bbf d672 2fbf 3eed c63e

fc1.bias f4 [128]
-0.6892027 0.66255826 0.6622054 -0.2611904 -0.07880086 -0.025841892 0.19644165 0.47237223
-0.040948927 0.6614761 0.08993322 0.6522158 0.6515475 0.4106688 0.20806271 0.6792131
-0.45544347 0.65404826 0.08006853 0.23424071 -0.3412729 -0.20914555 -0.030488193 -0.6617728
-0.08454466 0.0023841858 -0.004350066 -0.37404603 -0.09836668 -0.5898032 -0.2453883 0.43545836
0.24635464 -0.12247902 0.18623936 -0.47517872 -0.43768328 0.65852946 -0.38403255 0.15917683
0.30766863 0.34396058 -0.20867756 0.39737552 0.4295444 -0.6558085 0.17059964 0.24834019
0.69387 -0.19243896 -0.58786786 0.27291703 0.1805008 -0.4178823 -0.16357571 -0.33739918
-0.093844414 0.62090796 -0.06668776 0.3200447 -0.19629204 -0.3700833 -0.29711023 0.38481492
0.6429022 -0.24125025 0.31120962 -0.32254502 0.5027111 -0.3571711 -0.506916 -0.6282439
-0.5156088 -0.64317894 -0.016239703 0.43595558 0.6919196 0.07467842 0.44968313 -0.28461555
-0.46841794 0.43323463 0.64669424 0.6088212 0.37445623 0.36917 -0.38491452 0.31442446
0.052779496 0.28335673 -0.58665806 -0.11950964 -0.6297139 0.33395857 0.3461699 -0.21959722
-0.6440355 0.66291946 -0.037308574 0.48691207 0.49894267 -0.5843487 0.30016345 0.55236465
0.025744498 0.30428833 -0.022946 0.6929715 -0.45300105 0.31552047 -0.085674584 0.17052269
0.35630924 0.4876042 0.62116 0.66396326 -0.37521425 0.12427682 -0.6249443 0.089806676
0.2784655 -0.43439955 -0.12553495 0.19716614 -0.16430807 -0.003963411 -0.49618194 0.19542348
00000000: 976f 30bf 6b9d 293f 4b86 293f c0ba 85be
00000010: 5862 a1bd 60b2 d3bc 0028 493e c6da f13e
00000020: 10ba 27bd 7f56 293f e82e b83d 9df7 263f
00000030: d1cb 263f 2e43 d23e 640e 553e e9e0 2d3f
00000040: e32f e9be b56f 273f f8fa a33d ccdc 6f3e
00000050: 52bb aebe 402a 56be 60c2 f9bc f169 29bf
00000060: c025 adbd 0040 1c3b 008b 8ebb f682 bfbe
00000070: 7874 c9bd 58fd 16bf 1247 7bbe 66f4 de3e
00000080: 6444 7c3e 48d6 fabd 88b5 3e3e a04a f3be
00000090: 0618 e0be 6395 283f ea9f c4be 40ff 223e
000000a0: be86 9d3e 9a1b b03e 92af 55be ce74 cb3e
000000b0: 3eed db3e 11e3 27bf acb1 2e3e e44c 7e3e
000000c0: 77a1 313f b80e 45be 827e 16bf c8bb 8b3e
000000d0: 34d5 383e abf4 d5be 6480 27be 96bf acbe
000000e0: 8031 c0bd d3f3 1e3f 9893 88bd e6dc a33e
000000f0: c800 49be 8f7b bdbe d51e 98be 7606 c53e
00000100: 3d95 243f 4e0a 77be de56 9f3e 9f24 a5be
00000110: adb1 003f 21df b6be 3fc5 01bf 98d4 20bf
00000120: f0fe 03bf 60a7 24bf 2009 85bc 9235 df3e
00000130: a521 313f 00f1 983d de3c e63e 21b9 91be
00000140: 7ad4 efbe eed0 dd3e c18d 253f b5db 1b3f
00000150: bab8 bf3e da03 bd3e 8413 c5be 3efc a03e
00000160: 502f 583d 2214 913e 392f 16bf 78c1 f4bd
00000170: ee34 21bf 9efc aa3e 2e3d b13e 18de 60be
00000180: 83df 24bf 17b5 293f e0d0 18bd 8a4c f93e
00000190: 6a75 ff3e e097 15bf 06af 993e c567 0d3f
000001a0: 20e6 d23c aecb 9b3e 40f9 bbbc 9566 313f
000001b0: c1ef e7be e68b a13e 2876 afbd 809d 2e3e
000001c0: 2a6e b63e 42a7 f93e 5704 1f3f 7ff9 293f
000001d0: 151c c0be d884 fe3d 5afc 1fbf 90ec b73d
000001e0: 0893 8e3e 9e69 debe 3c8c 00be ece5 493e
000001f0: 6040 28be 80df 81bb 8f0b febe 181d 483e

fc2.weight f4 [128, 128]
0.014419258 -0.08491556 -0.010365993 -0.082546614 -0.07659593 0.06733727 0.005075671 0.061685808
0.040021695 0.060729913 -0.0018401444 0.040723734 0.006821908 0.06246022 0.041154735 0.009632893
-0.05206357 -0.038054 -0.01795192 -0.05479319 -0.07596214 -0.07848615 -0.086400524 -0.06636894
-0.022955723 0.035626657 0.011051536 -0.084617384 0.08066734 -0.032117657 -0.040849485 0.06782342
0.0370275 -0.055051126 0.06020335 0.02845531 -0.031788807 0.05477736 0.009304307 0.038452767
0.06322286 -0.04497561 0.008709751 0.033042245 0.05153183 -0.024773873 0.0157504 0.08824728
-0.06363117 0.07749886 0.07019945 0.011131205 0.07127426 -0.051497642 -0.074111566 0.06257538
-0.056330558 0.013739251 -0.023525804 0.017026536 -0.018539272 0.07261344 0.021749638 0.028253421
0.08648985 -0.086152606 -0.03268786 0.08266441 0.06284145 0.07376199 0.029515564 0.0022836775
0.023218885 -0.012634568 -0.021259166 -0.065040216 0.00765685 -0.013966434 -0.07506302 0.07621687
-0.04921596 0.045255058 0.048559688 0.046130247 0.059980102 0.058392085 -0.008652993 0.0071668103
0.081418864 -0.0483035 0.031866685 0.016011924 -0.08379709 0.014937811 -0.070792496 -0.015009239
-0.03924078 -0.07898924 0.030352525 -0.028084226 0.05299645 0.009757079 -0.045545895 -0.032412898
0.015658997 0.06762477 -0.004342124 0.018991813 0.082340576 0.010480046 0.005013779 -0.022142276
-0.029751658 -0.03419264 -0.06437914 -0.007393576 -0.08651143 0.07318511 -0.0066131353 0.0054791123
0.08146886 -0.0384794 0.05017618 -0.013397336 0.03234992 0.044811822 -0.08617789 -0.068951465
0.037956886 -0.0077884123 -0.008273944 0.061527587 -0.04640209 -0.027315002 0.0645503 0.00015899539
-0.07488121 0.018195957 0.022290826 0.064598836 -0.077682205 -0.08293248 0.038888164 -0.00016894192
0.07416437 0.07869027 -0.0816776 -0.08697382 0.06317889 0.084710605 -0.07673136 -0.004317954
0.084508695 0.03240431 -0.017495126 0.02313523 0.062009312 0.0810572 -0.04446323 -0.023014285
0.07306505 -0.07099128 -0.049576156 -0.053330734 0.07837247 0.029909216 0.06605569 -0.024090245
0.0765556 -0.007922322 -0.085182175 0.008973852 0.0809095 0.049892806 -0.015721045 -0.061213575
0.03593751 -0.042696916 0.011507101 0.006113477 -0.058344796 -0.030638523 0.05239647 0.016420014
-0.045750193 0.057531737 0.020913519 0.05435989 -0.07935864 -0.065666914 0.046445735 -0.07794762
0.0789196 0.06964526 0.017696261 0.0027155727 0.07978434 -0.042044558 0.03481202 0.086262785
0.01525718 -0.0846221 0.04468637 0.06913174 0.055559434 -0.04213139 -0.0068162233 0.060069837
-0.031164192 -0.06266043 -0.06600834 0.074317195 0.014688626 0.056375824 0.0047114044 0.055258505
0.013338022 0.034524105 -0.0650072 0.014638506 -0.057899192 -0.07883245 0.03190428 0.08443133
0.016637385 -0.0100637 0.058077507 0.02451253 -0.039854206 -0.06131769 -0.06968507 -0.0028995052
-0.037474986 0.040680237 0.066733934 -0.0633944 0.054139383 0.03250111 0.0046170056 0.022813223
0.06253397 0.06869147 -0.049438063 -0.039955273 0.0041523054 0.04556305 -0.0492878 0.011904746
0.071264885 -0.04662079 0.07672837 0.02690506 -0.077795856 -0.024332501 -0.08576226 -0.012763575
00000000: c03e 6c3c 36e8 adbd 20d6 29bc 330e a9bd
00000010: 54de 9cbd 1fe8 893d d051 a63b 42aa 7c3d
00000020: caed 233d eebf 783d 0031 f1ba eecd 263d
00000030: 508a df3b 4ad6 7f3d de91 283d 48d3 1d3c
00000040: 9c40 55bd 83de 1bbd e80f 93bc d36e 60bd
00000050: 0a92 9bbd 59bd a0bd c2f2 b0bd 70ec 87bd
00000060: a40d bcbc 42ed 113d 8011 353c e14b adbd
00000070: eb34 a53d ce8d 03bd ca51 27bd 01e7 8a3d
00000080: 26aa 173d 4a7d 61bd ca97 763d 1c1b e93c
00000090: fb34 02bd 3a5e 603d 1871 183c a680 1d3d
000000a0: fd7a 813d 5838 38bd 58b3 0e3c 4e57 073d
000000b0: 0a13 533d 94f2 cabc fc06 813c fdba b43d
000000c0: 0f51 82bd b9b7 9e3d bbc4 8f3d a85f 363c
000000d0: 3df8 913d 31ef 52bd cec7 97bd 8527 803d
000000e0: dfba 66bd 981a 613c 30b9 c0bc 3c7b 8b3c
000000f0: acdf 97bc 5bb6 943d 4c2c b23c b873 e73c
00000100: 9721 b13d c770 b0bd b5e3 05bd f54b a93d
00000110: 05b3 803d 8710 973d a0ca f13c c0a9 153b
00000120: 8835 be3c 3801 4fbc b427 aebc ce33 85bd
00000130: 50e6 fa3b 78d3 64bc a4ba 99bd 9717 9c3d
00000140: ad96 49bd 5e5d 393d 86e6 463d 12f3 3c3d
00000150: b2ad 753d 8a2c 6f3d 48c5 0dbc 90d7 ea3b
00000160: efbe a63d e4d9 45bd a486 023d 702b 833c
00000170: cf9d abbd b8bd 743c a8fb 90bd 50e9 75bc
00000180: f1ba 20bd 1cc5 a1bd dca5 f83c e410 e6bc
00000190: ce12 593d 28dc 1f3c 558e 3abd 63c3 04bd
000001a0: 4c47 803c db7e 8a3d 6048 8ebb b894 9b3c
000001b0: 2da2 a83d 80b4 2b3c a04a a43b b863 b5bc
000001c0: c0b9 f3bc 950d 0cbd 36d9 83bd d045 f2bb
000001d0: e82c b1bd 13e2 953d 00b3 d8bb 208a b33b
000001e0: 25d9 a63d 939c 1dbd 8a85 4d3d 8080 5bbc
000001f0: 5a81 043d 9a8c 373d 097e b0bd 6d36 8dbd
00000200: ae78 1b3d f035 ffbb 708f 07bc 5a04 7c3d
00000210: 1e10 3ebd b6c3 dfbc f332 843d 00b8 2639
00000220: 525b 99bd b00f 953c 409b b63c 654c 843d
00000230: d917 9fbd 81d8 a9bd 3249 1f3d 0026 31b9
00000240: 7de3 973d 5d28 a13d 9646 a7bd 551f b2bd
00000250: ef63 813d c17c ad3d 5525 9dbd a07d 8dbb
00000260: e512 ad3d 62ba 043d f051 8fbc 1886 bd3c
00000270: 7afd 7d3d 5101 a63d 131f 36bd 7488 bcbc
00000280: 21a3 953d e063 91bd 5e10 4bbd 5471 5abd
00000290: bf81 a03d 2c04 f53c 3548 873d e858 c5bc
000002a0: 2fc9 9c3d a0cc 01bc fe73 aebd 1007 133c
000002b0: e1b3 a53d 665c 4c3d 6cc9 80bc 16bb 7abd
000002c0: 3633 133d f6e2 2ebd 4888 3c3c 9053 c83b
000002d0: f4fa 6ebd a4fd fabc ae9d 563d 4483 863c
000002e0: 8e64 3bbd 66a6 6b3d d452 ab3c 7aa8 5e3d
000002f0: c886 a2bd 607c 86bd e23d 3e3d 00a3 9fbd
00000300: 99a0 a13d 2da2 8e3d c0f7 903c c0f7 313b
00000310: f965 a33d ea36 2cbd 0c97 0e3d 8baa b03d
00000320: 40f9 793c 5a4e adbd 0e09 373d f194 8d3d
00000330: 4a92 633d f791 2cbd a05a dfbb ca0b 763d
00000340: 0c4c ffbc 1d54 80bd 612f 87bd 9d33 983d
00000350: 90a8 703c 56ea 663d 2062 9a3b be56 623d
00000360: b887 5a3c 2669 0d3d 7f22 85bd 58d6 6f3c
00000370: b427 6dbd e872 a1bd 10ae 023d 55ea ac3d
00000380: 204b 883c 38e2 24bc aee2 6d3d 80ce c83c
00000390: 2a3e 23bd 4228 7bbd 0cb7 8ebd a005 3ebb
000003a0: 5f7f 19bd 52a0 263d cdab 883d ecd4 81bd
000003b0: 42c1 5d3d e21f 053d 404a 973b cce2 ba3c
000003c0: cf11 803d 1dae 8c3d 917f 4abd 24a8 23bd
000003d0: 1010 883b 52a0 3a3d 01e2 49bd 200c 433c
000003e0: 53f3 913d 71f5 3ebd c323 9d3d 0068 dc3c
000003f0: 6f53 9fbd f454 c7bc 20a4 afbd 501e 51bc

fc2.bias f4 [128]
0.0061691925 0.017226048 -0.022549532 -0.07644536 0.08725744 -0.023541614 -0.03797176 0.018416665
0.056290485 0.0817009 0.06669823 0.009299204 -0.08813793 -0.052424517 -0.0356297 -0.082681715
0.04866632 -0.081739224 -0.05280134 -0.023741543 0.014277495 0.036175758 -0.059729196 -0.079461046
-0.064440325 0.050314732 0.012596965 -0.06924909 0.05626058 0.030246705 -0.06867788 0.04706978
-0.0406199 0.080960445 0.079379536 -0.06741676 0.013215579 0.044466056 -0.05922732 -0.085283205
-0.050799523 -0.060838282 -0.014108889 -0.02443982 0.035555057 0.03758096 0.018305704 0.03206767
-0.08052408 -0.05711961 0.025182702 -0.0052872896 0.006263286 0.024371259 0.022387967 0.07181958
0.03661511 -0.0223836 -0.017765373 0.05907347 0.0464248 0.023104586 -0.08720007 0.019884422
0.01834061 -0.07757895 0.011383876 -0.022176236 0.044481955 0.001297988 0.013713248 0.025764316
0.073127724 0.07779252 -0.077311344 -0.060519964 0.021002382 0.071569495 -0.030975204 0.01166217
-0.060278453 0.012529381 -0.049063325 -0.05196056 0.070477344 -0.024067223 -0.0069750845 -0.040350992
-0.007983275 -0.021424107 -0.0010942444 -0.010131367 0.02767323 -0.022692032 0.040629707 0.0544134
0.085065864 -0.07067394 0.06893893 0.05540622 -0.0070069656 -0.07658045 0.050630488 0.051895626
0.0363068 0.036969222 0.008714184 -0.070616536 0.0023931712 0.050705202 -0.050994758 0.027059413
-0.015982956 -0.027746607 0.057285227 0.03913238 -0.05530776 0.024148792 -0.06388937 -0.027829237
-0.07962462 -0.018076017 -0.03292382 0.029329889 -0.013583288 0.079054944 0.012738422 -0.034303848
00000000: f026 ca3b a41d 8d3c ccb9 b8bc 638f 9cbd
00000010: 07b4 b23d 58da c0bc 4788 1bbd 8cde 963c
00000020: da90 663d cd52 a73d 1599 883d b05b 183c
00000030: a981 b4bd 17bb 56bd 73f0 11bd 0855 a9bd
00000040: 5656 473d e566 a7bd 3846 58bd a07d c2bc
00000050: 28ec 693c 082d 143d 9aa6 74bd 79bc a2bd
00000060: 4af9 83bd d216 4e3d 8063 4e3c 78d2 8dbd
00000070: 7e71 663d f0c7 f73c fda6 8cbd 3ecc 403d
00000080: 0d61 26bd 97ce a53d bd91 a23d cc11 8abd
00000090: 2886 583c 0a22 363d 5998 72bd f6a8 aebd
000000a0: 2913 50bd 9031 79bd f828 67bc 0436 c8bc
000000b0: 2ea2 113d 7eee 193d d8f5 953c 6459 033d
000000c0: cfe9 a4bd 41f6 69bd f44b ce3c 0041 adbb
000000d0: 403c cd3b 3ca6 c73c f866 b73c 2516 933d
000000e0: baf9 153d d05d b7bc b088 91bc 06f7 713d
000000f0: ee27 3e3d d445 bd3c f395 b2bd a8e4 a23c
00000100: 0c3f 963c b6e1 9ebd 7083 3a3c f0aa b5bc
00000110: b632 363d 4021 aa3a 88ad 603c b00f d33c
00000120: fdc3 953d af51 9f3d 6955 9ebd c8e3 77bd
00000130: 300d ac3c 0793 923d b6bf fdbc b012 3f3c
00000140: 8ae6 76bd 0848 4d3c a0f6 48bd 99d4 54bd
00000150: 6d56 903d a028 c5bc 408f e4bb 1547 25bd
00000160: 48cc 02bc 9c81 afbc c06c 8fba 08fe 25bc
00000170: f8b2 e23c a4e4 b9bc 566b 263d 96e0 5e3d
00000180: 0337 ae3d 80bd 90bd db2f 8d3d a2f1 623d
00000190: b09a e5bb 36d6 9cbd ea61 4f3d 8290 543d
000001a0: 70b6 143d 0a6d 173d f0c5 0e3c 679f 90bd
000001b0: c0d6 1c3b 42b0 4f3d e1df 50bd b4ab dd3c
000001c0: b0ee 82bc da4c e3bc eaa3 6a3d 4649 203d
000001d0: 648a 62bd b0d3 c53c 6ed8 82bd 24fa e3bc
000001e0: 3c12 a3bd 2814 94bc 21db 06bd 3c45 f03c
000001f0: 708c 5ebc 8fe7 a13d d0b4 503c 3182 0cbd

fc3.weight f4 [4, 128]
0.034555823 0.025333688 0.05570396 -0.04066944 0.07893882 0.0525428 0.087437995 0.046536528
0.042636074 0.008951873 -0.0005389601 -0.034294322 0.005699195 -0.040546067 -0.085491985 0.052582182
0.003239341 -0.0119250715 -0.06561911 -0.07642519 0.057111345 0.006317936 -0.0007147044 0.0720486
0.025401242 0.087585054 0.036303967 -0.023698628 0.021431342 0.007943086 0.08825148 -0.0149542615
0.07584716 -0.06325662 0.05199822 -0.026306272 -0.031570878 0.034692228 0.07639406 0.034992896
0.071696915 0.07895724 0.028868966 0.07576268 0.077720754 0.00080774724 -0.019948237 -0.06326778
-0.062245607 0.031620428 -0.00178729 0.033588678 0.023799546 0.016616397 0.053132065 -0.056461096
-0.06387398 -0.035006054 -0.038130432 -0.018298268 -0.048254844 0.024600841 0.02838821 0.034774892
0.08767829 0.0068788603 -0.0146287605 -0.02343288 -0.043269396 -0.04897111 0.0040835217 -0.045835402
-0.08333618 -0.05035954 0.07253159 0.033409536 -0.02259498 0.06773258 0.019469023 0.012428671
-0.078322396 -0.05038312 0.07461312 -0.037910867 0.00073860586 0.026752762 0.08049167 -0.04625604
-0.024742879 0.05008108 0.042698078 -0.07103711 -0.043681037 0.035755806 -0.027817573 0.077410795
0.029792152 0.06330977 -0.016629346 0.005763173 0.046925046 -0.00035952032 -0.066535376 0.07326657
0.04326982 -0.014044918 -0.024773203 0.007985681 -0.037850704 0.031714894 0.0787437 -0.070391566
-0.007384792 0.056988664 -0.03004102 -0.059593767 0.02791357 -0.03040303 0.033028044 -0.043513574
0.04187327 0.061569937 0.0741212 -0.0031212568 0.077776216 -0.039003808 0.0088914335 -0.0015258938
-0.04007671 0.08729596 0.042956598 -0.08792941 -0.08110602 0.074299894 -0.054253202 0.051947586
-0.038079783 -0.008641198 0.0065573305 -0.05565818 -0.053587176 -0.06329666 -0.0065293387 -0.06336536
-0.002150163 0.06547741 -0.078694046 -0.07099093 0.062356867 -0.04269832 -0.08690797 0.07961453
-0.06437477 -0.0124204755 0.010507628 -0.06666866 0.001622282 0.084885515 0.052864067 0.028564677
-0.08681748 0.06742927 0.08664823 -0.05339348 0.032801785 -0.06207332 -0.06764077 -0.032375406
0.05008378 -0.057785764 0.081709586 0.080897726 0.03105516 0.019731328 0.032415204 -0.07478991
0.038287036 -0.020572089 -0.013291538 -0.0648105 -0.080308646 -0.0014313906 0.05826033 -0.0565685
-0.05307228 -0.0013703629 -0.043381255 0.070927925 0.05935567 0.04750047 -0.0022373572 0.07165488
0.06806097 0.017077208 -0.0047032908 -0.053630188 -0.05854985 -0.006571628 0.061471142 0.028358191
-0.04672115 0.06266434 0.05813799 -0.06895842 -0.04170065 0.06536677 0.08316075 -0.010455646
0.004788585 0.018449754 0.0010437444 -0.049246907 -0.003380619 -0.055558152 -0.015613407 0.072388075
0.003710784 -0.026529651 0.05524505 -0.031127587 -0.018220022 0.057845123 0.03080438 0.076993234
0.007821061 0.08355943 -0.06673598 5.9202313e-05 -0.06029723 -0.07548308 0.039609633 -0.029257793
-0.02719063 0.054459207 0.03520646 0.035937533 0.0203835 -0.051829275 0.074480884 0.080636896
0.015493795 0.027280107 -0.03923469 -0.030281879 0.03839592 -0.06894437 -0.02377116 -0.004407443
0.07790882 -0.07241884 0.031336248 0.08298486 0.07830443 -0.0066716596 0.043090783 0.00014539808
00000000: 688a 0d3d 9888 cf3c d629 643d 0095 26bd
00000010: adaa a13d 1e37 573d b112 b33d 169d 3e3d
00000020: 2aa3 2e3d e0aa 123c 0049 0dba 3478 0cbd
00000030: 50c0 ba3b a213 26bd 6c16 afbd 6a60 573d
00000040: 204b 543b 6061 43bc 5063 86bd cf84 9cbd
00000050: 96ed 693d b006 cf3b 005b 3bba 378e 933d
00000060: 4416 d03c cb5f b33d 78b3 143d a023 c2bc
00000070: c890 af3c b823 023c 31bd b43d b802 75bc
00000080: c155 9b3d b08c 81bd 16fc 543d 4080 d7bc
00000090: 7750 01bd 7019 0e3d 7d74 9c3d b654 0f3d
000000a0: d5d5 923d 55b4 a13d 9c7e ec3c 7729 9b3d
000000b0: 0f2c 9f3d 00bf 533a 7c6a a3bc 8a92 81bd
000000c0: 40f5 7ebd 6c84 013d 8043 eaba 4894 093d
000000d0: 44f7 c23c 1c1f 883c 02a1 593d c043 67bd
000000e0: 5cd0 82bd 8262 0fbd a82e 1cbd 40e6 95bc
000000f0: dfa6 45bd b487 c93c 648e e83c 1e70 0e3d
00000100: ad90 b33d 1068 e13b 78ad 6fbc 50f6 bfbc
00000110: 403b 31bd ee95 48bd 10cf 853b e7bd 3bbd
00000120: 29ac aabd ce45 4ebd 718b 943d 70d8 083d
00000130: 1c19 b9bc 61b7 8a3d 807d 9f3c a0a1 4b3c
00000140: 7e67 a0bd 885e 4ebd c3ce 983d 6d48 1bbd
00000150: 009f 413a 9c28 db3c d1d8 a43d f976 3dbd
00000160: 94b1 cabc d221 4d3d 2ee4 2e3d e87b 91bd
00000170: e3ea 32bd ae74 123d aee1 e3bc 8d89 9e3d
00000180: ac0e f43c 8da8 813d 443a 88bc 00d9 bc3b
00000190: 7a34 403d 007e bcb9 b343 88bd c90c 963d
000001a0: b23b 313d a81c 66bc 2cf1 cabc 60d6 023c
000001b0: 5709 1bbd 7ae7 013d 6144 a13d 7429 90bd
000001c0: 20fc f1bb f26c 693d 9618 f6bc 9818 74bd
000001d0: 00ab e43c c60f f9bc 6a48 073d 4a3b 32bd
000001e0: 4e83 2b3d c230 7c3d dbcc 973d 008e 4cbb
000001f0: 2349 9f3d 75c2 1fbd 60ad 113c 8000 c8ba
00000200: 7a27 24bd 39c8 b23d 42f3 2f3d 5614 b4bd
00000210: ea1a a6bd 8b2a 983d 9b38 5ebd fec6 543d
00000220: 8cf9 1bbd d093 0dbc e0de d63b d5f9 63bd
00000230: 3a7e 5bbd aea1 81bd 10f4 d5bb b3c5 81bd
00000240: c0e9 0cbb 0519 863d 582a a1bd b163 91bd
00000250: ea69 7f3d 6fe4 2ebd cefc b1bd f10c a33d
00000260: ebd6 83bd 407f 4bbc 3028 2c3c 9489 88bd
00000270: c0a2 d43a 75d8 ad3d fe87 583d 7800 ea3c
00000280: 5dcd b1bd 5b18 8a3d a174 b13d 1fb3 5abd
00000290: 2a5b 063d 9840 7ebd 3e87 8abd 139c 04bd
000002a0: a624 4d3d c4b0 6cbd 5b57 a73d b5ad a53d
000002b0: 6467 fe3c 98a3 a13c cec5 043d 742b 99bd
000002c0: ded2 1c3d cc86 a8bc c0c4 59bc 5ebb 84bd
000002d0: dc78 a4bd 809d bbba 62a2 6e3d 5fb4 67bd
000002e0: 5262 59bd c09d b3ba 8bb0 31bd a942 913d
000002f0: ee1e 733d da8f 423d a0a0 12bb cbbf 923d
00000300: 8d63 8b3d 80e5 8b3c 101e 9abb 54ab 5bbd
00000310: f8d1 6fbd d056 d7bb 2ac9 7b3d 704f e83c
00000320: ad5e 3fbd 2956 803d 1a22 6e3d 123a 8dbd
00000330: 4dce 2abd 03df 853d 2f50 aa3d 284e 2bbc
00000340: 90e9 9c3b f023 973c 40ce 883a 20b7 49bd
00000350: 608d 5dbb f290 63bd 60cf 7fbc 3340 943d
00000360: a030 733b b654 d9bc a248 623d 48ff febc
00000370: 2842 95bc 02ef 6c3d 7859 fc3c a1ae 9d3d
00000380: e823 003c 3521 ab3d e0ac 88bd 0050 7838
00000390: 3afa 76bd e096 9abd b63d 223d 0aae efbc
000003a0: e2be debc 9e10 5f3d a634 103d 3c33 133d
000003b0: 4cfb a63c ef4a 54bd 6f89 983d f524 a53d
000003c0: b0d9 7d3c 887a df3c 8eb4 20bd b411 f8bc
000003d0: 0a45 1d3d b532 8dbd bcbb c2bc 506c 90bb
000003e0: a98e 9f3d 5450 94bd 705a 003d f7f3 a93d
000003f0: 135e a03d f09d dabb f67f 303d 0076 1839

fc3.bias f4 [4]
-0.048123103 -0.08251883 -0.062323567 -0.079699025
00000000: bb1c 45bd a2ff a8bd ff46 7fbd 3e39 a3bd
