model_w/DQA_3/model_499.pth (torch, 72220 bytes, 6 tensors)

fc1.weight f4 [128, 2]
39.515846 40.265846 39.221085 40.58168 39.70148 40.7652 39.643414 40.088005
-0.66679853 -0.06675434 39.9944 39.697964 39.390564 40.82385 39.503616 40.415443
39.25538 40.84917 37.617016 39.453815 38.60147 40.047596 35.501717 37.732536
39.978878 40.122242 39.77405 40.594784 37.426212 39.332138 39.91158 40.056866
-0.071342885 -0.4700811 39.564102 40.10667 38.79988 40.14574 38.269596 39.81306
-0.11904085 -0.37330592 39.345825 40.314407 39.807823 40.619125 39.99865 40.108753
39.45768 40.453354 37.777374 39.4165 39.68883 39.78888 39.43959 40.40503
39.404385 40.947002 39.414097 40.53232 39.221134 40.541855 39.64965 40.208652
39.001713 40.726265 39.255726 39.759247 39.655346 40.40672 -0.23556936 -0.0014125109
-0.5138741 -0.1815821 38.79394 40.852345 38.546677 40.110966 38.6829 40.222015
39.141144 40.429302 39.785236 40.694107 -0.23126566 -0.42172676 39.334686 40.847824
39.00319 40.8356 38.962414 40.660355 39.8813 40.5459 38.534702 40.110596
39.739815 40.75808 -0.09742606 -0.38437065 39.734917 39.969833 38.573643 39.87993
38.719288 39.881447 -0.22154498 -0.22420615 39.30351 39.416695 38.949474 40.799072
39.270294 39.581547 38.779636 40.757168 39.837696 40.85062 38.743286 40.597843
39.36265 39.6795 40.065826 40.49398 39.197464 40.363148 39.319904 39.26582
39.75438 40.807476 -0.6304264 -0.67209446 39.268513 40.546658 39.798756 40.93726
38.97426 40.52082 39.17372 40.76275 -0.18610209 -0.37058628 -0.5405658 -0.6770872
38.680378 38.832954 38.82934 40.662666 -0.15879846 -0.6269643 39.7136 40.84969
38.645782 40.340046 38.773235 40.261234 39.399757 40.209324 39.500084 40.656147
39.650513 40.1161 39.48645 39.666805 39.231133 39.811405 38.849102 40.914394
39.272717 40.531155 38.961105 40.56374 -0.108622134 -0.48265862 38.19728 39.598347
39.23547 40.92134 39.330555 40.293343 39.064747 40.309406 40.08947 39.984947
38.606197 38.971706 39.98007 39.835167 35.988224 38.03406 39.99302 39.592033
38.570526 39.042095 39.79473 40.14549 39.103584 40.659084 38.748558 39.973015
39.218033 39.96042 38.640682 40.17442 39.58568 39.505814 39.291195 39.87552
38.092003 39.62937 39.09904 40.378227 39.896988 40.079742 38.99606 40.909176
40.020668 40.809273 39.09878 40.425915 39.750134 40.829136 35.435833 37.446087
39.35939 40.04307 39.855747 39.719883 38.97109 40.433247 39.336998 40.54476
39.70923 40.41809 39.60922 39.666107 39.334045 40.495808 40.013405 40.838226
39.299633 39.956116 39.54229 40.653786 38.533127 39.11425 39.29547 39.368923
39.613327 40.496193 -0.53373784 -0.52367634 -0.1990872 -0.66995364 38.695778 40.64059
00000000: 3a10 1e42 3a10 2142 64e2 1c42 a453 2242
00000010: 51ce 1e42 910f 2342 db92 1e42 1e5a 2042
00000020: 4fb3 2abf 80b6 88bd 44fa 1f42 b7ca 1e42
00000030: f08f 1d42 9f4b 2342 b403 1e42 6aa9 2142
00000040: 8205 1d42 8d65 2342 d377 1642 b5d0 1d42
00000050: e867 1a42 bd30 2042 c201 0e42 1eee 1642
00000060: 5fea 1f42 2d7d 2042 a118 1f42 0f61 2242
00000070: 71b4 1542 1c54 1d42 75a5 1f42 3b3a 2042
00000080: 381c 92bd 78ae f0be a441 1e42 3b6d 2042
00000090: 1433 1b42 3d95 2042 1114 1942 9340 1f42
000000a0: b0cb f3bd f421 bfbe 2062 1d42 f441 2142
000000b0: 363b 1f42 fc79 2242 9efe 1f42 5d6f 2042
000000c0: aad4 1d42 3cd0 2142 081c 1742 7faa 1d42
000000d0: 5dc1 1e42 d027 1f42 24c2 1d42 c09e 2142
000000e0: 179e 1d42 bbc9 2342 09a8 1d42 1821 2242
000000f0: 71e2 1c42 dc2a 2242 3e99 1e42 a9d5 2042
00000100: c101 1c42 b2e7 2242 dd05 1d42 7809 1f42
00000110: 139f 1e42 7ba0 2142 1839 71be 0024 b9ba
00000120: 418d 03bf a8f0 39be ff2c 1b42 cd68 2342
00000130: cc2f 1a42 a171 2042 4abb 1a42 58e3 2042
00000140: 8890 1c42 9bb7 2142 1524 1f42 c4c6 2242
00000150: e8d0 6cbe 92ec d7be b856 1d42 2c64 2342
00000160: 4403 1c42 a857 2342 83d9 1b42 34a4 2242
00000170: 7486 1f42 002f 2242 8923 1a42 4071 2042
00000180: 92f5 1e42 4608 2342 5087 c7bd 3bcc c4be
00000190: 8ef0 1e42 1ce1 1f42 694b 1a42 0c85 1f42
000001a0: 8de0 1a42 9a86 1f42 b0dc 62be 4c96 65be
000001b0: cb36 1d42 b2aa 1d42 43cc 1b42 4032 2342
000001c0: c814 1d42 8153 1e42 591e 1b42 5707 2342
000001d0: cd59 1f42 0967 2342 20f9 1a42 3164 2242
000001e0: 5b73 1d42 cfb7 1e42 6843 2042 d6f9 2142
000001f0: 34ca 1c42 dd73 2142 9547 1d42 3310 1d42
00000200: 7c04 1f42 db3a 2342 a063 21bf 620e 2cbf
00000210: f512 1d42 c72f 2242 ed31 1f42 c1bf 2342
00000220: a4e5 1b42 5215 2242 e4b1 1c42 0e0d 2342
00000230: 8c91 3ebe 7cbd bdbe 8562 0abf 9655 2dbf
00000240: b5b8 1a42 f254 1b42 3f51 1b42 92a6 2242
00000250: 109c 22be bb80 20bf bada 1e42 1566 2342
00000260: 4895 1a42 355c 2142 cb17 1b42 810b 2142
00000270: 5a99 1d42 59d6 2042 1600 1e42 e59f 2242
00000280: 209a 1e42 e376 2042 20f2 1d42 cfaa 1e42
00000290: aeec 1c42 e13e 1f42 7b65 1b42 57a8 2342
000002a0: 4317 1d42 e71f 2242 2cd8 1b42 4541 2242
000002b0: 4875 debd 081f f7be 04ca 1842 b564 1e42
000002c0: 1ff1 1c42 74af 2342 7d52 1d42 622c 2142
000002d0: 4d42 1c42 d53c 2142 9e5b 2042 96f0 1f42
000002e0: bf6c 1a42 07e3 1b42 97eb 1f42 3657 1f42
000002f0: f1f3 0f42 e122 1842 daf8 1f42 3e5e 1e42
00000300: 3848 1a42 1b2b 1c42 ce2d 1f42 fb94 2042
00000310: 126a 1c42 e7a2 2242 86fe 1a42 5ee4 1f42
00000320: 44df 1c42 78d7 1f42 0f90 1a42 9bb2 2042
00000330: bc57 1e42 f405 1e42 2f2a 1d42 8880 1f42
00000340: 365e 1842 7a84 1e42 6b65 1c42 4e83 2142
00000350: 8496 1f42 a851 2042 f7fb 1b42 ffa2 2342
00000360: 2a15 2042 b23c 2342 2765 1c42 23b4 2142
00000370: 2300 1f42 0951 2342 4bbe 0d42 cbc8 1542
00000380: 0470 1d42 1b2c 2042 496c 1f42 29e1 1e42
00000390: 65e2 1b42 a5bb 2142 1659 1d42 d62d 2242
000003a0: 40d6 1e42 20ac 2142 d76f 1e42 18aa 1e42
000003b0: 1056 1d42 b5fb 2142 ba0d 2042 585a 2342
000003c0: d332 1d42 10d3 1f42 4e2b 1e42 7a9d 2242
000003d0: ec21 1a42 fe74 1c42 902e 1d42 c779 1d42
000003e0: 0c74 1e42 1afc 2142 0ba3 08bf a70f 06bf
000003f0: 84dd 4bbe 1582 2bbf 7ac8 1a42 f78f 2242

fc1.bias f4 [128]
42.50437 43.89049 43.875954 42.94837 -0.07880086 43.1357 43.43268 43.7018
43.18626 43.780396 43.31381 42.956886 43.873623 43.636616 43.396976 43.89586
-0.45544347 43.860546 43.302742 43.456314 -0.3412729 43.021835 43.173122 42.577545
43.114777 43.199684 43.16499 42.8655 43.136528 42.608234 42.982784 43.66127
43.476513 42.913074 43.39564 -0.47517872 -0.43768328 43.85941 42.60711 43.383453
43.526917 43.576916 -0.20867756 43.630894 43.63696 42.579514 43.38112 43.45668
43.895985 -0.19243896 42.64554 43.426666 43.26681 -0.4178823 42.87271 42.86734
42.948902 43.820072 43.149036 43.511467 42.84179 42.868767 42.930866 43.54246
43.86408 -0.24125025 43.539833 42.919147 43.710186 42.853886 -0.506916 -0.6282439
41.905907 42.56189 -0.016239703 43.65893 43.84557 43.29404 43.625954 42.94044
42.74897 43.64064 43.829735 43.835087 43.603554 43.581352 -0.38491452 43.38802
43.278816 43.508865 42.54867 43.09713 41.769028 43.53985 42.696667 42.99505
41.745407 43.88157 43.172153 43.58425 43.704105 42.438374 43.485817 43.769985
43.24954 43.50382 43.19423 43.921898 42.75521 43.535038 43.152885 42.404453
43.567795 43.707977 43.821045 43.894215 42.82617 43.330723 42.576847 43.312153
43.477615 42.796722 42.265762 43.407352 43.07066 -0.003963411 -0.49618194 43.422153
00000000: 7a04 2a42 dd8f 2f42 fa80 2f42 22cb 2b42
00000010: 5862 a1bd f58a 2c42 10bb 2d42 a5ce 2e42
00000020: bbbe 2c42 201f 2f42 5741 2d42 dad3 2b42
00000030: 977e 2f42 e58b 2e42 8196 2d42 5c95 2f42
00000040: e32f e9be 3371 2f42 0236 2d42 44d3 2d42
00000050: 52bb aebe 5c16 2c42 47b1 2c42 684f 2a42
00000060: 8875 2c42 7acc 2c42 f3a8 2c42 4676 2b42
00000070: ce8b 2c42 d56e 2a42 5fee 2b42 24a5 2e42
00000080: f3e7 2d42 fda6 2b42 2395 2d42 a04a f3be
00000090: 0618 e0be 0970 2f42 ae6d 2a42 a888 2d42
000000a0: 901b 2e42 c34e 2e42 92af 55be 0986 2e42
000000b0: 3f8c 2e42 6c51 2a42 4486 2d42 a4d3 2d42
000000c0: 7d95 2f42 b80e 45be 0895 2a42 e8b4 2d42
000000d0: 3711 2d42 abf4 d5be a87d 2b42 2878 2b42
000000e0: adcb 2b42 c147 2f42 9d98 2c42 be0b 2e42
000000f0: fe5d 2b42 9e79 2b42 35b9 2b42 7b2b 2e42
00000100: d174 2f42 4e0a 77be ca28 2e42 35ad 2b42
00000110: 3bd7 2e42 616a 2b42 3fc5 01bf 98d4 20bf
00000120: a69f 2742 603f 2a42 2009 85bc bfa2 2e42
00000130: dd61 2f42 192d 2d42 fa80 2e42 03c3 2b42
00000140: f2fe 2a42 0490 2e42 a651 2f42 2157 2f42
00000150: 0a6a 2e42 4e53 2e42 8413 c5be 558d 2d42
00000160: 821d 2d42 1409 2e42 d731 2a42 7663 2c42
00000170: 7c13 2742 ce28 2e42 63c9 2a42 eefa 2b42
00000180: 4cfb 2642 ba86 2f42 49b0 2c42 4656 2e42
00000190: 01d1 2e42 e5c0 2942 7af1 2d42 7714 2f42
000001a0: 87ff 2c42 e903 2e42 e4c6 2c42 06b0 2f42
000001b0: 5605 2b42 e123 2e42 8e9c 2c42 299e 2942
000001c0: 6c45 2e42 f8d4 2e42 c048 2f42 ad93 2f42
000001d0: 004e 2b42 a952 2d42 b14e 2a42 a53f 2d42
000001e0: 14e9 2d42 d82f 2b42 2410 2942 21a1 2d42
000001f0: 5b48 2c42 80df 81bb 8f0b febe 49b0 2d42

fc2.weight f4 [128, 128]
40.736954 40.654095 40.63419 40.673367 -0.07659593 40.868702 40.665283 40.78172
40.705627 41.39597 41.06317 41.491398 40.757824 40.71927 41.433598 40.80045
-0.05206357 40.795197 40.99442 41.11195 -0.07596214 40.64653 40.554817 40.625027
40.672424 41.40519 40.850414 40.61477 40.717907 40.65247 40.669037 40.831234
40.774834 40.79467 40.750916 0.02845531 -0.031788807 40.809395 40.872425 41.04785
40.852 40.595592 0.008709751 40.699894 40.769375 40.70719 40.663044 41.140926
40.57875 0.07749886 40.835033 41.118084 41.158646 -0.051497642 40.824898 40.77873
40.81734 40.788906 40.587635 40.818966 40.80961 40.704227 40.76211 41.126873
40.720688 -0.086152606 40.69138 40.686474 40.874584 40.759914 0.029515564 0.0022836775
40.30265 40.735485 -0.021259166 40.564342 40.987507 40.962112 40.760193 40.737972
40.685097 41.012753 41.046234 40.780132 40.7889 40.84881 -0.008652993 41.240704
40.74175 40.740368 40.815453 40.750565 40.14534 40.81829 41.42291 40.78963
40.18098 40.701294 40.74814 41.004456 41.02186 40.843216 40.91494 40.942272
41.275253 40.90486 40.740128 40.730816 40.681366 40.823277 40.626186 41.369606
40.86111 40.804035 40.786602 40.71814 40.585064 40.98221 40.69153 40.606037
41.047623 40.61884 40.251705 41.07813 40.70588 0.044811822 -0.08617789 40.725307
40.92524 40.847523 40.77368 40.955086 -0.04640209 40.87091 40.870953 40.849506
40.742546 41.34784 41.075024 41.489887 40.753304 40.715622 41.425007 40.83401
0.07416437 40.93784 40.924854 41.075733 0.06317889 40.98232 40.71861 40.845543
40.93999 41.38498 40.90804 40.89374 40.852417 40.93507 40.82732 40.83727
40.93434 40.732967 40.78829 -0.053330734 0.07837247 40.89063 40.892387 40.99073
40.970867 40.77686 -0.085182175 40.815437 40.922478 40.939774 40.77989 40.9986
40.815575 -0.042696916 40.913624 41.116737 41.029346 -0.030638523 40.90923 40.878605
40.789604 40.935837 40.78496 40.971622 40.752647 40.72343 40.958218 40.99211
40.85172 0.06964526 40.876896 40.761806 40.97757 40.800472 0.03481202 0.086262785
40.26901 40.823994 0.04468637 40.841404 41.039925 40.95306 40.874043 40.88181
40.859936 40.8384 40.75776 40.91846 40.87476 40.95094 0.0047114044 41.273594
40.822105 40.926815 40.87069 40.865215 40.146248 40.77405 41.4956 40.997475
40.21228 40.829834 40.92211 40.953846 40.764126 40.73231 40.90708 40.808445
41.210842 40.952854 40.925255 40.76588 40.809776 40.93396 40.7793 41.395992
40.88351 40.924953 40.864063 40.807327 40.8395 41.003883 40.82175 40.762157
40.872368 40.772614 40.253014 41.090515 40.755173 -0.024332501 -0.08576226 40.904408
00000000: a4f2 2242 cb9d 2242 6989 2242 87b1 2242
00000010: 54de 9cbd 8d79 2342 40a9 2242 7b20 2342
00000020: 90d2 2242 7995 2542 b040 2442 31f7 2542
00000030: 0308 2342 88e0 2242 01bc 2542 a933 2342
00000040: 9c40 55bd 482e 2342 49fa 2342 a372 2442
00000050: 0a92 9bbd 0c96 2242 2238 2242 0780 2242
00000060: 90b0 2242 ea9e 2542 d366 2342 8675 2242
00000070: 23df 2242 219c 2242 18ad 2242 2f53 2342
00000080: 6e19 2342 be2d 2342 f000 2342 1c1b e93c
00000090: fb34 02bd d23c 2342 5d7d 2342 0031 2442
000000a0: 7368 2342 e361 2242 58b3 0e3c b1cc 2242
000000b0: d713 2342 2ad4 2242 f5a6 2242 4f90 2442
000000c0: a450 2242 b9b7 9e3d 1357 2342 eb78 2442
000000d0: 74a2 2442 31ef 52bd b24c 2342 6b1d 2342
000000e0: f544 2342 d727 2342 bd59 2242 9f46 2342
000000f0: 0a3d 2342 21d1 2242 670c 2342 eb81 2442
00000100: fce1 2242 c770 b0bd f9c3 2242 f3be 2242
00000110: 937f 2342 270a 2342 a0ca f13c c0a9 153b
00000120: ea35 2142 23f1 2242 b427 aebc e341 2242
00000130: 35f3 2342 34d9 2342 700a 2342 aff3 2242
00000140: 8abd 2242 0f0d 2442 582f 2442 db1e 2342
00000150: d527 2342 2e65 2342 48c5 0dbc 7bf6 2442
00000160: 8df7 2242 23f6 2242 0643 2342 9400 2342
00000170: d494 2042 ee45 2342 0fb1 2542 9528 2342
00000180: 53b9 2042 20ce 2242 18fe 2242 9004 2442
00000190: 6216 2442 745f 2342 e6a8 2342 e3c4 2342
000001a0: dc19 2542 949e 2342 e4f5 2242 5bec 2242
000001b0: b8b9 2242 094b 2342 3781 2242 7a7a 2542
000001c0: c771 2342 5537 2342 7b25 2342 60df 2242
000001d0: 1b57 2242 c8ed 2342 20c4 2242 956c 2242
000001e0: c430 2442 b179 2242 bf01 2142 0150 2442
000001f0: d2d2 2242 9a8c 373d 097e b0bd b7e6 2242
00000200: 72b3 2342 dd63 2342 4018 2342 02d2 2342
00000210: 1e10 3ebd d07b 2342 db7b 2342 e565 2342
00000220: 5ef8 2242 3064 2542 d34c 2442 a5f5 2542
00000230: 6203 2342 ccdc 2242 35b3 2542 0756 2342
00000240: 7de3 973d 59c0 2342 0db3 2342 8d4d 2442
00000250: ef63 813d e5ed 2342 dbdf 2242 d661 2342
00000260: 8dc2 2342 388a 2542 d5a1 2342 3193 2342
00000270: e068 2342 83bd 2342 2d4f 2342 5d59 2342
00000280: c4bc 2342 8fee 2242 3527 2342 5471 5abd
00000290: bf81 a03d 0190 2342 ce91 2342 82f6 2342
000002a0: 2be2 2342 811b 2342 fe73 aebd 0243 2342
000002b0: 9eb0 2342 54c2 2342 9b1e 2342 91fe 2342
000002c0: 2643 2342 f6e2 2ebd 8da7 2342 8a77 2442
000002d0: 0d1e 2442 a4fd fabc 0da3 2342 b183 2342
000002e0: 8e28 2342 4cbe 2342 cd23 2342 f1e2 2342
000002f0: b602 2342 cbe4 2242 37d5 2342 ecf7 2342
00000300: 2968 2342 2da2 8e3d f181 2342 170c 2342
00000310: 08e9 2342 af33 2342 0c97 0e3d 8baa b03d
00000320: 7713 2142 c54b 2342 0e09 373d 995d 2342
00000330: e228 2442 efcf 2342 057f 2342 f986 2342
00000340: 9370 2342 865a 2342 f207 2342 81ac 2342
00000350: c17f 2342 c3cd 2342 2062 9a3b 2918 2542
00000360: d649 2342 0fb5 2342 967b 2342 fb75 2342
00000370: c295 2042 a118 2342 7ffb 2542 6afd 2342
00000380: 60d9 2042 c051 2342 3eb0 2342 bdd0 2342
00000390: 770e 2342 e3ed 2242 daa0 2342 d93b 2342
000003a0: e7d7 2442 b9cf 2342 76b3 2342 4310 2342
000003b0: 363d 2342 60bc 2342 011e 2342 7f95 2542
000003c0: b788 2342 27b3 2342 cd74 2342 b43a 2342
000003d0: a65b 2342 fa03 2442 7949 2342 730c 2342
000003e0: 4e7d 2342 2817 2342 1603 2142 b05c 2442
000003f0: 4c05 2342 f454 c7bc 20a4 afbd 1d9e 2342

fc2.bias f4 [128]
41.36626 41.336872 -0.022549532 41.216545 0.070920646 41.290787 -0.051317275 0.018416665
41.42426 41.452244 41.429554 41.28285 -0.10122437 41.235573 -0.041635174 41.272892
0.03392465 39.264526 41.259605 -0.023972983 41.159996 0.036175758 41.26644 -0.09232544
-0.07640285 0.041848447 0.012596965 -0.06924909 41.419903 41.38383 -0.07874613 41.37222
-0.05958092 0.080960445 41.324856 -0.06741676 41.37467 41.405193 -0.05922732 -0.10738622
41.190117 -0.07460545 -0.031403583 41.272316 41.308125 0.03758096 0.018305704 0.03679528
-0.08052408 -0.07506182 41.388954 -0.010701506 -0.0028983182 41.380882 41.310497 41.33974
41.334736 41.329647 41.31024 41.411106 0.0464248 0.007921055 41.197483 0.019884422
0.004598905 -0.089090146 41.37072 -0.022176236 41.363506 41.267117 41.36379 41.35277
41.27753 41.40862 -0.090410784 -0.06971991 41.385075 0.050739557 41.29969 0.01166217
41.289204 0.012529381 41.280434 -0.05196056 41.435562 -0.045489907 -0.023288403 -0.040350992
-0.02153011 -0.028709766 -0.020922717 41.299034 41.36144 -0.04312951 41.39574 41.38539
0.062439725 -0.08570687 0.055677705 41.403397 -0.0070069656 -0.07658045 41.40376 0.051895626
41.373295 41.342358 41.36395 41.275143 41.35566 0.03719353 -0.05700023 41.362514
41.335472 -0.049597118 41.417084 0.028084956 41.19901 41.362625 -0.06989485 41.293697
41.233727 -0.018076017 -0.039737225 41.34767 41.29448 41.436394 41.33606 41.3223
00000000: 0d77 2542 f558 2542 ccb9 b8bc bedd 2442
00000010: d83e 913d c429 2542 1032 52bd 8cde 963c
00000020: 71b2 2542 19cf 2542 ddb7 2542 a321 2542
00000030: b94e cfbd 3af1 2442 a589 2abd 7117 2542
00000040: 93f4 0a3d e00e 1d42 d609 2542 fd62 c4bc
00000050: d6a3 2442 082d 143d d610 2542 1f15 bdbd
00000060: 1979 9cbd 4769 2b3d 8063 4e3c 78d2 8dbd
00000070: fbad 2542 0b89 2542 a745 a1bd 277d 2542
00000080: 1f0b 74bd 97ce a53d a74c 2542 cc11 8abd
00000090: a97f 2542 eb9e 2542 5998 72bd 4eed dbbd
000000a0: aec2 2442 beca 98bd 0ba1 00bd da16 2542
000000b0: 853b 2542 7eee 193d d8f5 953c a6b6 163d
000000c0: cfe9 a4bd 03ba 99bd 4a8e 2542 5f55 2fbc
000000d0: b6f1 3dbb 0686 2542 f33d 2542 e55b 2542
000000e0: c556 2542 8f51 2542 b03d 2542 f9a4 2542
000000f0: ee27 3e3d 50c7 013c 39ca 2442 a8e4 a23c
00000100: 69b2 963b e574 b6bd 9e7b 2542 f0aa b5bc
00000110: 3b74 2542 8711 2542 8574 2542 3d69 2542
00000120: 311c 2542 6da2 2542 4a29 b9bd 50c9 8ebd
00000130: 518a 2542 48d4 4f3d e232 2542 b012 3f3c
00000140: 2528 2542 0848 4d3c 2a1f 2542 99d4 54bd
00000150: 04be 2542 a053 3abd 52c7 bebc 1547 25bd
00000160: ea5f b0bc be30 ebbc 1e66 abbc 3632 2542
00000170: 1d72 2542 92a8 30bd 3d95 2542 a48a 2542
00000180: ccc0 7f3d 1587 afbd 4e0e 643d 149d 2542
00000190: b09a e5bb 36d6 9cbd 739d 2542 8290 543d
000001a0: 417e 2542 935e 2542 af74 2542 bf19 2542
000001b0: 326c 2542 3e58 183d 1379 69bd 3773 2542
000001c0: 8657 2542 5926 4bbd 18ab 2542 6c12 e63c
000001d0: c9cb 2442 5473 2542 0825 8fbd bf2c 2542
000001e0: 56ef 2442 2814 94bc 80c3 22bd 0464 2542
000001f0: 8c2d 2542 debe 2542 2058 2542 094a 2542

fc3.weight f4 [4, 128]
32.180805 32.25156 0.05570396 32.200676 0.06444591 32.281868 0.07525 0.046536528
32.277863 32.235916 32.227314 32.1089 0.018713959 32.08055 -0.085491985 32.294483
-0.009834492 29.97546 32.117493 -0.072110765 32.108185 0.006317936 32.254845 0.057653412
0.015856037 0.080974646 0.036303967 -0.023698628 32.244648 32.234974 0.09831444 32.229786
0.05758345 -0.06325662 32.21416 -0.026306272 32.198685 32.269005 0.07639406 0.016925732
32.251606 0.06794125 0.012584956 32.3206 32.234154 0.00080774724 -0.019948237 -0.090519205
-0.062245607 0.011189511 32.22762 0.022852838 0.016184453 32.26959 32.243843 32.098656
32.10883 32.194782 32.142254 32.20582 -0.048254844 0.014765738 32.17674 0.034774892
0.075032234 0.027748473 32.213894 -0.02343288 32.151524 32.10256 32.23535 32.20032
31.994925 32.193584 0.059851393 0.02144073 32.20296 0.04812374 32.249916 0.012428671
32.15262 -0.05038312 32.322018 -0.037910867 32.227875 0.009026639 0.067001395 -0.04625604
-0.03561387 0.043596055 0.027617125 32.173927 32.19669 0.017751724 32.198196 32.31438
0.013288153 0.049150962 -0.030429535 32.175983 0.046925046 -0.00035952032 32.166138 0.07326657
32.29338 32.226032 32.209187 32.236183 32.18978 0.01942335 0.07273822 32.16938
32.234707 0.03634665 32.195927 -0.048546348 32.170418 32.21128 0.033028044 32.197258
32.27282 0.061569937 0.06786022 32.239075 32.324734 32.18756 32.240723 32.225185
35.03027 35.246838 0.042956598 35.08674 -0.0707959 35.23527 -0.042817127 0.051947586
35.10637 35.14974 35.16609 34.821926 -0.040516194 34.976543 -0.0005238392 35.041687
0.011763349 32.89679 35.024826 -0.014479389 34.993336 -0.04269832 35.070633 0.093528815
-0.054150607 -0.0058157546 0.010507628 -0.06666866 35.1571 35.244534 0.052864067 35.18198
-0.07136692 0.06742927 35.21409 -0.05339348 35.178867 35.097458 -0.06764077 -0.012823737
35.194767 -0.06966288 0.097742036 35.237755 35.172325 0.019731328 0.032415204 -0.03570366
0.038287036 0.0013990666 35.147903 -0.05406649 -0.07253687 35.07254 35.188137 35.015934
35.041416 35.158955 34.869476 35.228123 0.05935567 0.034591325 35.198265 0.07165488
0.08067129 0.028930755 35.152126 -0.053630188 34.8555 35.200386 35.223972 35.176437
34.96809 35.235596 0.04951409 -0.055989403 35.11705 0.08603949 35.231586 -0.010455646
35.166954 0.018449754 35.15635 -0.049246907 35.15471 -0.036720797 -0.0012599006 0.072388075
0.004110763 -0.01921783 0.03790188 35.138165 35.151077 0.07575348 35.188717 35.24488
-0.012353314 0.09885545 -0.052370626 34.973812 -0.06029723 -0.07548308 35.202736 -0.029257793
35.085392 35.22506 35.184456 35.19577 35.180397 -0.039594762 0.0804863 35.248802
35.17119 0.050227854 35.118214 -0.019234592 35.24154 35.10349 -0.02377116 35.168312
35.23989 -0.07241884 0.03734172 35.236576 35.24456 35.151722 35.206215 35.159435
00000000: 25b9 0042 9901 0142 d629 643d 7ecd 0042
00000010: 38fc 833d a220 0142 ac1c 9a3d 169d 3e3d
00000020: 881c 0142 94f1 0042 c5e8 0042 836f 0042
00000030: 044e 993c 7c52 0042 6c16 afbd 8d2d 0142
00000040: d920 21bc becd ef41 5078 0042 cfae 93bd
00000050: c86e 0042 b006 cf3b f604 0142 fc25 6c3d
00000060: 85e4 813c 09d6 a53d 78b3 143d a023 c2bc
00000070: 85fa 0042 9df0 0042 1559 c93d 4deb 0042
00000080: a0dc 6b3d b08c 81bd 4ddb 0042 4080 d7bc
00000090: 74cb 0042 7613 0142 7d74 9c3d d5a7 8a3c
000000a0: a501 0142 c824 8b3d 2231 4e3c 4b48 0142
000000b0: c6ef 0042 00bf 533a 7c6a a3bc 2262 b9bd
000000c0: 40f5 7ebd 3654 373c 15e9 0042 e035 bb3c
000000d0: 4295 843c 0f14 0142 b2f9 0042 0665 0042
000000e0: 716f 0042 75c7 0042 ab91 0042 c2d2 0042
000000f0: dfa6 45bd feeb 713c fbb4 0042 1e70 0e3d
00000100: 80aa 993d c450 e33c 07db 0042 50f6 bfbc
00000110: 299b 0042 0569 0042 00f1 0042 21cd 0042
00000120: 9bf5 ff41 3bc6 0042 bc26 753d 78a4 af3c
00000130: d5cf 0042 661d 453d eaff 0042 a0a1 4b3c
00000140: 489c 0042 885e 4ebd bf49 0142 6d48 1bbd
00000150: 58e9 0042 78e4 133c 0738 893d f976 3dbd
00000160: d9df 11bd c791 323d 4f3d e23c 1ab2 0042
00000170: 69c9 0042 106c 913c f4ca 0042 ed41 0142
00000180: 8eb6 593c 8552 493d 5c47 f9bc 35b4 0042
00000190: 7a34 403d 007e bcb9 20aa 0042 c90c 963d
000001a0: 6c2c 0142 75e7 0042 35d6 0042 daf1 0042
000001b0: 56c2 0042 b81d 9f3c c7f7 943d 72ad 0042
000001c0: 57f0 0042 3ae0 143d a1c8 0042 89d8 46bd
000001d0: 82ae 0042 5ad8 0042 6a48 073d fec9 0042
000001e0: 5e17 0142 c230 7c3d 4dfa 8a3d d0f4 0042
000001f0: 874c 0142 10c0 0042 80f6 0042 97e6 0042
00000200: ff1e 0c42 c3fc 0c42 42f3 2f3d d258 0c42
00000210: 71fd 90bd ebf0 0c42 0361 2fbd fec6 543d
00000220: ec6c 0c42 5599 0c42 13aa 0c42 a749 0b42
00000230: 4ff4 25bd fbe7 0b42 4152 09ba b02a 0c42
00000240: 10bb 403c 5096 0342 6c19 0c42 f63a 6dbc
00000250: 2df9 0b42 6fe4 2ebd 5448 0c42 098c bf3d
00000260: 07cd 5dbd 1692 bebb 3028 2c3c 9489 88bd
00000270: dfa0 0c42 67fa 0c42 fe87 583d 59ba 0c42
00000280: d228 92bd 5b18 8a3d 3adb 0c42 1fb3 5abd
00000290: 29b7 0c42 cc63 0c42 3e87 8abd a71a 52bc
000002a0: 71c7 0c42 69ab 8ebd fa2c c83d 76f3 0c42
000002b0: 76b0 0c42 98a3 a13c cec5 043d 003e 12bd
000002c0: ded2 1c3d e360 b73a 7497 0c42 d374 5dbd
000002d0: 368e 94bd 484a 0c42 a7c0 0c42 5110 0c42
000002e0: 692a 0c42 c5a2 0c42 587a 0b42 99e9 0c42
000002f0: ee1e 733d a2af 0d3d 06cb 0c42 cbbf 923d
00000300: fd36 a53d 3100 ed3c c79b 0c42 54ab 5bbd
00000310: 086c 0b42 32cd 0c42 59e5 0c42 acb4 0c42
00000320: 53df 0b42 40f1 0c42 49cf 4a3d 2555 65bd
00000330: dc77 0c42 7935 b03d 25ed 0c42 284e 2bbc
00000340: f6aa 0c42 f023 973c 1aa0 0c42 20b7 49bd
00000350: 6c9e 0c42 8c68 16bd 4023 a5ba 3340 943d
00000360: 94b3 863b b66e 9dbc 003f 1b3d 7b8d 0c42
00000370: b49a 0c42 a424 9b3d 3fc1 0c42 c2fa 0c42
00000380: 8e65 4abc ba74 ca3d 9582 56bd 2fe5 0b42
00000390: 3afa 76bd e096 9abd 9acf 0c42 0aae efbc
000003a0: 7157 0c42 76e6 0c42 e2bc 0c42 78c8 0c42
000003b0: bab8 0c42 1e2e 22bd 00d6 a43d c6fe 0c42
000003c0: 4caf 0c42 b9bb 4d3d 0d79 0c42 dd91 9dbc
000003d0: 56f7 0c42 f969 0c42 bcbb c2bc 5aac 0c42
000003e0: a6f5 0c42 5450 94bd a2f3 183d 41f2 0c42
000003f0: 6efa 0c42 5d9b 0c42 2ad3 0c42 43a3 0c42

fc3.bias f4 [4]
29.810242 36.17218 8.16696 38.632473
00000000: 607b ee41 50b0 1042 deab 0241 a787 1a42
