model_w/DQA/model_14999.pth (torch, 72240 bytes, 6 tensors)

fc1.weight f4 [128, 2]
00000000: 2f90 9943 f182 9c43 9b4b 9943 1c1a 9c43
00000010: 7272 9943 683c 9c43 5a1d 9a43 cbdf 9b43
00000020: 0146 9a43 ab4a 9c43 671a 9a43 937c 9c43
00000030: 8b42 9a43 66e3 9b43 c3a9 9943 4d83 9c43
00000040: 74c8 9943 0981 9c43 77e8 9943 9686 9c43
00000050: 6fc7 9943 c60b 9c43 7535 9a43 a75b 9c43
00000060: 6c49 9a43 0291 9c43 90e7 01bd 60e9 78bd
00000070: 48d8 9943 e178 9c43 e9df 9943 b956 9c43
00000080: 8209 20bf 22bc 81be 9dd7 9943 3c32 9c43
00000090: 4640 9a43 be07 9c43 f851 9a43 2945 9c43
000000a0: 0f26 9a43 4c4e 9c43 999f 9943 6491 9c43
000000b0: 6df6 9843 e8ea 9b43 e21c 9a43 d57d 9c43
000000c0: 0ef0 9943 f845 9c43 18f0 9943 6d28 9c43
000000d0: 2bf7 9943 c2f1 9b43 ac41 9a43 3551 9c43
000000e0: 201c 94bd a4c7 3abe fbac 9943 c50f 9c43
000000f0: 7819 9a43 6ddc 9b43 00bf 9943 f64d 9c43
00000100: 05ff 9943 b319 9c43 892c 9a43 755c 9c43
00000110: 28ba 9943 d29c 9c43 14aa 9943 4189 9c43
00000120: e4de 9943 1795 9c43 d669 05bf e3d2 9bbe
00000130: 58e4 9943 f81b 9c43 dc21 9a43 dbe5 9b43
00000140: f2c4 9943 3ae6 9b43 336a 9a43 f865 9c43
00000150: 66c8 9943 7aa3 9c43 1cd4 9943 aa21 9c43
00000160: 611a 9a43 c9de 9b43 b334 9a43 3f55 9c43
00000170: de32 9a43 7200 9c43 b8ca 9943 9153 9c43
00000180: a849 9a43 2c63 9c43 e12d 9a43 8374 9c43
00000190: 8a0f 9a43 8960 9c43 6e22 9a43 ffd9 9b43
000001a0: f85f 9a43 3718 9c43 6d81 9743 baf9 9943
000001b0: 40a5 9943 2040 9c43 4237 9a43 5c82 9c43
000001c0: 7d29 9a43 f0fb 9b43 6308 9a43 856d 9c43
000001d0: 7433 9a43 6194 9c43 20bd 9943 026b 9c43
000001e0: a9db 9943 1b8e 9c43 4450 9a43 4ead 9c43
000001f0: b524 9a43 2b15 9c43 9b36 9a43 3f90 9c43
00000200: 66e8 82be 4b6b e3be ab86 9943 755f 9c43
00000210: ac4a 9a43 c39a 9c43 92e5 9943 801a 9c43
00000220: b7b0 9943 ab39 9c43 cfd1 9843 84f4 9b43
00000230: 4cca 9943 7277 9c43 e831 9a43 ffef 9b43
00000240: fea4 9943 cc6a 9c43 9514 83be 9869 dabd
00000250: 36bc 9943 5928 9c43 c101 9a43 963b 9c43
00000260: 58a5 9943 1768 9c43 ddc8 9843 bbf8 9b43
00000270: b39e 9943 0d69 9c43 9068 9abe 1848 f3bd
00000280: 10c4 9943 6909 9c43 2013 9a43 422e 9c43
00000290: b837 34bf 35fe 28bf 5e2e 9a43 4576 9c43
000002a0: b4fb 9943 4114 9c43 00cf 9943 8331 9c43
000002b0: a208 9a43 6993 9c43 60b7 9943 6924 9c43
000002c0: 5d3a 9a43 da85 9c43 11c2 9943 266e 9c43
000002d0: 5a19 9a43 75dc 9b43 c6c8 9943 bb36 9c43
000002e0: 08c4 9943 cb26 9c43 f08e 9943 2f70 9c43
000002f0: 8753 9a43 dea7 9c43 2e28 9a43 b55c 9c43
00000300: cf1b 9a43 f75b 9c43 ddd9 9943 14b4 9b43
00000310: 4a1f 9a43 2edd 9b43 2cf0 9943 6a8a 9c43
00000320: 6ec5 9943 377f 9c43 2f66 9a43 1d0d 9c43
00000330: d211 9a43 e86b 9c43 622c 9a43 5994 9c43
00000340: 6eab 9843 6df2 9b43 19e1 9943 f86d 9c43
00000350: e858 40be 1020 b7bd 2ac8 9943 2b04 9c43
00000360: 595a 07bf 168e a2be 97af 9943 0a25 9c43
00000370: 41da 9943 fe0c 9c43 d9d1 9843 fcf0 9b43
00000380: cccd 01bf b340 c6be f149 9a43 f3f7 9b43
00000390: 940b 9a43 23f3 9b43 d26f 9943 2b35 9c43
000003a0: ddca 9943 5d14 9c43 2d72 9a43 d146 9c43
000003b0: 0aca 9943 791b 9c43 0d2b 9a43 8c7f 9c43
000003c0: de0f 9a43 850c 9c43 61a5 9943 7d8e 9c43
000003d0: f744 9a43 d34f 9c43 643a 9a43 f973 9c43
000003e0: 642d 12be 7ede 06bf 1dd0 9943 b632 9c43
000003f0: 4544 9a43 4877 9c43 75bb 9943 ee19 9c43
307.12643 313.02298 306.59067 312.20398 306.8941 312.47192 308.2293 311.74838
308.5469 312.58334 308.20627 312.97324 308.51987 311.77655 307.32626 313.0258
307.56604 313.0081 307.81613 313.05145 307.55807 312.09198 308.41763 312.71603
308.5736 313.13287 -0.031714976 -0.06076944 307.6897 312.94437 307.7493 312.67752
-0.6251451 -0.25338846 307.68448 312.39246 308.50214 312.0605 308.64038 312.5403
308.29733 312.6117 307.24686 313.13586 305.9252 311.8352 308.22565 312.98306
307.87543 312.54663 307.87573 312.31583 307.931 311.88873 308.51306 312.63443
-0.07231927 -0.1824022 307.3514 312.1232 308.19897 311.72208 307.4922 312.60907
307.99234 312.20078 308.34793 312.72232 307.45435 313.22516 307.32874 313.0723
307.74133 313.16476 -0.5211462 -0.3043433 307.78394 312.2185 308.26453 311.79575
307.53864 311.79865 308.82968 312.79663 307.5656 313.27716 307.6571 312.263
308.2061 311.7405 308.4117 312.666 308.3974 312.00348 307.58374 312.65286
308.57544 312.77478 308.35843 312.91025 308.1214 312.75418 308.26898 311.7031
308.74976 312.18918 303.01114 307.951 307.29102 312.50098 308.4317 313.01843
308.32413 311.96826 308.06552 312.85562 308.40198 313.1592 307.47754 312.836
307.7161 313.1102 308.62708 313.35394 308.28677 312.16537 308.4266 313.12692
-0.2556793 -0.44417796 307.0521 312.74576 308.58337 313.20908 307.79352 312.20703
307.38058 312.45053 305.63913 311.91028 307.58044 312.93317 308.3899 311.87497
307.289 312.83435 -0.2560164 -0.10664672 307.4704 312.31522 308.0137 312.4655
307.29175 312.8132 305.56924 311.9432 307.23984 312.8207 -0.301579 -0.11878985
307.53174 312.07352 308.1494 312.3614 -0.7039752 -0.6601289 308.36224 312.92398
307.96643 312.15823 307.6172 312.3868 308.06744 313.15164 307.43262 312.28445
308.45596 313.04572 307.51614 312.86053 308.19806 311.72232 307.56854 312.42758
307.5315 312.30307 307.1167 312.87643 308.65256 313.31146 308.3139 312.72427
308.21725 312.71848 307.70206 311.40686 308.24445 311.72797 307.87634 313.08136
307.54242 312.99387 308.7983 312.10245 308.13922 312.84302 308.34674 313.15897
305.3393 311.89395 307.75858 312.85913 -0.18783915 -0.08941662 307.56378 312.03256
-0.52872235 -0.31749028 307.3718 312.28937 307.7051 312.1015 305.63943 311.8827
-0.50704646 -0.38721237 308.57767 311.9371 308.09045 311.8995 306.8736 312.41537
307.58487 312.1591 308.892 312.55325 307.57843 312.21463 308.33633 312.99646
308.12396 312.0978 307.29202 313.1132 308.5388 312.62363 308.45618 312.90604
-0.14275128 -0.52683246 307.6259 312.39618 308.53336 312.9319 307.4645 312.20258

fc1.bias f4 [128]
00000000: e8f9 7744 bedd 7744 1bea 7744 81f3 7744
00000010: f89e 7744 84a0 7744 0bf1 7744 2dd7 7744
00000020: 10ec 7744 d2b9 7744 12fe 7744 e4a1 7744
00000030: aea8 7744 aea5 0dbf 15ff 7744 0507 7844
00000040: 68c9 26be 82f5 7744 85ab 7744 4cab 7744
00000050: 53b2 7744 badc 7744 ebce 7744 b31c 7844
00000060: d6f3 7744 2e00 7844 38f4 7744 53f7 7744
00000070: 1f08 0cbf 3002 7844 a7fe 7744 f10e 7844
00000080: e5db 7744 2a0c 7844 60c7 7744 e4e4 7744
00000090: a8b5 7744 86d2 13bf 8e07 7844 2e08 7844
000000a0: a5f6 7744 c28d 7744 51b9 7744 d1f0 7744
000000b0: 10f5 7744 1fb2 7744 2f0e 7844 b7df 7744
000000c0: a592 7744 23b1 7744 9706 7844 2403 7844
000000d0: c6a5 7744 285a 7644 21ea 7744 420f 7844
000000e0: 55ec 7744 48c3 7744 a2a7 7744 921b 7844
000000f0: a7b9 7744 44a1 7744 72f0 7744 3aae 7744
00000100: 8075 68bd 43b6 7744 79a0 7744 3d0c 7844
00000110: d300 7844 6de2 7744 c6a8 7744 c4b1 7744
00000120: d2ec 7744 d868 bfbe 3806 7844 1df8 7744
00000130: 0de3 7744 0eec 7744 9b15 7844 aa64 0bbf
00000140: cb02 7844 04fc 7744 a03c 48be 9304 7844
00000150: 500b 7844 e800 7844 d2d9 7744 16f5 7744
00000160: d0fa 7744 ffd9 7744 55c7 7744 ea01 7844
00000170: e3fd 7744 31f5 7744 599c 7744 4515 7844
00000180: 03ff 7744 c8dc 7744 cec0 7744 0f10 7844
00000190: 37e2 7744 d58f 7744 1018 7844 28b0 7744
000001a0: 8bf4 7744 f708 7844 0c18 15bf 6eec 7744
000001b0: 20fd a4bd 8a04 7844 4d16 7844 27e3 7744
000001c0: 78ea 17be 8ed1 7744 26fb 7744 bbee 7744
000001d0: dc0b 7844 768a 7744 3a04 7844 819b 7744
000001e0: 400b 7844 35f9 7744 7ba7 7744 6f9c 7744
000001f0: 1ca0 19be f5fc 7744 afa3 7744 c014 7844
991.9048 991.4647 991.6579 991.80475 990.4839 990.50806 991.7663 991.3621
991.6885 990.90344 991.96985 990.52954 990.6356 -0.5533093 991.98566 992.1097
-0.16287768 991.83606 990.68 990.6765 990.7863 991.44885 991.2331 992.4484
991.80994 992.0028 991.8159 991.86444 -0.5469989 992.0342 991.97894 992.23346
991.43585 992.19006 991.11523 991.5764 990.8384 -0.5774311 992.11804 992.1278
991.8538 990.21497 990.89557 991.76276 991.8291 990.78314 992.2216 991.49554
990.2913 990.76776 992.10297 992.0491 990.5902 985.4087 991.65826 992.2384
991.6927 991.0513 990.61926 992.4308 990.9008 990.5198 991.75696 990.7223
-0.05675268 990.84784 990.5074 992.1912 992.0129 991.5379 990.6371 990.7776
991.7003 -0.37384677 992.09717 991.8768 991.54767 991.68835 992.3376 -0.54450476
992.04364 991.93774 -0.19554377 992.0715 992.17676 992.01416 991.40344 991.82947
991.91895 991.4062 991.11456 992.0299 991.967 991.8311 990.44293 992.33234
991.98456 991.4497 991.0126 992.2509 991.5346 990.2474 992.376 990.75244
991.821 992.1401 -0.5823982 991.6942 -0.08056092 992.0709 992.34845 991.54926
-0.14835536 991.2743 991.9242 991.73016 992.1853 990.16345 992.06604 990.42975
992.1758 991.89386 990.6169 990.4443 -0.15002483 991.95245 990.55756 992.3242

fc2.weight f4 [128, 128]
00000000: d63b 6b44 4925 6b44 dc17 6b44 ea46 6b44
00000010: cc13 6b44 091a 6b44 7539 6b44 042e 6b44
00000020: aa35 6b44 ad2f 6b44 6757 6b44 f21c 6b44
00000030: d128 6b44 76cf 783d a934 6b44 3336 6b44
00000040: 8029 853a 083c 6b44 e517 6b44 0029 6b44
00000050: 2722 6b44 0931 6b44 8518 6b44 c331 6b44
00000060: 513c 6b44 f340 6b44 0b50 6b44 2d31 6b44
00000070: ca61 253d f544 6b44 6a57 6b44 633f 6b44
00000080: da40 6b44 7e3a 6b44 4533 6b44 0130 6b44
00000090: 2f2b 6b44 826d 5b3d 1255 6b44 064b 6b44
000000a0: 224a 6b44 701e 6b44 802b 6b44 553b 6b44
000000b0: 3852 6b44 bb1b 6b44 6447 6b44 d43a 6b44
000000c0: 5a0f 6b44 2526 6b44 123a 6b44 0851 6b44
000000d0: 701c 6b44 588a 6a44 5233 6b44 1d36 6b44
000000e0: ee3b 6b44 d232 6b44 3c2a 6b44 3743 6b44
000000f0: d231 6b44 ac1e 6b44 253c 6b44 0024 6b44
00000100: 77f8 8f3d 642b 6b44 0527 6b44 bf50 6b44
00000110: f543 6b44 6f08 6b44 9132 6b44 752e 6b44
00000120: 5035 6b44 2afb 743d 233d 6b44 383b 6b44
00000130: 0c37 6b44 f722 6b44 2c39 6b44 a335 93bd
00000140: 655b 6b44 ea36 6b44 d00f 5b3c 7735 6b44
00000150: 1e4f 6b44 4446 6b44 e12e 6b44 8e42 6b44
00000160: 0d2d 6b44 ae0b 6b44 db3f 6b44 283f 6b44
00000170: cc4f 6b44 4336 6b44 ed1d 6b44 4038 6b44
00000180: 4436 6b44 3e3c 6b44 a542 6b44 b039 6b44
00000190: 1133 6b44 770e 6b44 6b31 6b44 7d24 6b44
000001a0: 630d 6b44 813d 6b44 9888 d93c 3d44 6b44
000001b0: 91fd 9abd e742 6b44 2156 6b44 7f0f 6b44
000001c0: c01d 8d3a 2d35 6b44 7151 6b44 302e 6b44
000001d0: 5649 6b44 880c 6b44 3c4c 6b44 c720 6b44
000001e0: 7545 6b44 3b3a 6b44 8419 6b44 cd1d 6b44
000001f0: 9cd2 d6bc 0a45 6b44 dc27 6b44 025e 6b44
00000200: b295 6b44 217b 6b44 fa9b 6b44 8096 6b44
00000210: 345b 6b44 dd66 6b44 8393 6b44 fa90 6b44
00000220: 4990 6b44 0185 6b44 64b1 6b44 0d5d 6b44
00000230: ef78 6b44 5214 74bd b292 6b44 6299 6b44
00000240: e47e 98bd 29a3 6b44 dd68 6b44 5e76 6b44
00000250: e55d 6b44 4f92 6b44 6e78 6b44 c793 6b44
00000260: 9092 6b44 1fa2 6b44 ca9b 6b44 f28d 6b44
00000270: c25f 6abd a5b3 6b44 5099 6b44 619d 6b44
00000280: 0c99 6b44 6c8f 6b44 8f90 6b44 9f94 6b44
00000290: fd85 6b44 986b 0dbc dba4 6b44 d49a 6b44
000002a0: 9ca9 6b44 0262 6b44 af89 6b44 59b3 6b44
000002b0: 5e9a 6b44 d35b 6b44 f895 6b44 d298 6b44
000002c0: e859 6b44 4975 6b44 e992 6b44 c399 6b44
000002d0: db7a 6b44 4288 6a44 20a0 6b44 e985 6b44
000002e0: 9790 6b44 5085 6b44 7b70 6b44 c79f 6b44
000002f0: be7e 6b44 8072 6b44 2392 6b44 b176 6b44
00000300: 1484 a3bc b3ae 6b44 c772 6b44 8ba2 6b44
00000310: a9a3 6b44 e570 6b44 fc9b 6b44 1766 6b44
00000320: 6998 6b44 4a9e 1d3d deb4 6b44 8c93 6b44
00000330: f99a 6b44 ae8a 6b44 41a1 6b44 f307 b4bd
00000340: c2b4 6b44 1295 6b44 2ae6 5dbd c28a 6b44
00000350: a5a4 6b44 7ba0 6b44 0d8a 6b44 f9b7 6b44
00000360: e785 6b44 1e94 6b44 0a7c 6b44 83a8 6b44
00000370: 31ae 6b44 ca93 6b44 8c6c 6b44 8994 6b44
00000380: ee8b 6b44 6c7f 6b44 267c 6b44 e095 6b44
00000390: b696 6b44 5261 6b44 7995 6b44 be77 6b44
000003a0: 0e7d 6b44 0f9d 6b44 80ea 803c c5aa 6b44
000003b0: 9a28 4b3d 4fba 6b44 9aa7 6b44 a877 6b44
000003c0: 0aa6 253d bf8c 6b44 60a2 6b44 fdaf 6b44
000003d0: d2a9 6b44 8765 6b44 28a8 6b44 3562 6b44
000003e0: 7097 6b44 4d94 6b44 b460 6b44 a762 6b44
000003f0: aaf3 e3bc 789f 6b44 eb67 6b44 6ab1 6b44
940.93494 940.5826 940.3728 941.10803 940.3093 940.4068 940.89777 940.719
940.8385 940.74493 941.36566 940.4523 940.63776 0.060744725 940.8228 940.84686
0.0010159463 940.938 940.37335 940.6406 940.5336 940.7662 940.3831 940.7775
940.94244 941.01483 941.2507 940.7684 0.040376462 941.07745 941.36584 940.9904
941.0133 940.91394 940.8011 940.75006 940.67474 0.05357123 941.3292 941.17224
941.1583 940.4756 940.6797 940.92706 941.28467 940.4333 941.1155 940.9192
940.23987 940.596 940.90735 941.2661 940.44434 938.1616 940.8019 940.8455
940.9364 940.79407 940.6599 941.05023 940.77844 940.47925 940.93976 940.5625
0.07029813 940.678 940.6097 941.26166 941.0618 940.1318 940.7901 940.7259
940.833 0.05980984 940.95526 940.9253 940.8601 940.5463 940.8933 -0.07187965
941.42804 940.85803 0.013370469 940.8354 941.2362 941.0979 940.7325 941.0399
940.7039 940.1825 940.99774 940.9868 941.2468 940.84784 940.4676 940.8789
940.8479 940.9413 941.0413 940.90137 940.7979 940.226 940.77216 940.5701
940.20917 940.961 0.02655439 941.0662 -0.07567895 941.04535 941.34576 940.2421
0.0010766312 940.8309 941.2725 940.7217 941.1459 940.1958 941.19116 940.51215
941.08527 940.90985 940.3987 940.46564 -0.026223473 941.07874 940.6228 941.4689
942.339 941.9239 942.43713 942.35156 941.42505 941.60724 942.3049 942.26526
942.25446 942.0782 942.7717 941.4539 941.8896 -0.05958969 942.2921 942.3966
-0.074460775 942.5494 941.6385 941.8495 941.4671 942.2861 941.8817 942.309
942.29004 942.53314 942.4342 942.2179 -0.057220228 942.80695 942.3955 942.45905
942.39136 942.24097 942.2587 942.3222 942.09357 -0.008631609 942.57587 942.4192
942.65015 941.5314 942.1513 942.8023 942.412 941.43475 942.34326 942.3878
941.4048 941.8326 942.2955 942.4025 941.9196 938.129 942.50195 942.09235
942.2592 942.083 941.7575 942.4965 941.98035 941.78906 942.2834 941.85455
-0.01996044 942.7297 941.7934 942.53973 942.5572 941.764 942.43726 941.59515
942.3814 0.038481034 942.82605 942.3054 942.42145 942.1669 942.5196 -0.08790579
942.82434 942.3292 -0.05417458 942.1681 942.5726 942.5075 942.15704 942.8746
942.0922 942.31433 941.9381 942.633 942.72174 942.3092 941.69604 942.32086
942.1864 941.99097 941.9398 942.3418 942.35486 941.5206 942.3355 941.871
941.954 942.45404 0.015736818 942.6683 0.049599268 942.9111 942.6188 941.8696
0.04044155 942.19916 942.5371 942.7498 942.65344 941.58636 942.62744 941.5345
942.3662 942.3172 941.511 941.54144 -0.027826149 942.4917 941.6237 942.7721

fc2.bias f4 [128]
00000000: d767 7644 638a 7644 c99a 7644 8180 7644
00000010: 0b29 98bc 7866 7644 6aa1 c2bd 67f5 c3bd
00000020: 703b 973d 93d4 16bc fa52 7644 746c 7644
00000030: e778 7644 ea1f bcbd 38e6 753f e58b 7644
00000040: 5f62 7644 7581 7644 5c72 7644 8f6e 7644
00000050: b678 7644 6a72 7644 b76c 7644 39bd 7ebd
00000060: 8588 7644 54fa f6bc 022b 84bd a584 7644
00000070: 2b79 7644 e773 7644 306b c23c 9eea 91bd
00000080: dca4 a43c a56c 7644 c981 7644 a6d3 b23e
00000090: 9177 773d 1f70 7644 7ecf c33c 6583 7644
000000a0: 08c5 003c a0dc c23c a263 7644 179e 4bbd
000000b0: d75a 7644 3369 7644 2547 7ebd 2c6d 7644
000000c0: abe3 093d ecb5 4cbd fdb7 c1bd 587c 7644
000000d0: 4982 7644 cf84 7644 6077 7644 2360 7644
000000e0: ea7b 7644 fe6a 7644 857c 7644 0078 fa3b
000000f0: d878 7644 635a f93b d48c 7644 4771 7644
00000100: 8186 7644 1289 7644 1dac ac3d 9982 7644
00000110: 2bea c8bd 5919 36b8 0c63 7644 307c 7644
00000120: 68fb 8e3d 8565 7644 af6d 7644 805a e7ba
00000130: 2594 e9bd 1293 0a3f d465 7644 5042 48bd
00000140: 74cb ab3e 5f69 7644 ec77 cfbd 268c 2dbd
00000150: d068 7644 8d8b 7644 3184 343c f566 7644
00000160: 2bab 943d f927 293d 3dfa 983c 136e aabd
00000170: d48c 7b3d e9e0 ba3e b971 7644 f588 7644
00000180: 8d7e 7644 e565 313f fef1 0d3d 756e b2bc
00000190: 4862 7644 d80f 83bd 3068 7644 f279 7644
000001a0: 6b54 c0bd fdb8 b93c c5be a7bd 4d88 e03e
000001b0: 2386 7644 ac77 7644 767c 7644 3b78 7644
000001c0: 8492 80bd da7e 7644 9b81 7644 a67b 593d
000001d0: 8295 5f3e 6a83 99bd 56cd 8e3e fd95 7644
000001e0: 8d2f 853d b083 7644 050d 803d 0341 99bd
000001f0: d388 7644 6ec6 14bd f5af 31bd 86f3 553d
985.6225 986.1623 986.4185 986.0079 -0.018574258 985.6011 -0.095034435 -0.09568291
0.07384384 -0.009205955 985.2965 985.6946 985.8891 -0.091857746 0.9605441 986.18585
985.53705 986.02277 985.78687 985.7275 985.8861 985.7877 985.69867 -0.062192176
986.1331 -0.030148663 -0.064535156 986.0726 985.89325 985.811 0.023732752 -0.07124828
0.020098142 985.6976 986.0279 0.349271 0.06041676 985.7519 0.02390265 986.05304
0.007859476 0.023786843 985.55676 -0.049711313 985.4194 985.64374 -0.062079567 985.7058
0.033664387 -0.04997818 -0.09458921 985.9429 986.0357 986.07513 985.86523 985.50214
985.93616 985.67175 985.9456 0.0076436996 985.8882 0.007609652 986.20044 985.76996
986.1016 986.1417 0.084312655 986.0406 -0.09810289 -4.341579e-05 985.5476 985.9404
0.06981546 985.58624 985.7138 -0.0017650872 -0.114052095 0.5413066 985.59106 -0.048891366
0.3355366 985.6464 -0.10130295 -0.042369984 985.6377 986.1805 0.011017845 985.6087
0.0725921 0.041297887 0.01867401 -0.08321776 0.0614136 0.36499718 985.7769 986.13995
985.97736 0.69296104 0.03465461 -0.021781186 985.53564 -0.06399506 985.6279 985.9054
-0.093911014 0.022671217 -0.08190683 0.4385399 986.0959 985.8699 985.9447 985.8786
-0.06277946 985.98206 986.0251 0.053096436 0.21834376 -0.07495768 0.27891034 986.34357
0.0650321 986.0576 0.06252483 -0.07483103 986.1379 -0.03632205 -0.043380696 0.052234195

fc3.weight f4 [4, 128]
00000000: de41 7343 2350 7543 52e5 7443 bd84 7443
00000010: 0416 b13b 54a2 7243 14ec c93b 1093 d23c
00000020: fbae 693d 9089 8d3d e9f3 7343 80d3 7243
00000030: 9c36 7443 e240 873d 6530 2cbf 3662 7443
00000040: 03c6 7343 1ab7 7443 7b0c 7443 acd3 7243
00000050: 74f0 7343 4bfa 7243 16f1 7343 16e1 943d
00000060: 2f67 7443 edfe 97bd 18ee 2bbc cdf7 7343
00000070: 0734 7443 abc5 7243 4101 92bd 6fa9 c7bc
00000080: 0859 143c 99c8 7243 3347 7443 e16f 9cbd
00000090: f48e 863d b68f 7243 4aef 333d 0df2 7343
000000a0: cf8c 3d3c a0fe 3a3d 75fa 7243 e000 30bd
000000b0: bc0d 7343 d228 7343 109c adbb f20e 7443
000000c0: 2080 243d d77b 853d cb6d 1c3d b654 7443
000000d0: b5c0 7443 265a 7443 4253 7343 55e1 7243
000000e0: ea61 7443 e05e 7343 585b 7443 ca70 5ebd
000000f0: ede3 7343 8c7b fe3c 5653 7443 ede4 7243
00000100: f476 7443 69da 7443 2244 793d 9acc 7243
00000110: d07b c13c 08e0 84bd 6bed 7243 18cf 7343
00000120: 4eaf e73c 7653 7343 d9f8 7443 caa8 193d
00000130: e188 243d c90d 2fbf 3923 7443 e1fb 71bd
00000140: 60d9 d9bd 63c6 7243 68cc d1bc 8468 e73c
00000150: a18f 7343 6935 7443 5c27 a63c 3adb 7343
00000160: 6829 d2bc 3d75 2dbd 878e 61bd 1683 723d
00000170: 5e86 953d 649b c9bd 43f8 7243 697c 7343
00000180: 267e 7443 9657 54bf 9897 0b3c 2a5d 803d
00000190: cf93 7243 24a4 67bd 78b1 7443 a79f 7443
000001a0: 1a72 3ebc 502b 163c 8b02 203d bce1 babe
000001b0: fc1c 7343 2bc3 7443 d6a4 7443 59d4 7343
000001c0: ae2e 0b3d 0283 7443 5f2e 7343 e255 9bbd
000001d0: 1c37 c3bd 752c 993d c2e1 7ebd 6c4d 7443
000001e0: 9784 a23d 2dfa 7343 4c4d 81bc b0c0 153d
000001f0: 99d2 7243 423f 43bc ed3b ba3c bb66 ae3d
00000200: 955a 8443 7cd8 8443 3a37 8543 98d6 8443
00000210: db90 f7bc de36 8443 27d7 51bc 6729 523c
00000220: 3302 cdbd c83d d2bc 1f83 8443 9752 8443
00000230: 08b7 8443 faa4 98bc be54 b7be 50f9 8443
00000240: 3c47 8443 f037 8543 7475 8443 e810 8443
00000250: 16c0 8443 fa4a 8443 0e83 8443 3866 903d
00000260: d5eb 8443 fc96 cbbc 7ab4 9bbd 9a8b 8443
00000270: 94ac 8443 d638 8443 276b 8d3d 5e28 5a3d
00000280: f4b1 9cbc 9061 8443 b5ad 8443 33cd 203c
00000290: 61f3 8abd 6b3c 8443 267d 63bd b9c1 8443
000002a0: 5670 763d f84c 553d 9c3d 8443 dfbc 0d3d
000002b0: f645 8443 fa5e 8443 ada6 863d 29a0 8443
000002c0: dfa4 cbbd adde 0d3d 6d8e 77bc 1bea 8443
000002d0: 255a 8543 cfe9 8443 5b88 8443 1901 8443
000002e0: 4c96 8443 aa64 8443 efaa 8443 911e b43d
000002f0: f3d7 8443 32f4 043c 63ee 8443 6e4c 8443
00000300: b2eb 8443 441a 8543 977c aabd 944f 8443
00000310: d69e 2cbd 06ab bc3b c040 8443 acb1 8443
00000320: 006b 243d a71c 8443 321f 8543 c3a6 873d
00000330: dc37 293d 03db 0fbf 1aa0 8443 98de cb3c
00000340: f894 883d 5a40 8443 6ecb 6a3d 1ae1 70bd
00000350: 7a4f 8443 c5d2 8443 423f 31bc 8065 8443
00000360: e405 98bc 32a7 923d a04d fdba 9d24 7f3d
00000370: 94a6 a2bc b42b ba3b c448 8443 bbbe 8443
00000380: 0283 8443 aae2 38bf 9807 27bc 0dd0 ed3c
00000390: c824 8443 5cfc b0b9 dd84 8543 726b 8443
000003a0: 3fd2 babb a5a3 ae3c a627 06bb f53a df39
000003b0: e693 8443 a470 8543 6b1d 8543 bfb5 8443
000003c0: 4ca8 45bd 470c 8543 4d6c 8443 96ef 303a
000003d0: e994 713b eaae 93bd bf2b 973d 20ec 8443
000003e0: f7e2 8bbd 05a1 8443 5daa 2c3d f735 8bbd
000003f0: ca63 8443 bf3f db3c d440 b1ba 489b 2ebd
243.2573 245.31303 244.89578 244.51851 0.005404236 242.6341 0.006162176 0.02570489
0.05705164 0.069110036 243.95277 242.82617 244.21332 0.06604172 -0.67261344 244.38364
243.77348 244.71524 244.04875 242.82684 243.93927 242.9777 243.94174 0.07269494
244.40306 -0.0742167 -0.010493778 243.96797 244.20323 242.77214 -0.071291454 -0.024372784
0.00905443 242.78358 244.27812 -0.07638527 0.06570235 242.56137 0.043929376 243.94551
0.011569216 0.045652986 242.97835 -0.042969584 243.05365 243.15945 -0.005298145 244.05838
0.040161252 0.06517761 0.038190644 244.3309 244.75276 244.35214 243.32523 242.8802
244.38248 243.3706 244.35681 -0.054306783 243.89034 0.031064771 244.32553 242.89424
244.46466 244.85316 0.060855992 242.79922 0.023618609 -0.06488043 242.92741 243.80896
0.028281834 243.32602 244.97206 0.037514485 0.0401696 -0.6838041 244.13759 -0.0590781
-0.10637164 242.77495 -0.025610164 0.02824808 243.56105 244.20863 0.02028244 243.85635
-0.02565451 -0.042348135 -0.055067565 0.059207045 0.07301019 -0.098440915 242.96977 243.48598
244.49277 -0.82946146 0.0085200295 0.0626777 242.57738 -0.05655302 244.69324 244.62364
-0.011623884 0.0091656 0.039064925 -0.36500347 243.11322 244.76237 244.64389 243.82948
0.033980064 244.51175 243.18114 -0.0758474 -0.09531996 0.07479183 -0.06222702 244.30243
0.07935446 243.97725 -0.015783928 0.036560714 242.82265 -0.011916937 0.022733653 0.08515688
264.70767 265.69128 266.43146 265.6765 -0.03022044 264.42865 -0.012807644 0.012827254
-0.10010185 -0.025664225 265.02438 264.64523 265.42993 -0.018633354 -0.3580684 265.94775
264.55652 266.437 264.9176 264.13208 265.50067 264.58575 265.02386 0.07050747
265.84244 -0.024852268 -0.076027825 265.09064 265.34827 264.44403 0.06905203 0.053261153
-0.019127823 264.7622 265.3571 0.009814548 -0.06784702 264.47202 -0.055539273 265.51346
0.060165726 0.052075356 264.48132 0.03460395 264.54657 264.742 0.0657476 265.25125
-0.09943556 0.03463619 -0.015109641 265.82895 266.70425 265.82663 265.06528 264.00858
265.1742 264.78644 265.33542 0.087948926 265.6871 0.008114861 265.8624 264.5971
265.84137 266.2052 -0.08324545 264.6217 -0.042143665 0.0057576923 264.50586 265.38806
0.040141106 264.22385 266.2437 0.06623604 0.041313037 -0.5619356 265.2508 0.024886414
0.066690385 264.50275 0.057322912 -0.058808424 264.6209 265.64664 -0.0108183045 264.79297
-0.018557496 0.07160796 -0.0019325502 0.062290777 -0.019854821 0.0056814793 264.56848 265.49008
265.0235 -0.7222086 -0.010194682 0.02902987 264.28735 -0.00033757358 267.038 264.83942
-0.005701333 0.021318266 -0.002047041 0.000425778 265.15546 266.88 266.22983 265.4199
-0.048256204 266.09592 264.8461 0.0006749568 0.003686244 -0.072110966 0.07381391 265.84473
-0.068303995 265.25797 0.04215466 -0.06797402 264.7796 0.026763795 -0.0013523349 -0.042628556

fc3.bias f4 [4]
00000000: 1f1c 2d44 2dad 4144 4dbf 4b44 4d22 7044
692.4394 774.7059 814.9891 960.53595
