model_w/Noisy_DQN/NoisyNetDQN_9999k.pth (torch, 77572 bytes, 10 tensors)

Q.0.weight f4 [128, 2]
0	0x3f26ca86	0.65152776
1	0xbc3b66a0	-0.011438042
2	0xbed27946	-0.4110815
3	0x3e762cba	0.240405
4	0x3edff6e2	0.43743044
5	0x3ee50caf	0.4473624
6	0x3f08c680	0.53427887
7	0x3ccdecb3	0.025137281
8	0x3e65a8b4	0.22427636
9	0x3f0018ca	0.50037825
10	0x3f0bd67a	0.5462414
11	0xbf4b7ad3	-0.7948429
12	0x3f32bebd	0.69822294
13	0x3e8c1315	0.27358308
14	0x3f181509	0.594071
15	0xbee8df87	-0.45483038
16	0x3ea6f441	0.32608226
17	0x3f3a8e51	0.7287341
18	0xbed4e43b	-0.41580376
19	0xbecc91f6	-0.3995511
20	0xbeb35e7b	-0.3503302
21	0x3e4b5a63	0.19858699
22	0x3f0ba194	0.54543424
23	0xbf2b6f74	-0.6696694
24	0xbd0fdace	-0.035120778
25	0x3f21bf43	0.6318247
26	0x3ee1add7	0.44077942
27	0xbe952870	-0.29132414
28	0xbf3875bb	-0.7205464
29	0xbc3f4362	-0.01167378
30	0xbf17ea8a	-0.59342253
31	0xbd972ff2	-0.07382192
32	0x3c38f76e	0.011289461
33	0x3ee5e780	0.44903183
34	0x3f045d53	0.517049
35	0xbf28f7f7	-0.66003364
36	0x3eda401d	0.4262704
37	0xbf09cf49	-0.5383192
38	0x3f01b1e3	0.5066206
39	0xbed49fac	-0.4152807
40	0x3effc0f8	0.4995191
41	0xbe93e910	-0.2888875
42	0x3f10b680	0.5652847
43	0xbee077ea	-0.43841487
44	0x3eba4de0	0.3638754
45	0x3e5ff345	0.21870144
46	0x3ee4d048	0.44690156
47	0x3e96af35	0.29430547
48	0x3e9e916a	0.30970317
49	0xbf990910	-1.1955891
50	0xbec41265	-0.38295284
51	0xbe6b2976	-0.22965035
52	0xbf036aa3	-0.5133459
53	0xbe4f58a0	-0.20248652
54	0xbe11ab68	-0.14225543
55	0x3ebe695e	0.37189764
56	0xbf2e9d82	-0.6820909
57	0x3eeec716	0.46636266
58	0xbf1a6950	-0.60316944
59	0x3ed44b52	0.41463715
60	0x3d953efa	0.072874025
61	0xbdf2e5b3	-0.11860218
62	0x3d0549d8	0.032541126
63	0xbdc8070c	-0.09766969
64	0xbe862ac2	-0.26204497
65	0x3ea3a243	0.31959733
66	0x3f0276df	0.5096263
67	0x3e9c6418	0.30545115
68	0x3e8f9987	0.2804682
69	0x3f27bd12	0.65522873
70	0xbd51d0a0	-0.05122435
71	0xbf187233	-0.59549254
72	0x3d491480	0.049091816
73	0xbecf258f	-0.40458342
74	0x3df0d0ee	0.117586
75	0xbd9d8bd1	-0.076926835
76	0xbf27a20e	-0.6548165
77	0xbf1fe07a	-0.624519
78	0x3ac8e200	0.0015326142
79	0xbf170a02	-0.58999646
80	0x3f2c4643	0.6729471
81	0xbf444fb3	-0.7668411
82	0x3f2ca70c	0.67442393
83	0xbf369cd5	-0.71333057
84	0x3d23695e	0.039895408
85	0xbddb4ac4	-0.1070762
86	0xbeeb0042	-0.45898634
87	0x3e1ba5f8	0.15200031
88	0xbf3cf8b6	-0.73817
89	0x3eadb819	0.33929518
90	0x3f0912d5	0.5354436
91	0xbedefc1a	-0.43551713
92	0xbe859c55	-0.26095834
93	0x3ea084f7	0.31351444
94	0xbed53388	-0.41640878
95	0xbe95ba87	-0.29243872
96	0x3ebf81c5	0.37403694
97	0x3f1801b1	0.5937758
98	0xbf0801c0	-0.5312767
99	0xbeef7adb	-0.4677342
100	0x3d5beced	0.053692747
101	0x3ec7706d	0.38952962
102	0x3f3ec214	0.7451489
103	0xbf103d61	-0.56343657
104	0x3e3c73ec	0.18403596
105	0xbe841bd9	-0.25802496
106	0xbea15763	-0.31511983
107	0xbe9598df	-0.29218194
108	0x3e864222	0.2622233
109	0xbeb170aa	-0.34656268
110	0x3db5331c	0.08847639
111	0xbe07b5d8	-0.13252962
112	0x3f001731	0.5003539
113	0x3e477bff	0.19480895
114	0x3e246726	0.16054973
115	0xbd44cbca	-0.04804591
116	0x3ed1993c	0.4093722
117	0xbeaa31f7	-0.33241245
118	0x3eca059e	0.3945741
119	0xbf627bee	-0.8847035
120	0x3e5b516d	0.2141778
121	0xbddb96db	-0.10722133
122	0xbe41f930	-0.18942714
123	0x3d9438c0	0.07237387
124	0x3e708c1c	0.23490947
125	0xbf21095b	-0.629049
126	0x3f12f482	0.5740434
127	0x3f000a88	0.5001607
128	0xbf097d37	-0.5370669
129	0x3eed438c	0.46340597
130	0x3f005384	0.50127435
131	0xbeba8a0c	-0.36433446
132	0x3e1d1c1e	0.15342757
133	0xbceb6863	-0.028736299
134	0x3dfd2b80	0.123618126
135	0xbe8aae3d	-0.27086058
136	0x3eb29952	0.348826
137	0xbb7330d5	-0.0037107964
138	0xbf00d344	-0.50322366
139	0xbf0272eb	-0.509566
140	0xbf32c366	-0.69829404
141	0xbf10aaed	-0.5651081
142	0x3f17cf21	0.5930043
143	0x3ea1e1f5	0.31617704
144	0xbeb55f5b	-0.35424313
145	0x3f39f692	0.7264186
146	0xbeb63fb9	-0.35595492
147	0x3ee798d7	0.45233795
148	0xbeab714a	-0.3348487
149	0xbeab85c3	-0.3350049
150	0xbe443962	-0.19162515
151	0x3eb2b033	0.34900054
152	0x3f409643	0.7522928
153	0xbf8cb18a	-1.0991681
154	0xbd86e2f0	-0.06586254
155	0xbf1de46d	-0.61676675
156	0x3e31bce6	0.17357215
157	0x3e2a0d54	0.16606647
158	0xbc9dd269	-0.01926537
159	0xbd8612ee	-0.06546579
160	0x3e0a9455	0.13533147
161	0x3e2ba793	0.16763143
162	0xbf589801	-0.8460694
163	0xbd873d31	-0.06603468
164	0x3ef2742d	0.4735426
165	0xbeba5859	-0.3639553
166	0x3e1fdbe2	0.15611222
167	0x3dd17f69	0.1022938
168	0xbea14f5b	-0.31505856
169	0x3f1efd88	0.6210561
170	0x3ef63d4e	0.48093647
171	0xbebfed46	-0.37485713
172	0xbdcdf2ca	-0.10056074
173	0x3edfd3bb	0.43716225
174	0x3f18634a	0.59526503
175	0x3eb59cd3	0.3547121
176	0xbe967e78	-0.29393363
177	0xbf0ead60	-0.557333
178	0x3ef033fc	0.4691466
179	0xbe94eba3	-0.29086027
180	0x3f0dcb7f	0.55388635
181	0xbee6530c	-0.44985235
182	0x3f02d2b4	0.5110276
183	0xbece20a7	-0.40259287
184	0x3ee4a87b	0.4465979
185	0xbec140cb	-0.37744746
186	0xbf37a53a	-0.7173649
187	0xbd8ee433	-0.06977119
188	0xbee398c5	-0.4445249
189	0xbe9219d7	-0.2853534
190	0x3eb6e3bd	0.35720626
191	0xbda603a5	-0.08106164
192	0x3e2a1e3f	0.166131
193	0xbe380c43	-0.17973427
194	0x3f3820b4	0.719249
195	0xbf95fb5c	-1.1717334
196	0xbf467dda	-0.77535784
197	0xbd88b603	-0.06675341
198	0x3d3c1687	0.04591992
199	0xbe02ba5f	-0.12766407
200	0x3e5aecb5	0.21379359
201	0xbd0b3f6a	-0.033996023
202	0xbee546a4	-0.44780457
203	0xbef997ec	-0.4874872
204	0x3baf2057	0.0053444314
205	0x3ef44d24	0.47715104
206	0x3efe6180	0.49683762
207	0xbe836077	-0.25659534
208	0xbd8eb96d	-0.06968961
209	0x3bbcdc2c	0.005763551
210	0xbe72049e	-0.23634574
211	0x3f1be16f	0.6089086
212	0xbf10b033	-0.5651886
213	0x3f1bb952	0.6082965
214	0xbf204ca2	-0.6261693
215	0xbef95c58	-0.48703265
216	0xbd912df8	-0.07088846
217	0xbf0bc45f	-0.54596514
218	0x3edf9ddc	0.43675125
219	0xbe631891	-0.2217734
220	0xbedc57c5	-0.43035713
221	0x3f112b4e	0.567067
222	0xbf13081b	-0.5743424
223	0xbdd408cd	-0.10353241
224	0x3f262cfd	0.64912397
225	0xbeba7236	-0.3641526
226	0xbf2afa2d	-0.6678799
227	0xbf0aa38a	-0.5415579
228	0x3eaf990d	0.34296456
229	0xbddb791e	-0.10716461
230	0x3e91f8d0	0.2851014
231	0xbf2da0d9	-0.6782356
232	0xbd6c3d52	-0.057675667
233	0xbc2204dd	-0.009888855
234	0x3e5706cf	0.20998691
235	0xbdfe938a	-0.124304846
236	0xbeb885c8	-0.36039567
237	0xbd45bb50	-0.04827434
238	0x3f056e7d	0.52121717
239	0x3e126ef0	0.14300132
240	0xbdc0f8c4	-0.09422448
241	0x3def6c7f	0.11690616
242	0x3e81a5e2	0.2532187
243	0xbf979576	-1.1842487
244	0xbdc20137	-0.09472888
245	0x3c2e6608	0.010644443
246	0x3e1d6fc2	0.15374663
247	0xbd9e9c0f	-0.077446096
248	0x3ed242b2	0.4106651
249	0x3ef9f362	0.488185
250	0xbf294e1c	-0.6613481
251	0xbf179098	-0.5920501
252	0xbee01999	-0.4376953
253	0x3f2ab10f	0.6667642
254	0x3eb0fa2d	0.3456587
255	0xbc81ed2a	-0.015860159

Q.0.bias f4 [128]
0	0xbf806514	-1.0030847
1	0x3f3cdfb1	0.73778826
2	0xbd914b77	-0.07094472
3	0xbfb13fe2	-1.384762
4	0xbf3804b3	-0.7188217
5	0x3f403e91	0.7509547
6	0xbf96e19f	-1.1787604
7	0x3dcbd945	0.0995355
8	0xbf36bcd5	-0.71381885
9	0xbe8f7f50	-0.2802682
10	0x3efdf014	0.49597228
11	0xbe9bf784	-0.30462277
12	0x3ebf3d8a	0.37351638
13	0x3f567653	0.837743
14	0x3ee7eafe	0.45296472
15	0x3f0629be	0.52407444
16	0xbf23d995	-0.6400388
17	0xbe3abfb3	-0.1823719
18	0x3f5cc9ec	0.8624561
19	0xbf00b9aa	-0.502833
20	0x3f4a1e41	0.78952414
21	0x3f830448	1.0235682
22	0xbe6663aa	-0.22498956
23	0xbf18841b	-0.59576577
24	0x3f5a96e3	0.85386485
25	0xbe76d654	-0.24105197
26	0xbe561c82	-0.20909312
27	0x3f10c2b7	0.5654711
28	0x3db3e0fe	0.08783148
29	0x3f95abb7	1.1693028
30	0x3f8e6ac7	1.1126336
31	0x3fbc1844	1.4694905
32	0x3f8344bb	1.025535
33	0xbb3c653f	-0.002874687
34	0xbf842cd0	-1.0326176
35	0xbecdf0eb	-0.40222868
36	0xbf051451	-0.51984125
37	0x3f07a553	0.5298664
38	0x3f16f322	0.5896474
39	0xbe4cc038	-0.199952
40	0xbed03ce6	-0.40671462
41	0xbf3b5df5	-0.7319024
42	0x3e9c3ae4	0.3051368
43	0xbf20c484	-0.6279986
44	0xbf234b2b	-0.6378657
45	0x3fd2fd8b	1.6483625
46	0x3f8bed4d	1.0931793
47	0x3eb8e16c	0.36109483
48	0xbe937531	-0.28800347
49	0x3edf5218	0.4361732
50	0xbed8a1ab	-0.42310843
51	0xbf6e6c03	-0.9313356
52	0x3ec3f894	0.38275588
53	0xbd58c670	-0.05292362
54	0x3f238c21	0.63885695
55	0x3fb35841	1.4011308
56	0xbe631d5f	-0.22179173
57	0xbe2945af	-0.16530488
58	0x3f0adb31	0.5424071
59	0x3f3afe60	0.73044395
60	0x3fa39575	1.2779986
61	0xbf20efad	-0.62865716
62	0x3f827055	1.0190531
63	0xbf60dbd7	-0.8783545
64	0xbf10398f	-0.5633783
65	0x3f0e6675	0.5562509
66	0xbf27b307	-0.6550755
67	0xbe40820c	-0.18799609
68	0x3fa4d2fa	1.2876885
69	0xbe83f8e3	-0.25775823
70	0x3f04b272	0.51834786
71	0xbf608e26	-0.877169
72	0xbfaf9c4c	-1.3719573
73	0x3f9ae14a	1.2100003
74	0xbf295f2b	-0.6616084
75	0x3f0cce9b	0.55002755
76	0x3ebc265e	0.36748022
77	0xbd8fdd20	-0.07024598
78	0x3f7e1e9a	0.99265444
79	0x3fecfa72	1.851393
80	0x3d4bc335	0.04974671
81	0x3f436dd5	0.76339465
82	0xbf239273	-0.6389534
83	0x3eb6b713	0.3568655
84	0xbfd4783b	-1.6599191
85	0x3f01d28b	0.5071189
86	0xbcd6a71e	-0.026202735
87	0xbf307e28	-0.689425
88	0xbf0fa7e8	-0.5611558
89	0x3fbecd9a	1.4906495
90	0x3fc3859e	1.5275152
91	0x3dc1bcc2	0.09459831
92	0x3f36fe00	0.71481323
93	0x3f1f3127	0.62184376
94	0xbe3a40b4	-0.18188745
95	0x3e38f561	0.18062355
96	0x3ddb9def	0.10723483
97	0x3f5169d1	0.8180209
98	0x3f33b069	0.70191056
99	0x3fb13c1d	1.384647
100	0xbf1c4352	-0.6104022
101	0x3ecdd9f3	0.40205345
102	0xbc8b5b56	-0.017011326
103	0xbf4f48f6	-0.80970705
104	0x3fc2a62c	1.5206962
105	0xbea68195	-0.32520738
106	0x3f960f0b	1.1723341
107	0x3ed736b6	0.4203393
108	0xbf062e41	-0.5241433
109	0x3ef3e2d2	0.47633988
110	0x3f8cc3b5	1.0997225
111	0x3f01e47c	0.50739264
112	0xbf6ed86e	-0.93298995
113	0x3f045670	0.51694393
114	0x3f9872ce	1.1910036
115	0x3f7a26c4	0.977154
116	0x3fcb216a	1.5869572
117	0x3f86477c	1.0490565
118	0xbf28b08d	-0.65894395
119	0x3d04d5ce	0.032430463
120	0x3ea02e04	0.31285107
121	0x3f668054	0.90039563
122	0x40012a55	2.0182087
123	0x3f4b9d23	0.79536647
124	0xbfa020b4	-1.250998
125	0x3ee1518c	0.44007528
126	0xbf881a28	-1.0632982
127	0xbf15ac48	-0.58466005

Q.2.weight f4 [128, 128]
0	0xbd6cfc48	-0.05785778
1	0x3d09be04	0.03362848
2	0xbddc48fd	-0.10756109
3	0xba15ad02	-0.0005709679
4	0xbc51779d	-0.012784866
5	0xbb9384db	-0.0045019216
6	0xbd513530	-0.051076114
7	0xbd98855b	-0.074473105
8	0xbcf5c499	-0.030000972
9	0xbd47c3f6	-0.048770867
10	0xbd2ae666	-0.04172363
11	0xbc659f41	-0.01401502
12	0x3d262176	0.040559255
13	0xbddd6627	-0.108105
14	0xbc50cf67	-0.012744761
15	0x3d8729fe	0.06599806
16	0x3cc78949	0.024357455
17	0xbc8add4e	-0.01695123
18	0x3d6e2b91	0.058147017
19	0xbda1df13	-0.07903876
20	0xbdb0da88	-0.086354315
21	0xbb80288c	-0.0039110836
22	0xbde1b095	-0.110200085
23	0x3c42d1f2	0.011890875
24	0x3daa3d7c	0.083125085
25	0x3d9dfad3	0.077138565
26	0xbb8519b0	-0.0040619
27	0x3cb268a8	0.02177842
28	0xbcfbe2da	-0.03074782
29	0x3dc16c15	0.09444443
30	0xbdca9f6d	-0.09893689
31	0xbd08235e	-0.033236854
32	0xbd288c06	-0.04114916
33	0x3c12b2d5	0.00895377
34	0x3d43207c	0.0476384
35	0xbc898abc	-0.016789787
36	0x3d74e2de	0.05978667
37	0x3b34e340	0.0027601272
38	0x3dc511be	0.09622525
39	0x3cec093c	0.028812997
40	0xbd2e8513	-0.04260738
41	0xbc4de804	-0.012567524
42	0xbdcca05b	-0.09991523
43	0xbac27380	-0.0014835447
44	0xbc18a843	-0.0093174605
45	0x3d9387f4	0.072036654
46	0xbba4efe8	-0.005033482
47	0x3de7d72a	0.11320336
48	0x3c4cb7c2	0.012494983
49	0x3d6ed376	0.058307134
50	0xbcf41275	-0.029793957
51	0x3c9f1484	0.019418962
52	0xbdd9e60c	-0.10639581
53	0x3c8778b0	0.01653704
54	0x3c34a517	0.011025689
55	0xbc9c2292	-0.019059453
56	0xbd8ad1ad	-0.06778274
57	0xbcd3df2c	-0.025863253
58	0x3cd9bc25	0.026578972
59	0x3c2c07b8	0.010499887
60	0xbd07d891	-0.03316552
61	0xbbf2f180	-0.007414043
62	0xbd2b2688	-0.041784793
63	0x3d5beb23	0.05369104
64	0x3d4a6b6a	0.049418844
65	0x3d16be53	0.0368026
66	0xbd4af37a	-0.049548604
67	0xbd76f5c4	-0.060292974
68	0xbdacf7e7	-0.08445721
69	0x3cd23e44	0.025664456
70	0x3df3b1c1	0.11899138
71	0xbd0a828c	-0.033815905
72	0xbc321c60	-0.010871023
73	0x3c349589	0.01102198
74	0x3c4e0fe0	0.012577027
75	0x3d612a03	0.054971706
76	0xbd1c25a5	-0.038121838
77	0xbd053c5e	-0.032528274
78	0x3b2b18ce	0.0026107314
79	0x3c53d9e8	0.012930371
80	0xbda203e4	-0.07910898
81	0x3cbe3692	0.02321938
82	0x3d3f9519	0.04677305
83	0xbdcd1446	-0.100136325
84	0x3a85d4f6	0.0010210562
85	0x3c81b87f	0.015835045
86	0xbd014822	-0.03156293
87	0xbdac9f6a	-0.08428843
88	0x3d16e3fe	0.036838524
89	0xbd5e3361	-0.054248217
90	0x3c2d8dc1	0.010592879
91	0x3d5a18df	0.053246375
92	0xbc9dcd13	-0.019262826
93	0x3dcab3bf	0.09897565
94	0xbb695780	-0.0035605133
95	0xbd872a35	-0.06599847
96	0x3d1ac098	0.037781328
97	0x3d5e4c71	0.05427212
98	0x3c8fd47e	0.017557379
99	0xbd2db0d4	-0.042404965
100	0x3b69884a	0.0035634213
101	0x3d00f4ae	0.031483345
102	0xbcf34e93	-0.029700553
103	0x3d44c219	0.04803667
104	0x3d0af2c0	0.03392291
105	0x3d85036a	0.06494792
106	0xbcebd2a9	-0.028786974
107	0xbca7c244	-0.020478375
108	0x3d94cc8d	0.072655775
109	0x3d5c9a56	0.053858124
110	0xbdab27e7	-0.0835722
111	0x3df8728e	0.121312246
112	0xbdec0424	-0.11524227
113	0x3cb9eb36	0.022695165
114	0x3cb5df7c	0.022201292
115	0xbd720cb0	-0.05909413
116	0x3d25bc8f	0.040463027
117	0xbde3ec61	-0.1112907
118	0x3aca3dc0	0.001542978
119	0xbdcfde28	-0.10149795
120	0xbc857ec3	-0.016295796
121	0x3d672fd1	0.056442086
122	0xbd9b8ff2	-0.07595815
123	0xbd10d20d	-0.03535657
124	0xbca7e34e	-0.02049413
125	0xbca770d1	-0.020439537
126	0xbd848760	-0.06471133
127	0xbdcb24f2	-0.09919156
128	0xbd298850	-0.041389763
129	0x3d562f40	0.052291155
130	0x3ce5651a	0.02800231
131	0xbcfa7fb0	-0.030578464
132	0xbbd27370	-0.0064224526
133	0xbd60a8e5	-0.05484857
134	0xbdd8edd5	-0.10592238
135	0xbd26bb8d	-0.040706206
136	0xbd3beba2	-0.045879014
137	0x3d3ed6d6	0.046591602
138	0xbc2f6bd8	-0.010706864
139	0xbb7f3110	-0.0038939156
140	0xbd7e7803	-0.06212617
141	0xbda1e8eb	-0.07905754
142	0xbd971ce2	-0.07378556
143	0x3db7dc7b	0.089776
144	0x3d143f8e	0.036193423
145	0xbcad3eff	-0.021148203
146	0x3d053150	0.03251773
147	0xbbedc85e	-0.0072565516
148	0x3c9c57f0	0.0190849
149	0xbc2ed5bd	-0.010671076
150	0x3d3275ad	0.043569256
151	0x3d142c08	0.036174804
152	0xbd6d1d48	-0.057889253
153	0x3c277700	0.010221243
154	0xbd3a2387	-0.045444038
155	0xbc14a840	-0.009073317
156	0xbccc5fe9	-0.024948077
157	0x3d266a54	0.040628746
158	0xbcc08a03	-0.02350331
159	0x3cda4629	0.026644783
160	0x3d1e9045	0.038711805
161	0xbcd88b67	-0.02643366
162	0xbd7fa867	-0.06241646
163	0xbd9fa09d	-0.077943064
164	0xbd4eebfd	-0.050518025
165	0x3d123682	0.035696514
166	0xbc89ba85	-0.016812572
167	0xbd36beb4	-0.044615462
168	0x3d5603e6	0.05224981
169	0xbdd15cc0	-0.10222769
170	0xbda51466	-0.08060531
171	0xbc2e6128	-0.010643281
172	0xbc572fb0	-0.013133928
173	0x3d23e34c	0.04001169
174	0xbc9d86ca	-0.019229311
175	0x3d8e0bee	0.06935869
176	0xbd8e8953	-0.06959786
177	0x3d8ca691	0.068677075
178	0xbd8155e2	-0.06315209
179	0x3d5f4556	0.054509483
180	0xbc119762	-0.00888619
181	0xbba38840	-0.0049906075
182	0xbd7c973b	-0.061667662
183	0xbd55cd7d	-0.052197922
184	0xbcc0a083	-0.023514038
185	0x3ce4774c	0.027888916
186	0x3d4fa092	0.05069024
187	0xbd8cffce	-0.06884728
188	0x3c2ec875	0.01066791
189	0x3da83a4d	0.08214245
190	0xbd4a4dcb	-0.049390595
191	0xbd8cf754	-0.068831116
192	0xbda4c7a0	-0.08045888
193	0x3ca60dc8	0.020270243
194	0xbd8e6425	-0.06952695
195	0xba1c5600	-0.0005963743
196	0x3d176bdc	0.036968097
197	0xbd77d69d	-0.060507406
198	0xbd7874c3	-0.060658228
199	0xbcafd3cf	-0.021463303
200	0xbd34564a	-0.044027604
201	0x3dc1d2db	0.094640456
202	0xbcf5c5fc	-0.030001633
203	0xbd9048b8	-0.0704512
204	0xbd63cf7d	-0.055617798
205	0x3d08c8a6	0.03339448
206	0x3b542935	0.0032373194
207	0x3d6274cd	0.05528717
208	0xbda84e07	-0.082180075
209	0xbd2525eb	-0.040319365
210	0x3d6e3e9d	0.05816518
211	0x3c4e7c00	0.012602806
212	0x3c3857b0	0.011251375
213	0xbcb05a4e	-0.021527436
214	0xbda7284b	-0.08161982
215	0x3d4f596e	0.050622396
216	0xbd239274	-0.03993459
217	0x3a09fa24	0.0005263409
218	0x3ceaf0a4	0.0286792
219	0xbd9230f4	-0.07138243
220	0xbd161c1f	-0.036647912
221	0xbd37217c	-0.044709668
222	0xbd3fc8b3	-0.04682226
223	0xbdab63da	-0.083686545
224	0xbdb9275a	-0.09040709
225	0x3d5d8f82	0.054091938
226	0xbd91d3ad	-0.07120452
227	0x3d79cd00	0.06098652
228	0xbdc98c6b	-0.09841236
229	0xbd42ee5b	-0.047590595
230	0xbdca11a4	-0.09866646
231	0xbb846b0d	-0.0040410818
232	0x3d2c827a	0.04211662
233	0xbd2f5294	-0.042803362
234	0xbd99c2cd	-0.075078584
235	0xbda384a7	-0.07984286
236	0x3d1fab92	0.03898198
237	0x39563cb2	0.00020431241
238	0xbd402bec	-0.046916887
239	0xbc273864	-0.010206316
240	0xbd97f0a3	-0.07418945
241	0xbd967157	-0.073458366
242	0x3b4f2517	0.00316078
243	0xbda38c36	-0.079857275
244	0x3d52e9b4	0.051492408
245	0xbd48e621	-0.049047593
246	0xbd4c1d28	-0.049832493
247	0xbcca6a33	-0.024708843
248	0xbdace076	-0.0844125
249	0xbb3e7a90	-0.0029064752
250	0x3cf75d97	0.030195994
251	0xbd0b6553	-0.034032177
252	0xbbeff42d	-0.007322809
253	0xba0a1f6d	-0.0005268965
254	0x3c0cb1e7	0.008587337
255	0x3d0d1b66	0.034449957

Q.2.bias f4 [128]
0	0xbc458dfc	-0.0120577775
1	0x3aadd2bc	0.0013261656
2	0x3f512c93	0.8170864
3	0xbc908a4f	-0.017644076
4	0x3d8b93fb	0.068153344
5	0xbd057e62	-0.03259123
6	0xbf1dbbdb	-0.6161477
7	0x3f6d7f1d	0.92772084
8	0x3d073e7b	0.03301857
9	0x3f4eeebd	0.80833036
10	0xbd4754cd	-0.048664857
11	0x3f5c1799	0.8597351
12	0xbf190631	-0.5977507
13	0xbe8df0cb	-0.27722773
14	0x3ced93d0	0.029001147
15	0xbf035b16	-0.5131086
16	0xbf0cd131	-0.550067
17	0x3f53686e	0.8258122
18	0xbdc9ab36	-0.09847109
19	0x3d3cb24d	0.04606848
20	0xbef47295	-0.4774367
21	0x3d504c6d	0.050854135
22	0x3f70986b	0.9398257
23	0x3ba32328	0.004978556
24	0xbd913041	-0.07089282
25	0xbd02233d	-0.031771887
26	0x3e4357b7	0.1907643
27	0xbd8b9d06	-0.06817059
28	0xbf17ffe5	-0.5937484
29	0x3f6abf11	0.91697794
30	0x3f813108	1.0093088
31	0x3f6c2aed	0.92253
32	0x3c60683a	0.013696725
33	0x3f5c2b30	0.860034
34	0x3f52fe63	0.82419413
35	0x3c910ed8	0.017707273
36	0x3d393786	0.045218967
37	0x3e82fdd9	0.25584295
38	0x3da38c7f	0.07985782
39	0x3f3d1658	0.7386222
40	0x3f3531de	0.70779216
41	0xbd18acbf	-0.03727412
42	0xbf1e2a51	-0.6178332
43	0xbf0db3d2	-0.5535251
44	0xbc4a08b2	-0.012331175
45	0x3d5d0cf5	0.053967435
46	0xbe05c965	-0.13065107
47	0xbf234d65	-0.6378997
48	0xbf26d06b	-0.6516177
49	0xbafa9229	-0.0019117045
50	0xbd6e555a	-0.058186866
51	0x3e890d39	0.267679
52	0x3f2e965d	0.68198186
53	0xbf01d09e	-0.5070895
54	0x3dae8aea	0.085225895
55	0x3d19ef5d	0.03758179
56	0x3eab74b8	0.33487487
57	0xbf2a4216	-0.6650709
58	0xbbb6aa53	-0.0055745034
59	0x3e62b4c9	0.22139277
60	0xbdc46ba2	-0.09590842
61	0xbe61e0cc	-0.2205841
62	0x3cacd950	0.021099716
63	0x3edcae72	0.4310184
64	0x3ee89c57	0.45431778
65	0x3f4ff01a	0.8122574
66	0x3ef1f4e7	0.47257158
67	0xbf1cd94c	-0.6126907
68	0xbd481993	-0.048852514
69	0x3f6b60fa	0.9194485
70	0x3ed80c01	0.42196658
71	0xbdaa9d63	-0.083308004
72	0x3d71705e	0.058945052
73	0x3cc4a4b3	0.024004316
74	0x3f4407bb	0.76574296
75	0x3f5c7e3b	0.8613011
76	0x3cc7dac0	0.0243963
77	0xbf06aaee	-0.5260457
78	0x3f305e5b	0.68893975
79	0xbf451a71	-0.7699347
80	0x3f51bd5f	0.8192958
81	0xbc91840f	-0.017763166
82	0x3f5fbfbd	0.87401944
83	0xbf0719dd	-0.5277384
84	0x3d5485d9	0.05188546
85	0xbd17805d	-0.03698765
86	0x3e383b2d	0.17991324
87	0x3d48e8b9	0.049050067
88	0xbb0faec5	-0.002192424
89	0x3f75ad7f	0.9596786
90	0x3f6337ff	0.8875732
91	0xbce49f91	-0.027908118
92	0xbcd62878	-0.026142344
93	0x3d67df0c	0.0566092
94	0x3f86debe	1.0536726
95	0x3f4a26cd	0.78965455
96	0xbf2718f9	-0.6527248
97	0xbeccfc54	-0.4003626
98	0x3e98ee0b	0.29869112
99	0xbd807125	-0.062715806
100	0xbf0c68b6	-0.54847276
101	0xbf3db831	-0.7410918
102	0xbf814eb4	-1.0102143
103	0xbcab718a	-0.020928163
104	0x3f45668d	0.77109605
105	0x3d0a76d8	0.033804744
106	0x3f68afae	0.90893066
107	0xbf2b0c41	-0.6681557
108	0xbf1226a4	-0.5709021
109	0xbd02d8c0	-0.03194499
110	0x3cf17ed0	0.029479414
111	0x3f6ab64c	0.9168441
112	0xbf1725db	-0.5904214
113	0xbcdc52f2	-0.02689502
114	0x3f252428	0.64508295
115	0x3d228d82	0.039685734
116	0x3d09a370	0.03360313
117	0xbec1aac8	-0.37825608
118	0xbf395420	-0.7239399
119	0xbf0aeb46	-0.5426525
120	0xbf206c6d	-0.62665445
121	0x3f92e0a9	1.1474811
122	0x3ca69467	0.020334436
123	0xbf26e937	-0.6519961
124	0xbd63bf1c	-0.055602178
125	0xbf313c6b	-0.69232816
126	0xbf0b2dbd	-0.54366666
127	0x3f7ce723	0.98790187

Q.4.weight_mu f4 [4, 128]
0	0x3cf291e5	0.029610584
1	0xbdb43514	-0.08799186
2	0xbe195f70	-0.14977813
3	0x3b3708e5	0.0027928886
4	0x3d07be84	0.033140674
5	0x3d2ec502	0.04266835
6	0xbd6e3cfd	-0.05816363
7	0x3c5c1bae	0.013434334
8	0xbd8a83e3	-0.06763437
9	0xbdd0dba9	-0.10198147
10	0xbd93f72e	-0.0722488
11	0xbdd3c8b2	-0.10341014
12	0xbe4ac6cb	-0.19802396
13	0x3d8dd2b6	0.069249555
14	0x39c64d00	0.00037822872
15	0xbe0fd25a	-0.14045087
16	0xbe560478	-0.20900142
17	0xbc087636	-0.008328965
18	0x3ce1bfb6	0.027557235
19	0x3d8cbd49	0.06872041
20	0xbd3493fc	-0.04408644
21	0x3da12e13	0.07870116
22	0x3e37afdb	0.17938177
23	0x3d1a4b91	0.037669722
24	0x3d53a352	0.051669426
25	0xbddbbd84	-0.107295066
26	0xbd0ec1be	-0.034852736
27	0xbd1d5295	-0.038408834
28	0xbe628bb3	-0.22123604
29	0xbd80ddc0	-0.062922955
30	0x3d664457	0.056217518
31	0x3d009ee6	0.031401537
32	0x3c9724bb	0.018450132
33	0xbdf8df41	-0.12151957
34	0xbe6bedca	-0.23039928
35	0xbda33174	-0.07968417
36	0xbc9b8b74	-0.018987395
37	0xbdbdce2a	-0.09267838
38	0xbc99260c	-0.0186949
39	0xbe05031a	-0.12989464
40	0xbe107c5a	-0.14109936
41	0xbda08e69	-0.078396626
42	0xbe46a70f	-0.19399665
43	0xbe76af0c	-0.24090213
44	0x3d57187b	0.05251358
45	0x3c0e977a	0.008703107
46	0xbe7e5ce8	-0.24840128
47	0xbe4dd532	-0.20100859
48	0xbe6b0575	-0.229513
49	0x3da18ff4	0.07888785
50	0xbda0ff13	-0.078611515
51	0xbd050209	-0.032472644
52	0x3d4aeac4	0.049540296
53	0xbe1daa4c	-0.15396994
54	0x3cbd1b72	0.023084376
55	0xbbfd7c10	-0.0077357367
56	0xbd323c4e	-0.043514542
57	0xbe09e9d8	-0.1346811
58	0x3d27176e	0.04079383
59	0xbcf5c73a	-0.030002225
60	0xbd8e5e6c	-0.06951603
61	0xbe65fc53	-0.22459535
62	0xbd1129a5	-0.035440106
63	0x3c8bdecb	0.01707401
64	0x3ca5801e	0.020202693
65	0x3d74fb30	0.059809864
66	0xbd2b9506	-0.041890167
67	0xbe2ee960	-0.17081213
68	0xbc37fc60	-0.0112296045
69	0xbde2864d	-0.11060772
70	0xbb75bb81	-0.0037495794
71	0x3d9bf05b	0.076142035
72	0xbcc297f4	-0.023754098
73	0x3cda4da0	0.026648343
74	0xbe0cb4f6	-0.13740906
75	0xbd232808	-0.0398331
76	0xbc7b7f70	-0.015350208
77	0xbe47d92e	-0.19516441
78	0xbe1cee74	-0.15325338
79	0xbe62a3c5	-0.22132786
80	0xbe06fd8d	-0.1318266
81	0xbc3b6890	-0.011438504
82	0xbdb7a6d5	-0.089673676
83	0x3dc1434d	0.09436665
84	0x3d79176a	0.060813345
85	0x3b84e290	0.0040553287
86	0xbd12a213	-0.035799097
87	0xbd9592a2	-0.073033586
88	0x3c15ac38	0.009135298
89	0x3c609dbc	0.013709482
90	0xbe0613ce	-0.13093492
91	0xbd0c1a42	-0.03420473
92	0xbc08e62e	-0.00835566
93	0xbd130e4a	-0.0359023
94	0xbda906de	-0.08253263
95	0xbce317d2	-0.02772132
96	0xbe13d535	-0.14436801
97	0xbd0a84ab	-0.03381793
98	0xbd0b40d2	-0.033997364
99	0x3beabe30	0.0071637854
100	0xbdb9acfb	-0.090661965
101	0xbdd66611	-0.10468686
102	0xbe3e502a	-0.18585268
103	0x3d6cde86	0.057829402
104	0xbe112b0a	-0.14176574
105	0xbcb4ada0	-0.022055447
106	0xbe09f436	-0.13472065
107	0xbe4ecfaa	-0.20196405
108	0xbe1e88d8	-0.15481889
109	0x3b4f0200	0.0031586885
110	0x3d94ded8	0.072690666
111	0xbdaf1860	-0.08549571
112	0xbe06ba70	-0.13157058
113	0xbd06f87a	-0.03295181
114	0xbe4f8500	-0.20265579
115	0x3cd9bdc4	0.026579745
116	0x3d07ce08	0.03315547
117	0xbd01991a	-0.03164015
118	0xbdad0573	-0.08448305
119	0xbe45151d	-0.19246335
120	0xbdbd579a	-0.09245224
121	0x3dfd5fe8	0.12371808
122	0xbdc23717	-0.09483164
123	0xbe30c1c3	-0.17261414
124	0x3cb6ab10	0.022298366
125	0xbd841efe	-0.06451224
126	0xbdee602a	-0.116394356
127	0x3c7c5684	0.015401486
128	0x3d23dc54	0.040005043
129	0x3b9f17f2	0.0048551494
130	0x3e97f83a	0.2968157
131	0xbcac743e	-0.021051522
132	0x3da6c943	0.081438564
133	0x3ea8d2da	0.32973367
134	0xbe93d933	-0.28876647
135	0x3ec5ed2e	0.38657516
136	0x3cf35d9c	0.029707722
137	0x3e923f2d	0.28563824
138	0x3cf53fe0	0.029937685
139	0x3e89dc16	0.26925725
140	0xbe4e0631	-0.2011955
141	0xbd382763	-0.044959437
142	0xbbe3a670	-0.006947331
143	0xbe12dfd6	-0.14343199
144	0xbe595d81	-0.21227075
145	0x3ec85510	0.39127398
146	0x3c2bfc86	0.010497218
147	0xbd490b03	-0.049082767
148	0xbea0c552	-0.31400543
149	0x3eafdd04	0.3434831
150	0x3f8fd051	1.1235448
151	0x3e816b1b	0.25277027
152	0xbd3c82a8	-0.04602304
153	0xbc8fafe3	-0.017539924
154	0xbf620754	-0.8829243
155	0xbd033c93	-0.03204019
156	0xbe3ba12d	-0.18323202
157	0x3ebbddbb	0.36692604
158	0x3edf9d2b	0.43674597
159	0x3ee06c13	0.43832454
160	0x3c917ef9	0.01776074
161	0x3eff50e0	0.4986639
162	0x3eb1b53e	0.3470859
163	0xbd3cbf91	-0.04608113
164	0xbd6594d3	-0.056050133
165	0xbeaccde5	-0.33750835
166	0xbd8e1dea	-0.069392994
167	0x3e8668fc	0.26251972
168	0x3ea42a46	0.32063502
169	0xbcb5b05e	-0.022178825
170	0xbe80244b	-0.2502769
171	0xbe2d1e7d	-0.16906162
172	0xbd82c2cd	-0.063848116
173	0x3db458fe	0.088060364
174	0xbd322bac	-0.04349868
175	0xbe3e1a92	-0.18564823
176	0xbe1bd02a	-0.15216127
177	0xbbe98853	-0.007126847
178	0x3e6ac659	0.22927226
179	0xbec0b74e	-0.3763985
180	0x3e81fad4	0.2538668
181	0xbe20e8ca	-0.15713802
182	0x3e99b4e4	0.3002082
183	0x3c192032	0.009346055
184	0xbed892a1	-0.4229937
185	0xbea022a4	-0.3127643
186	0x3d28f5d1	0.041250054
187	0xbef20dd3	-0.47276172
188	0xbd4de99c	-0.050271615
189	0xbd32d754	-0.043662384
190	0xbcaa7790	-0.020808965
191	0xbefa2708	-0.48857903
192	0xbf150395	-0.5820859
193	0x3efb0117	0.4902427
194	0xbec2cb1e	-0.3804559
195	0xbe933547	-0.28751585
196	0x3cb0070a	0.021487731
197	0x3ec0db1a	0.3766716
198	0xbf0abdf8	-0.5419612
199	0x3c644a1e	0.013933687
200	0x3d688714	0.056769446
201	0xbcc9e0eb	-0.024643382
202	0x3ea6ab8a	0.3255275
203	0x3efa5d37	0.48899242
204	0x3d916403	0.07099154
205	0xbe22bae1	-0.15891601
206	0x3e5b9221	0.21442463
207	0xbee25a7d	-0.44209662
208	0x3ead6f2b	0.33873877
209	0xbca6b002	-0.020347599
210	0x3ec60572	0.3867603
211	0xbf3059cc	-0.6888702
212	0xbd52e9f9	-0.051492665
213	0x3ce1e528	0.02757509
214	0xbebd8130	-0.37012625
215	0xbc968692	-0.018374715
216	0xbcb5c6bc	-0.02218949
217	0x3eff3ea3	0.49852476
218	0x3e9fb649	0.3119376
219	0xbd917a73	-0.071034335
220	0x3c921d76	0.017836314
221	0xbc22aa54	-0.009928305
222	0x3ec8cd63	0.39219198
223	0x3ea99c69	0.33127144
224	0xbe6e5a35	-0.23276599
225	0xbe96e4db	-0.29471478
226	0xbef5df7d	-0.4802207
227	0xbd6a6e46	-0.05723407
228	0xbe345a24	-0.17612511
229	0xbf11ca00	-0.5694885
230	0xbe8e13f3	-0.27749595
231	0xbd5ef3d5	-0.054431755
232	0x3ebe238a	0.3713649
233	0x3d5c8d66	0.053845786
234	0x3ea25d4e	0.3171181
235	0xbea60036	-0.32422036
236	0xbe89ef70	-0.2694049
237	0x3d5d78c9	0.054070268
238	0xbd2e4109	-0.04254249
239	0x3ef99c36	0.48751992
240	0xbe287601	-0.16451265
241	0x3c799003	0.015232089
242	0x3e84365f	0.25822732
243	0xbd583741	-0.05278707
244	0x3b099ae0	0.0020996854
245	0xbec20448	-0.3789389
246	0xbeb4bdd8	-0.3530109
247	0xbe844eac	-0.25841272
248	0xbea11889	-0.3146403
249	0x3f9bfd90	1.2186756
250	0xbc72cac8	-0.014818855
251	0xbecff66d	-0.40617695
252	0x3c4c13b0	0.012455866
253	0xbe85d771	-0.2614093
254	0xbe42aea9	-0.1901194
255	0x3ec4788c	0.3837322

Q.4.weight_sigma f4 [4, 128]
0	0xbb5ce525	-0.0033705917
1	0x3c94d24b	0.018166682
2	0x3cbfe15d	0.023422891
3	0xbb5252a6	-0.003209272
4	0x3cb504f3	0.022097087
5	0x3c8a32bd	0.016869897
6	0x3d48f196	0.04905852
7	0x3d203058	0.039108604
8	0x3cb504f3	0.022097087
9	0xbc8ec2cf	-0.017426876
10	0x3cb504f3	0.022097087
11	0x3d152e61	0.036421183
12	0xbc0928dd	-0.008371559
13	0x3c91208e	0.017715719
14	0x3cb504f3	0.022097087
15	0xbb18341b	-0.0023224417
16	0xbd3df01c	-0.046371564
17	0x3c6728b1	0.014108823
18	0x3ca3b71c	0.019984774
19	0x3cebc69e	0.028781231
20	0x3bf82e4a	0.0075738775
21	0x3c8a6252	0.016892586
22	0x3b9c3abf	0.0047677453
23	0x3c880eea	0.016608674
24	0x3cb504f3	0.022097087
25	0x3cdcdc09	0.02696039
26	0x3cb504f3	0.022097087
27	0x3cb504f3	0.022097087
28	0xbc6687ba	-0.014070446
29	0x3d0f43a8	0.03497663
30	0x3b9682af	0.0045932154
31	0x3c5be238	0.013420634
32	0x3cafed19	0.021475362
33	0x3c2623de	0.010140387
34	0x3d2ea0cd	0.04263382
35	0x3cb504f3	0.022097087
36	0x3cb504f3	0.022097087
37	0xbc70bc54	-0.014693338
38	0x3cb504f3	0.022097087
39	0xbc829fe9	-0.015945392
40	0xbc873a38	-0.016507253
41	0x3c87aead	0.016562784
42	0x3c9d5449	0.01920523
43	0x3c2651cb	0.010151337
44	0x3c916694	0.017749108
45	0x3d4f6532	0.050633617
46	0xbc9cf2b2	-0.019158695
47	0x3c590561	0.013245911
48	0xbcc8ae0d	-0.024497056
49	0x3cf95add	0.030438835
50	0x3ce3052b	0.027712425
51	0xbce997c4	-0.02851475
52	0x3c8cb8ae	0.017177906
53	0x3c0aa13c	0.008461293
54	0x3d16095a	0.036630012
55	0x3cb504f3	0.022097087
56	0x3b60017c	0.0034180572
57	0x3b21bad6	0.0024678013
58	0x3cb504f3	0.022097087
59	0x3cb5d024	0.022193976
60	0x3cb504f3	0.022097087
61	0x3ab8712b	0.0014071813
62	0x3cb504f3	0.022097087
63	0x3cd530e1	0.026024284
64	0x3cb9fa19	0.022702264
65	0x3c63e0ff	0.013908624
66	0x3c519a0b	0.012793074
67	0xbcb42487	-0.021990074
68	0x3cb504f3	0.022097087
69	0x3cdf559b	0.0272625
70	0x3b0e6c76	0.0021732128
71	0x3ceabe7b	0.028655281
72	0x3cb504f3	0.022097087
73	0x3ce63743	0.028102523
74	0x3b97f3b8	0.004637208
75	0x3a5fe915	0.0008541507
76	0x3cb504f3	0.022097087
77	0xbca06d5a	-0.019583393
78	0xbcade320	-0.021226466
79	0xbab1470f	-0.0013525205
80	0x3c1c0f41	0.009525121
81	0x3cb504f3	0.022097087
82	0x3baaa3f8	0.005207535
83	0x3d989625	0.07450513
84	0x3cb504f3	0.022097087
85	0x3cb504f3	0.022097087
86	0x3d06ec6a	0.032940306
87	0x3d01229e	0.031527154
88	0x3cb504f3	0.022097087
89	0x3c7e41b4	0.0155185945
90	0x3d1139af	0.035455402
91	0x3cb504f3	0.022097087
92	0x3d03d9b3	0.032190036
93	0x3cd4e4be	0.025987979
94	0x3c0bf57c	0.008542415
95	0x3d07931e	0.033099286
96	0x3afad690	0.0019137431
97	0x3c118da4	0.008883867
98	0x3cae144e	0.021249916
99	0x3cb504f3	0.022097087
100	0x3c415a2b	0.011801283
101	0xbd364b61	-0.04450548
102	0x3c5b0dd2	0.013369994
103	0x3cb504f3	0.022097087
104	0xbd0260d0	-0.03183061
105	0x3cb504f3	0.022097087
106	0x3a8febb0	0.0010980275
107	0xbd5e2c92	-0.054241724
108	0x3c67f1f2	0.014156805
109	0x3cb504f3	0.022097087
110	0x3c83d2a1	0.016091647
111	0x3ce6c297	0.02816896
112	0x3c1fa378	0.009743564
113	0x3bc81611	0.006106146
114	0x3bb492e8	0.0055106767
115	0x3cc66790	0.024219304
116	0x3cb504f3	0.022097087
117	0xbc92f9b4	-0.017941333
118	0xbca95c41	-0.020673873
119	0x3aac2049	0.001313218
120	0xbcaca695	-0.021075526
121	0x3ce9b382	0.028527979
122	0x3c2ba6e7	0.010476804
123	0x3cee2105	0.02906848
124	0x3cb504f3	0.022097087
125	0xbbb5b12f	-0.0055448036
126	0x3cbbec2b	0.022939762
127	0x3d2ba86d	0.04190867
128	0x3b543fbc	0.0032386621
129	0x3c9f85b4	0.019472934
130	0xbb835da9	-0.004008968
131	0x3c7bbcc1	0.015364827
132	0x3cb504f3	0.022097087
133	0x3d81dd47	0.063410334
134	0x3c549666	0.012975311
135	0x3bddb825	0.0067663365
136	0x3ce6d350	0.028176934
137	0x3be74668	0.0070579536
138	0x3cb504f3	0.022097087
139	0x3a94e264	0.0011358974
140	0xba1af376	-0.00059109123
141	0x3d231302	0.03981305
142	0x3cb504f3	0.022097087
143	0x39a1d242	0.00030864967
144	0x3c4750b0	0.0121652335
145	0x3ba334c3	0.004980655
146	0xbc1e6696	-0.009668013
147	0x3c3e7886	0.011625415
148	0x3c3b7f59	0.011443936
149	0x3cd4d499	0.02598028
150	0xbb8d4ea9	-0.0043123555
151	0x3b4cc4aa	0.003124515
152	0x3cb504f3	0.022097087
153	0xba05335c	-0.00050812005
154	0x3b224fa1	0.00247667
155	0x3cb504f3	0.022097087
156	0x3bd062f0	0.0063594505
157	0xba814adf	-0.0009864232
158	0x3b564e7c	0.003270059
159	0x3b1ef1b2	0.0024252948
160	0x3c80e07f	0.015732048
161	0xbb03b151	-0.0020094702
162	0x3b9a91c1	0.0047170823
163	0x3cb504f3	0.022097087
164	0x3cb504f3	0.022097087
165	0xbab003dd	-0.0013428886
166	0x3cb504f3	0.022097087
167	0xb95f28f3	-0.00021282192
168	0xbae4e0d9	-0.0017462029
169	0x3cd5d9d9	0.026104854
170	0xba8a1b56	-0.0010536711
171	0x39a88b27	0.00032147134
172	0x3cf0a6d9	0.029376434
173	0xbcd1a0bc	-0.02558934
174	0x3b99b190	0.0046903566
175	0xbb8dd82c	-0.004328748
176	0x3ba8a272	0.005146318
177	0x3c8a1887	0.016857399
178	0x3c17aa8b	0.009256969
179	0x3c140046	0.009033268
180	0xba3430f1	-0.0006873748
181	0xbb8c5f6d	-0.0042838366
182	0x3c447573	0.011990893
183	0x3cc3be24	0.023894377
184	0xbbc67eec	-0.0060576107
185	0x3b9940b3	0.004676902
186	0x3d434f82	0.047683246
187	0xbb9d95d6	-0.0048091216
188	0x3d51f0ed	0.051255155
189	0x3c0d7014	0.008632679
190	0x3cb504f3	0.022097087
191	0x3c556786	0.01302517
192	0xbc4357df	-0.011922806
193	0xbb715f4f	-0.003683049
194	0xbbb6f41a	-0.0055832984
195	0xbc4e3b54	-0.012587387
196	0xbbdfca23	-0.0068295165
197	0x3a53c72d	0.0008078691
198	0x3b2241eb	0.0024758528
199	0x3d148a91	0.03626496
200	0xbb7b53fe	-0.0038349624
201	0x3c886e52	0.016654167
202	0x3b91d866	0.0044508455
203	0xbc855e61	-0.016280355
204	0x3cb504f3	0.022097087
205	0xbb87eb66	-0.0041479347
206	0xbaefd438	-0.0018297499
207	0x3ad1e908	0.0016014883
208	0xbb122e0c	-0.0022305278
209	0x3cd034c4	0.025415786
210	0x3a1e06e0	0.0006028246
211	0x3bf8871d	0.007584466
212	0x3ce1e18a	0.027573366
213	0x3cb504f3	0.022097087
214	0x3cce5737	0.025188072
215	0x3cc6e30a	0.024278183
216	0x3c83d290	0.016091615
217	0x3b05c424	0.0020411098
218	0x3a5b8141	0.00083734473
219	0x3ce5a6d5	0.028033653
220	0x3ca392df	0.019967495
221	0x3c5e9c5a	0.013587082
222	0x3c0e258c	0.008675944
223	0xb89767ea	-7.2195966e-05
224	0x3c274ef2	0.010211693
225	0x3b86c57a	0.0041128965
226	0xbb6a8932	-0.0035787341
227	0x3cb504f3	0.022097087
228	0xbbbb8f23	-0.0057238503
229	0xbb332d73	-0.0027340322
230	0xbb884cfa	-0.004159567
231	0x3ce4512e	0.02787074
232	0xbbd4f451	-0.0064988513
233	0x3cb504f3	0.022097087
234	0xbb5535c1	-0.003253326
235	0x3a920616	0.001114073
236	0x3ad25f86	0.0016050197
237	0x3bff44dd	0.0077901916
238	0x3ce9ec6b	0.028555116
239	0x3b4d0c7d	0.0031287961
240	0xbb377d2b	-0.002799819
241	0x3bb77ad7	0.0055993604
242	0x3b10ab82	0.0022074883
243	0x3cdf9d65	0.027296731
244	0x3cb504f3	0.022097087
245	0x3c16ab34	0.009196091
246	0x3bdceac8	0.0067418553
247	0x3bec494a	0.007210885
248	0xbbd7d592	-0.006586739
249	0x3b5b343b	0.003344788
250	0xbb5e8680	-0.003395468
251	0x39dbbbd0	0.00041910866
252	0x3cb504f3	0.022097087
253	0xbb8ae2e8	-0.004238475
254	0xbb2a7c5e	-0.002601407
255	0x3c063ce0	0.008193225

Q.4.bias_mu f4 [4]
0	0xbdba497f	-0.090960495
1	0x3f08615e	0.5327357
2	0xbd96f004	-0.07369998
3	0x3e9594f6	0.2921521

Q.4.bias_sigma f4 [4]
0	0x3da5dc2f	0.08098637
1	0x3a779864	0.000944501
2	0x3e295583	0.16536526
3	0x3c74ebf4	0.014948834

Q.4.weight_epsilon f4 [4, 128]
0	0x3ebc097b	0.36725983
1	0x3f0000f2	0.5000144
2	0x3e95bf15	0.29247347
3	0xbec7e6bf	-0.39043233
4	0x3ef2d5bf	0.474287
5	0x3e7fff27	0.24999677
6	0x3df1d55c	0.11808273
7	0xbe8533c8	-0.26016068
8	0x3eec53c0	0.46157646
9	0xbeaf65e8	-0.34257436
10	0xbe9e94aa	-0.30972797
11	0x3f140e36	0.57834184
12	0xbe6b0ba6	-0.22953662
13	0x3ebd3082	0.3695107
14	0xbd8ea6c8	-0.06965405
15	0xbea64f63	-0.32482442
16	0x3f1fc885	0.62415344
17	0xbeac9ffc	-0.33715808
18	0x3e0f7638	0.1400994
19	0xbefce049	-0.49389866
20	0x3df0c2b5	0.117558874
21	0xbef11d9d	-0.47092906
22	0xbe453f72	-0.19262484
23	0x3ef3980e	0.47576946
24	0xbea96a96	-0.3308913
25	0x3ebdf138	0.37098098
26	0xbea5fb4b	-0.32418284
27	0xbea819df	-0.32832238
28	0x3e757701	0.23971178
29	0x3eae90b7	0.34094784
30	0x3e616b3e	0.22013566
31	0xbd949580	-0.07255077
32	0xbeb98c84	-0.36240017
33	0x3eae9839	0.34100512
34	0x3eb53392	0.35390908
35	0xbe926fcb	-0.28600916
36	0xbdb0d8a7	-0.08635073
37	0x3ebf332f	0.37343737
38	0x3e2ac6e7	0.16677438
39	0xbe48ff11	-0.1962855
40	0x3e3ee0dd	0.18640466
41	0x3df5fa09	0.12010581
42	0x3f0847b2	0.532344
43	0xbda88284	-0.08228019
44	0x3e87b280	0.26503372
45	0xbe749b2b	-0.23887317
46	0xbede6410	-0.43435717
47	0x3e2f02e7	0.17090951
48	0x3ec1e556	0.37870282
49	0x3eb75e76	0.35814255
50	0x3f05c32d	0.5225094
51	0x3e9f8041	0.31152537
52	0xbdec9fb5	-0.11553899
53	0xbe9e693c	-0.30939662
54	0xbeda2dcf	-0.42613074
55	0xbe6e8388	-0.23292363
56	0xbefbae6e	-0.49156517
57	0xbebdda3f	-0.3708057
58	0x3ec02105	0.37525192
59	0x3ee7682e	0.4519667
60	0xbeb299ae	-0.34882873
61	0xbde473a4	-0.11154869
62	0x3ebd393e	0.36957735
63	0xbeba546b	-0.3639253
64	0x3e8da294	0.276631
65	0x3ea2c60e	0.3179173
66	0xbda7c9fe	-0.08192824
67	0xbe7c18d9	-0.24618854
68	0x3e52879c	0.20559543
69	0xbec95205	-0.39320388
70	0x3daade5c	0.08343193
71	0xbea11bf3	-0.31466636
72	0xbea4bcf6	-0.32175416
73	0xbe1578a1	-0.14596798
74	0xbd7491fa	-0.059709527
75	0xbec10f8a	-0.37707168
76	0xbdd31e76	-0.10308544
77	0x3ea707be	0.32623094
78	0xbef2eb85	-0.47445312
79	0x3f0932f6	0.53593385
80	0x3edb17b8	0.42791533
81	0xbe8ab46f	-0.27090785
82	0x3e201a64	0.15635067
83	0x3eab1793	0.33416423
84	0xbeadfe76	-0.339832
85	0x3f056af3	0.52116317
86	0x3dd7d28c	0.105382055
87	0xbe1c820a	-0.15283981
88	0x3ef2d60b	0.47428927
89	0x3ebf4133	0.3735443
90	0xbd3f18f8	-0.04665467
91	0x3efca8dc	0.4934758
92	0xbea65798	-0.32488704
93	0x3eb766ad	0.35820523
94	0x3efd2e23	0.49449262
95	0xbe71f021	-0.23626758
96	0x3edff538	0.43741775
97	0x3e94cb04	0.2906114
98	0xbe3a20e3	-0.18176608
99	0xbeaa06f5	-0.33208433
100	0xbe4bcc0a	-0.19902053
101	0xbde9a395	-0.11408154
102	0xbed7ffe7	-0.42187425
103	0xbeee611e	-0.4655847
104	0xbd95fd32	-0.07323684
105	0xbf029bb3	-0.5101883
106	0xbed111b3	-0.40833816
107	0x3e86bc77	0.26315662
108	0xbe85f0a4	-0.26160157
109	0x3eb41996	0.3517577
110	0x3ea24ef7	0.3170087
111	0x3ced71bd	0.028984899
112	0xbdb83716	-0.08994882
113	0xbe759231	-0.23981549
114	0xbeb553ae	-0.35415405
115	0xbdfa459e	-0.1222031
116	0xbe1c0cbd	-0.15239234
117	0xbe60cb06	-0.21952447
118	0xbeeffed4	-0.46874106
119	0xbe1957e7	-0.14974938
120	0xbefb6370	-0.49099302
121	0xbeb3eb62	-0.3514052
122	0x3e95e809	0.2927859
123	0xbe0e030d	-0.13868351
124	0x3e77a9e7	0.24185906
125	0xbe5fe4dd	-0.21864648
126	0x3ec4870d	0.38384286
127	0xbed19394	-0.40932906
128	0xbf36b354	-0.71367383
129	0xbf78bde9	-0.9716478
130	0xbf117f20	-0.568346
131	0x3f423a66	0.7587036
132	0xbf6bf179	-0.92165333
133	0xbef8bb41	-0.48580363
134	0xbe6af85c	-0.22946304
135	0x3f016c06	0.50555456
136	0xbf659ec2	-0.8969537
137	0x3f2a6b95	0.6657041
138	0x3f1a1485	0.6018756
139	0xbf8fda8a	-1.1238568
140	0x3ee45ff7	0.44604465
141	0xbf37d1fc	-0.71804786
142	0x3e0a9a5f	0.1353545
143	0x3f219717	0.6312117
144	0xbf9b3fa5	-1.2128798
145	0x3f27b9cf	0.65517896
146	0xbe8b63ec	-0.27224672
147	0x3f75b30f	0.95976347
148	0xbe69ed81	-0.22844507
149	0x3f6a45d4	0.915128
150	0x3ebfa660	0.37431622
151	0xbf6cae43	-0.924534
152	0x3f249bb9	0.64300114
153	0xbf388d3a	-0.72090495
154	0x3f214561	0.6299649
155	0x3f235490	0.6380091
156	0xbeee7f9f	-0.46581742
157	0xbf299c70	-0.6625433
158	0xbedb0580	-0.42777634
159	0x3e105dfd	0.14098354
160	0x3f344871	0.70423037
161	0xbf29a3bc	-0.66265464
162	0xbf300f15	-0.68773013
163	0x3f0e47e2	0.55578434
164	0x3e2bd3ce	0.16780016
165	0xbf39c60d	-0.72567827
166	0xbea5ee27	-0.32408258
167	0x3ec34ac3	0.38142976
168	0xbeb97611	-0.3622289
169	0xbe6efeef	-0.23339437
170	0xbf846993	-1.0344719
171	0x3e23ba3c	0.15989012
172	0xbf03d89e	-0.51502407
173	0x3eedaa06	0.4641878
174	0x3f581452	0.84406006
175	0xbeaa0b63	-0.33211812
176	0xbf3c649e	-0.7359103
177	0xbf322a39	-0.69595677
178	0xbf81f759	-1.015361
179	0xbf1af96d	-0.60536844
180	0x3e65e88f	0.22451995
181	0x3f19ea54	0.6012318
182	0x3f53fcab	0.82807416
183	0x3ee7bea7	0.45262644
184	0x3f7489e1	0.95522887
185	0x3f3876e7	0.7205643
186	0xbf3aad23	-0.72920436
187	0xbf60d6ef	-0.8782796
188	0x3f2d8817	0.6778578
189	0x3e5df7dd	0.21676584
190	0xbf37da78	-0.7181773
191	0x3f350aac	0.7071941
192	0xbf099d8e	-0.53756034
193	0xbf1e2773	-0.61778945
194	0x3e2306f3	0.1592062
195	0x3ef4f147	0.4784033
196	0xbecc8e0b	-0.3995212
197	0x3f439b5c	0.76408935
198	0xbe2604f2	-0.16212824
199	0x3f1c8970	0.61147213
200	0x3f201015	0.6252454
201	0x3e913aac	0.28365076
202	0x3deda118	0.11602992
203	0x3f3b94e3	0.7327406
204	0x3e4d209c	0.2003197
205	0xbf224a36	-0.63394487
206	0x3f6c06a0	0.9219761
207	0xbf854e2a	-1.0414479
208	0xbf54dff0	-0.831542
209	0x3f06c4b3	0.5264389
210	0xbe9b8f31	-0.30382684
211	0xbf263c89	-0.6493612
212	0x3f290e57	0.66037506
213	0xbf81a1a0	-1.0127449
214	0xbe51b286	-0.20478258
215	0x3e9810f5	0.29700437
216	0xbf6bf1c2	-0.9216577
217	0xbf39d3ac	-0.7258861
218	0x3db9ac95	0.090661205
219	0xbf757d35	-0.95894176
220	0x3f219f10	0.63133335
221	0xbf323235	-0.6960786
222	0xbf75feb2	-0.9609176
223	0x3eeb125f	0.45912454
224	0xbf599a17	-0.8500075
225	0xbf1091fc	-0.56472754
226	0x3eb4d89a	0.35321504
227	0x3f2533a7	0.6453194
228	0x3ec60363	0.3867446
229	0x3e63021e	0.22168776
230	0x3f51de98	0.81980276
231	0x3f679d36	0.9047426
232	0x3e11bb7a	0.14231673
233	0x3f7dcd94	0.9914181
234	0x3f4b22bf	0.79349893
235	0xbf02e990	-0.5113764
236	0x3f022385	0.5083545
237	0xbf2efd1a	-0.6835495
238	0xbf1db3bd	-0.61602384
239	0xbd66b4a0	-0.0563246
240	0x3e32fcb4	0.17479211
241	0x3eee9a09	0.46601894
242	0x3f302e48	0.6882062
243	0x3e732b4f	0.2374699
244	0x3e979efc	0.29613483
245	0x3eda69d3	0.42658862
246	0x3f692f2f	0.9108762
247	0x3e94fdd0	0.29099894
248	0x3f744105	0.9541171
249	0x3f2ed036	0.68286455
250	0xbf11a6ea	-0.56895316
251	0x3e89fb49	0.26949528
252	0xbef0a28b	-0.4699901
253	0x3ed98a33	0.4248825
254	0xbf3ef337	-0.74589866
255	0x3f4ba0f0	0.79542446

Q.4.bias_epsilon f4 [4]
0	0x3ec4f4d7	0.38468048
1	0xbf3f5de3	-0.74752635
2	0xbf646da6	-0.8922981
3	0xbfa3fda8	-1.2811785
