model_w/Noisy_DQN/NoisyNetDQN_4999k.pth (torch, 77572 bytes, 10 tensors)

Q.0.weight f4 [128, 2]
000000 3a f5 2b 3f 94 ef 43 bf ec d7 38 3f 7f 20 44 bf
       0.6717106 -0.7653744 0.7220447 -0.76612085
000010 01 f5 7f bc 44 3e d1 bd 50 d2 e1 3d 2c fe 2a bf
       -0.015622378 -0.10216954 0.11026442 -0.66794086
000020 1b 46 2e 3e ae 1c 72 be 29 57 29 bc 3d a7 e4 bd
       0.1701893 -0.23643753 -0.010335722 -0.11164711
000030 59 66 7b 3e 45 6d 2a be 62 7c c4 be 5e af 5d bc
       0.24550761 -0.16643246 -0.38376147 -0.01353058
000040 2e 2e eb 3e d5 f4 b8 3d 2b 3b b5 3e 33 79 15 bf
       0.4593367 0.09031073 0.35396704 -0.5838806
000050 69 81 79 3e bf 29 a7 bc 2e e0 ab 3e 6f 59 e4 3e
       0.24365772 -0.020405648 0.33569473 0.44599482
000060 ae ad 10 bf ce 8f 62 3a c5 41 4a 3f 93 ac a8 be
       -0.56515014 0.00086426444 0.79006606 -0.32944164
000070 c9 b2 34 bc 0c 33 d6 3e ac 22 e0 3e f5 46 8d be
       -0.011028954 0.4183582 0.43776453 -0.27593198
000080 a1 85 76 3d 0a ef 8b be fa ea 43 3f 06 d2 e6 be
       0.060186032 -0.2733081 0.7653042 -0.4508211
000090 f5 cc 84 3c ba 1c 96 be 42 d3 c0 be bc 4c 0e bc
       0.016211012 -0.29318792 -0.37661177 -0.008685287
0000a0 bb bb 29 3e 7b 45 49 3e 93 b7 ce 3e 6e 5f f8 be
       0.1657552 0.19655411 0.4037443 -0.48510307
0000b0 51 a1 52 bf 17 f7 fd 3e 99 ba e6 3d 7c ad e3 bd
       -0.822774 0.49602577 0.112660594 -0.11117074
0000c0 73 60 33 3f 99 ce 53 be 2c 93 69 bf 4d fd a0 bd
       0.70069045 -0.2068428 -0.9124019 -0.07860813
0000d0 10 0f 2b be 15 b6 da 3e a0 7f 43 3f b9 c5 e5 3e
       -0.16704965 0.42717043 0.76366615 0.44877413
0000e0 33 04 a2 be d3 e5 09 bf 40 45 11 3d 00 33 14 bf
       -0.3164383 -0.5386631 0.035466433 -0.5789032
0000f0 9d 19 66 3e 94 45 7f be e8 04 16 3f 5a f3 85 3e
       0.22470708 -0.24928886 0.58601236 0.26162225
000100 76 4e 96 be c4 9e ca bb fe 66 1e 3f e0 bb 59 be
       -0.29356736 -0.006183477 0.61875904 -0.21263075
000110 81 bf 98 3e 7d 32 a4 be 08 81 5d 3f d7 34 b3 be
       0.29833606 -0.3206977 0.8652501 -0.3500125
000120 c3 01 ba be 56 9f 3b 3f 7f 65 36 3e 7b 20 fc be
       -0.3632947 0.7329 0.17812155 -0.4924353
000130 44 48 16 bf d7 a7 a6 be 69 9e 07 3f 56 82 0f be
       -0.5870402 -0.32549927 0.5297609 -0.14014563
000140 9c ca a7 be b8 e9 17 3f 0f 2d 19 bf c9 24 0b bf
       -0.32771766 0.59341 -0.5983438 -0.54353005
000150 2d 4a 04 be 6f 32 1f 3f a8 a4 00 bf da 66 c5 3e
       -0.12918921 0.6218633 -0.50251245 0.38555032
000160 06 93 e6 3e e7 e8 22 be 20 48 3a 3e be b3 06 bf
       0.45034045 -0.15909158 0.18191576 -0.52618015
000170 48 12 3c 3f 97 05 e1 be de ca 4f be 2e 9f 2e 3f
       0.73465395 -0.43949577 -0.20292231 0.6821164
000180 1a 77 79 3e f7 2b 7d be 35 7c 25 bf 55 da 91 be
       0.2436184 -0.24723803 -0.6464265 -0.28486887
000190 d5 de 42 bf 2c 0d 00 3f 00 e9 09 c0 f1 bc 40 3e
       -0.76121265 0.500201 -2.1548462 0.18822075
0001a0 9f b4 45 bf 00 bb ed 3e e8 8b bc 3e 35 77 c0 3d
       -0.7722873 0.46431732 0.3682549 0.09397737
0001b0 73 af 03 3f 4a c6 2e 3f 39 75 62 3f 5f 3c 5d 3e
       0.5143959 0.68271315 0.8846012 0.21605061
0001c0 39 9e 4b 3f 47 48 ee be 28 74 09 be 87 f4 f4 be
       0.79538304 -0.46539518 -0.13423216 -0.4784281
0001d0 55 52 27 bd e7 16 89 3e cf 30 4e be 05 d6 06 3f
       -0.040850002 0.26775286 -0.20135807 0.5267032
0001e0 7a 0b 67 bf 58 6b 14 3f ed aa e0 3e 80 74 e6 3c
       -0.90251887 0.57976294 0.43880406 0.028131723
0001f0 64 37 9d 3e c2 b5 d5 3e e3 e8 89 bd e5 a5 b5 3e
       0.30706322 0.41740233 -0.06733873 0.3547813
000200 d4 44 c2 3e 35 ce 43 3f c2 df 14 3f f9 26 13 bf
       0.37943137 0.7648652 0.5815393 -0.5748134
000210 70 01 9a 3d 6c 2c 6b be a9 c7 ec 3e 8b 0a 98 3d
       0.075198054 -0.22966164 0.4624608 0.07423886
000220 f7 a6 9c 3d 14 b4 3d be 42 43 e9 3d a9 62 8f 3e
       0.076490335 -0.18525726 0.113897815 0.2800496
000230 0f 16 15 3f 73 ac 2a bf f2 9d f6 3d 1c dc b2 bb
       0.58236784 -0.66669387 0.120418444 -0.005458368
000240 dd 94 14 bd 26 98 1d be f3 02 6e be e9 a8 3e 3e
       -0.03627478 -0.15390071 -0.23243313 0.18619122
000250 65 9c 38 bf 8f 49 f8 be fe d7 ed 3e eb 15 42 bf
       -0.7211364 -0.4849362 0.4645385 -0.75814694
000260 77 53 40 3f e4 81 f0 be 55 8b bb bf 90 5a 18 3e
       0.7512736 -0.469741 -1.4651896 0.14878297
000270 cf 99 4a bd 4e 67 84 3e fe 84 f5 3e e5 63 eb be
       -0.04946309 0.25860065 0.47953027 -0.4597465
000280 9c e2 78 be 1e 49 9d 3e 1a 70 01 3f e0 3d 55 3e
       -0.24305195 0.30719846 0.5056168 0.20824385
000290 25 1f 8c 3d 0a 00 91 be 28 fc 7d 3f c0 f2 ae 3d
       0.06841878 -0.28320342 0.99212885 0.08542395
0002a0 cd 1b 56 3e 46 50 47 3f a4 90 0f bf 2e fe 24 bf
       0.20909043 0.7785686 -0.5608008 -0.6445035
0002b0 d5 cc 43 bf 3c 3a 9b bd 50 ef 1b 3f bc bc a0 3d
       -0.76484424 -0.07579467 0.60912037 0.07848498
0002c0 18 ee 17 3f 4b 24 86 3d 26 d6 31 bf 20 8f 5a be
       0.5934768 0.06549891 -0.6946739 -0.2134366
0002d0 26 4c a9 be b5 44 4c 3f 7b 1b ea 3e f1 ee ff be
       -0.3306591 0.7979234 0.4572409 -0.49986985
0002e0 40 48 a0 bd 9c 19 23 bf f5 e6 30 3f 5f 6a 3a 3e
       -0.078262806 -0.6371095 0.6910241 0.1820464
0002f0 a1 47 68 3f cf 51 9a 3e 16 cb 64 bf 7d 0f a6 bd
       0.907343 0.3014054 -0.89372385 -0.08108423
000300 d6 02 ee be c4 c8 25 3f 8a 07 ed be 3e 6f 66 be
       -0.4648654 0.6475947 -0.46294814 -0.22503373
000310 ae 2b ab 3e 7d 17 f6 be f5 4e b6 3d 7d f9 d8 be
       0.33431762 -0.48064795 0.089017786 -0.42377844
000320 bc e2 7f 3e 01 91 a0 be 41 cc 6c 3e a3 d8 28 3e
       0.24988836 -0.3136063 0.23124792 0.1648889
000330 20 1e 0e 3d ee 42 87 be 31 8f fc ba 83 65 ec bd
       0.0346967 -0.2641825 -0.0019268749 -0.11542799
000340 9e 42 4c bf d2 b5 05 3f 40 62 97 be b8 0b 3e 3f
       -0.7978915 0.5223056 -0.29567146 0.7423663
000350 76 35 b0 3e 46 0a 46 3f fd 75 a8 be 4c bb 50 3f
       0.34415787 0.77359426 -0.32902518 0.8153579
000360 0b c7 8c bd a0 90 db 3d 4c d6 2e 3f ee 2b 8b be
       -0.06873902 0.107209444 0.6829574 -0.27181953
000370 7c b0 03 be a9 f8 0f bf 7d 3b a4 3e 6a ad 4f be
       -0.12860292 -0.562388 0.32076636 -0.20280996
000380 53 6a 26 be 53 0e b1 3e ec d6 55 3e a5 0c 8b 3d
       -0.16251497 0.3458124 0.20882767 0.06789521
000390 80 bc a2 bb d8 c0 82 bd 3c 81 ec 3e 46 f9 d1 3e
       -0.0049663186 -0.06384438 0.46192348 0.41010493
0003a0 2f 95 30 3f 4d bb d7 be c0 c2 8a 3e 64 38 99 3e
       0.68977636 -0.42135087 0.27101707 0.29925835
0003b0 d0 ec 28 3f 55 d2 38 be f5 b2 03 3f 22 f3 12 bf
       0.6598635 -0.18048985 0.5144494 -0.5740224
0003c0 0e 9c 2f 3f 28 aa c4 be 40 9c 75 bd 98 0a 1a 3f
       0.68597496 -0.3841107 -0.059963465 0.60172415
0003d0 77 fe b8 be 20 75 2b 3f 6c 07 ed 3e af 49 9e be
       -0.3613164 0.66975594 0.46294725 -0.3091559
0003e0 f0 92 44 3f d5 15 f2 be 4d 81 0e be 61 a3 c3 3e
       0.7678671 -0.47282282 -0.13916512 0.38210586
0003f0 d1 57 3b bf bf 71 07 3f 39 5a 80 3e ea 3d 2a be
       -0.7318087 0.5290794 0.25068834 -0.16625181

Q.0.bias f4 [128]
000000 0c 7c 7a 3e 5e 73 f9 be 04 19 26 3f 67 65 2f bf
       0.24461383 -0.4872083 0.6488192 -0.685141
000010 8a 79 8f 3e c9 60 2d 3f e7 01 51 3f 03 ff 9a 3f
       0.28022414 0.6772581 0.8164353 1.2109073
000020 ea e2 2d 3f ec f9 10 3f 86 3a 47 3f 77 91 3e bf
       0.6792437 0.5663135 0.77823675 -0.7444071
000030 01 c6 28 bf 80 b2 2d bf 44 e7 12 3f 62 a1 69 3f
       -0.6592713 -0.67850494 0.57384133 0.91261876
000040 d9 29 3f 3f 5c fb f1 be 63 ec 64 3f 1d f7 80 3f
       0.7467323 -0.47262084 0.894232 1.0075413
000050 e6 81 e3 3e 54 02 32 be d3 c1 c7 3e e2 71 f2 be
       0.44435042 -0.173837 0.39015064 -0.4735251
000060 66 26 0b bf ae 79 78 3f 44 99 a1 be 9e c7 92 bf
       -0.54355466 0.9706067 -0.31562245 -1.1467168
000070 00 b2 14 bb 78 34 9b bd b1 d8 02 3f b6 2e 36 3f
       -0.0022689104 -0.07578367 0.51111895 0.71165025
000080 91 f5 7d 3f 70 d0 ea be 91 6a 61 3f 0e 15 1f be
       0.9920283 -0.4586215 0.8805323 -0.15535375
000090 cb 14 9e 3e e3 f8 6d 3f 10 75 42 be 6f 93 1a bf
       0.3087524 0.92957896 -0.18989968 -0.60381216
0000a0 e4 cf ff bd 96 f8 0a bf f5 df f9 bd ba 9b 55 3f
       -0.12490824 -0.5428556 -0.122009195 0.83440745
0000b0 63 73 80 be 24 28 bf be ec 62 28 bf 42 a5 a5 be
       -0.25088033 -0.37335312 -0.6577594 -0.32352644
0000c0 4c 51 1b bf aa 4d 58 be 84 5d 7b 3f 21 73 2f 3f
       -0.60670924 -0.21123376 0.9818957 0.6853505
0000d0 2d 90 d6 3e b4 ce a4 bf 78 4d 90 bf 51 a8 8e bf
       0.41906872 -1.2875581 -1.1273642 -1.1145116
0000e0 dd be c9 3e fd be a8 be ba c4 01 3e ae 24 da be
       0.3940343 -0.32958212 0.12672701 -0.4260611
0000f0 91 06 75 3f ae 16 94 3d 68 dd 63 3f 0d 6e e8 bd
       0.95713145 0.07230888 0.89009714 -0.113491155
000100 78 25 5b bf 40 ca 48 bf be 59 6a be 78 49 83 bf
       -0.8560405 -0.7843361 -0.22885796 -1.0256796
000110 c4 9a e6 3e 5e 88 4a 3f f2 e7 05 3f 46 79 de 3e
       0.45039952 0.7911433 0.52307045 0.434519
000120 f9 fe 86 3f 9a 47 12 3f db 77 4b 3f 42 ce 4a 3d
       1.0546561 0.57140505 0.7947976 0.04951311
000130 d3 0a e3 3e ed 89 37 3f db 2f 73 3f 60 8f e0 3e
       0.44344196 0.71694833 0.94994897 0.43859386
000140 29 0e 57 3f 53 59 ad 3e b7 f7 77 3f 2d 80 9d bf
       0.8400598 0.3385721 0.9686236 -1.2304741
000150 4a db 13 bf f2 2c b5 be 1e ed 64 3f 2a bf 95 bf
       -0.57756484 -0.35385853 0.8942431 -1.1698964
000160 a6 42 10 3f ad 0e b6 be 88 26 80 bd 6b 92 ba bd
       0.563517 -0.35558072 -0.06257349 -0.09109958
000170 bd 0f a5 be 1e 32 7e bf a5 dd 9f bf 12 58 74 3f
       -0.3223857 -0.9929522 -1.2489516 0.95446885
000180 28 7a 7b 3e d0 8a b3 be 0e ca 15 bf 46 02 56 3f
       0.24558318 -0.35066843 -0.58511436 0.8359722
000190 41 7a 84 3e 8e e6 4f 3f 94 7b 89 be 12 25 1c 3f
       0.25874522 0.81211174 -0.26852095 0.60994065
0001a0 bf db 93 3f 2c 2f 15 bf ef 80 e1 be 25 6c 29 be
       1.1551436 -0.58275104 -0.4404368 -0.1654516
0001b0 f3 a3 3f 3f 04 07 08 3f 00 09 f0 bd d7 0d 63 3e
       0.7485954 0.53135705 -0.117204666 0.22173248
0001c0 51 30 33 be 7d f8 31 3f 8c 5a 05 bf d9 91 30 bf
       -0.174989 0.6951979 -0.5209129 -0.68972546
0001d0 eb 5b 95 3b 38 5d 76 3f e7 d5 6b bf 4e 01 22 3f
       0.0045580766 0.9623599 -0.92123264 0.6328324
0001e0 9e dc 53 be 59 ef 5b 3f e7 59 53 bc 0c d1 53 3f
       -0.20689628 0.8591209 -0.012899852 0.82740855
0001f0 c5 e2 1a 3e e7 22 87 be 8b 84 88 3f 12 5c 28 3f
       0.15125568 -0.26393816 1.0665449 0.6576549

Q.2.weight f4 [128, 128]
000000 ce 83 79 bc 24 5c 1a be c5 3c 14 3e 72 5f a7 bd
       -0.015229179 -0.15074211 0.14476307 -0.081725016
000010 47 b2 4d 3b 8e f3 d7 3d 6f 62 a9 3d 53 fa 6c 3f
       0.003138678 0.10544501 0.08270728 0.92569464
000020 80 12 cb 3d c1 e5 e9 3c 08 cf a6 3e fc 87 41 be
       0.09915638 0.028551938 0.32579827 -0.1889953
000030 0e 88 0f bd e6 c0 8d bd 10 70 32 3d c4 b2 a9 3d
       -0.03504186 -0.06921558 0.043563902 0.0828605
000040 6e 7d 4e 3e 5d ac 48 3d 26 f6 09 3e 87 a0 70 3f
       0.20165035 0.048992503 0.13472804 0.93994945
000050 36 38 16 3c 05 61 ef bd 3d 73 fc bc 90 3a 3a bd
       0.009168675 -0.11688427 -0.030816669 -0.045466006
000060 9c e7 b0 3c d4 6f 71 3e 28 bb ce bd f7 df 3d be
       0.021594815 0.23577815 -0.10094291 -0.18542467
000070 d8 c9 62 3c 40 d3 6a 3b c9 55 1a 3e 1a c9 73 3d
       0.013842069 0.0035831481 0.15071787 0.059517957
000080 06 7b 50 3f df bf 02 3d 9a 09 2a 3e d9 5c 5d 3d
       0.8143772 0.031921264 0.16605225 0.054043625
000090 31 e1 96 3b ad 8c 2f 3d c6 6e e3 bc d7 e3 88 bd
       0.0046044816 0.04285877 -0.027762782 -0.06684082
0000a0 11 fb 15 be 00 24 66 3b ea f6 68 3c 87 a0 a5 3e
       -0.14646555 0.0035116673 0.014219025 0.32349035
0000b0 6e e1 bf bc 34 f3 de bc 5e 83 a0 bd 7b fd dc 3a
       -0.023422923 -0.027215578 -0.07837556 0.0016860211
0000c0 e4 8c 07 be 28 a3 4e 3c 95 4c a6 3e e3 a8 a4 3e
       -0.1323734 0.012612142 0.32480302 0.321601
0000d0 7e 01 c5 bc 61 68 0b bf eb 3f 1c be 0b 29 67 be
       -0.024048563 -0.54456145 -0.15258758 -0.2257425
0000e0 4e 9c ec bc cf 51 a3 bd 3f 3c 93 bc 5b e4 46 be
       -0.028883126 -0.07974588 -0.017973064 -0.19423048
0000f0 cb 1a 2f 3e ab 75 f7 bd 45 58 61 3d 41 ba 8c bd
       0.17100064 -0.1208299 0.05501582 -0.068714626
000100 73 e9 25 be 26 eb de bd b2 65 90 bd 4a b9 ee be
       -0.16202335 -0.10884695 -0.07050647 -0.4662574
000110 e3 83 54 3e 94 bd 09 3e eb ae a6 3d 4e 75 e2 3d
       0.20753436 0.13451225 0.08138832 0.1105753
000120 e6 1e 3f 3e 8b c2 82 3d 9c 97 2f 3e b7 1d 00 bd
       0.1866413 0.063847624 0.17147678 -0.03127834
000130 ac 63 b7 bc 52 dc c5 3e 62 ae 01 3e 7f fc 70 bc
       -0.022386394 0.38644654 0.12664178 -0.014708637
000140 a9 29 48 3e 80 66 fa bc 58 58 ad 3d f1 a9 d0 be
       0.19547142 -0.030566454 0.08464116 -0.40754655
000150 de 35 91 bc 1a 0b 74 3d 6d ed 23 3e 2f 39 ec be
       -0.017725881 0.0595809 0.1600854 -0.46137378
000160 ea 2f 4c 3d 20 6b 84 bc d2 9a 9f bd ea 9d 0b bc
       0.049850382 -0.016164362 -0.077932015 -0.008521536
000170 e8 7b 7e bc f6 60 8a be b9 cf 84 be ff 43 7a 3e
       -0.015532471 -0.270271 -0.2593973 0.24440001
000180 c8 f3 b6 3d f8 b0 16 bc 0f 57 e1 bd 88 2a d8 3d
       0.08933216 -0.009197466 -0.11002933 0.10554987
000190 2b a7 b1 bd e5 b6 3f 3e f8 8b 11 bc fe 43 51 3e
       -0.08674463 0.18722112 -0.008883469 0.20436093
0001a0 28 95 99 3e 14 21 3c be 13 ec a3 bd e6 c0 79 3c
       0.2999661 -0.18371993 -0.08004012 0.0152437445
0001b0 b3 f8 44 3f 1c e0 6d 3d a7 5d 34 bd 37 f4 81 3c
       0.76941985 0.058075055 -0.044034626 0.015863521
0001c0 66 65 a9 bd 5c 3e 76 3e 8c 17 2a bd f1 56 c6 bd
       -0.08271293 0.24047226 -0.041526362 -0.096845515
0001d0 44 59 17 bd a1 b3 0c 3e a7 59 64 bd f4 a0 ca 3d
       -0.036950365 0.13740398 -0.05574956 0.098939806
0001e0 30 ed de 3c 1a f9 73 3d 89 55 61 bc 86 7c 1a 3d
       0.02721271 0.059563734 -0.013753303 0.03771641
0001f0 9a f7 f2 b9 59 2c 16 be e8 2c 8b 3e 7f 94 51 3e
       -0.00046342314 -0.14665355 0.27182698 0.20466803
000200 7e 10 e1 3d 8d ac e2 3b 09 c2 87 3e d4 64 da 3c
       0.10989474 0.0069175423 0.26515225 0.026659407
000210 71 4a cc 3d 4a 16 b5 3e 81 b0 dd 3d 22 4d 87 3e
       0.09975136 0.35368568 0.10824681 0.26426035
000220 83 56 b7 3d 42 86 82 3e bf bd 4a 3e 1c f0 d0 bd
       0.08952048 0.25493056 0.19798945 -0.10202047
000230 3e 8d 5d bd 96 f0 0a 3d 6f 19 83 3d ac 4c 70 3d
       -0.054089777 0.033920847 0.064013354 0.05866687
000240 02 35 2b 3e 2b 6f ca 3c 4d 51 4d 3e 31 ae 27 3e
       0.1671944 0.024711212 0.20050545 0.16375042
000250 9a a6 d2 3d 57 59 f8 3c d6 68 48 bf 1e 8b f7 3d
       0.10285683 0.030316038 -0.78284967 0.120870814
000260 77 0e a1 3c 43 44 ec be 92 4f b0 be 8c c9 42 bd
       0.019660218 -0.4614583 -0.34435707 -0.04755549
000270 90 03 ee 3c a8 1d 16 bc 5a 8a 26 3e 10 2e 46 3d
       0.029054433 -0.009162344 0.16263714 0.048383772
000280 db a0 47 3e 3e a4 3c bd 47 28 e6 3d 28 1d c4 bc
       0.19494955 -0.04605507 0.11238151 -0.023939684
000290 fb c9 7a bd 94 2a 56 3e c7 0e 71 bd 21 ce 34 bd
       -0.06122778 0.2091468 -0.058851983 -0.044141892
0002a0 8e 3b 0d be 68 6b 12 bc d5 dc 01 be 7e cf 9a be
       -0.1379225 -0.00893674 -0.12681897 -0.3023643
0002b0 a3 e4 23 bd 38 02 16 bc 25 14 85 3d 3f 35 ae be
       -0.040012967 -0.009155802 0.06497983 -0.34025
0002c0 26 3d ca 3d 44 5d 79 bd 61 25 ed be 9e 43 46 bf
       0.098749444 -0.06087996 -0.4631758 -0.77446926
0002d0 05 69 5f bf 9d 1d f6 bc 26 21 b7 bd f5 03 98 bd
       -0.8726962 -0.030043418 -0.089418694 -0.0742263
0002e0 42 c3 33 3e e8 10 91 bd bd e3 2f be 6f 94 19 bf
       0.17554954 -0.07083303 -0.17176719 -0.59992117
0002f0 25 24 b2 be 77 1e 59 3d 74 23 32 3e be 49 6f be
       -0.347932 0.05300757 0.17396337 -0.23367974
000300 64 35 05 be 47 fd 82 3d 20 f9 12 3b 3a 9f 9f bc
       -0.13008648 0.06395965 0.0022426322 -0.019485105
000310 24 cf a3 3e 9a ca 8f 3e ed 9a 77 3e b7 23 a6 3d
       0.31993973 0.2808426 0.24180193 0.08112281
000320 b3 91 97 3e 90 9f 1a 3e b9 e5 af be a7 be 48 3e
       0.29603347 0.15099931 -0.34354952 0.19603978
000330 6e 65 3c 3d 5a 22 72 bf 18 7d 52 3e b0 19 20 3e
       0.04599517 -0.94583666 0.20555532 0.15634799
000340 de 59 42 3e 19 05 fa 3c c1 fc 8c 3e 0d ce 84 bd
       0.18979594 0.030520009 0.27536586 -0.064846136
000350 fe 26 1a bd 69 6e 9c 3d 08 a7 9e be f4 67 6f 3c
       -0.037634842 0.076382466 -0.3098681 0.014612187
000360 64 6a b1 3d da e6 74 3d 4c 04 62 be 6d a8 e0 3d
       0.086628705 0.05979047 -0.22071952 0.10969625
000370 62 49 5b 3d f1 77 83 bd a4 1e 9e bc 1f 7b 19 bf
       0.05353678 -0.064193614 -0.01930172 -0.5995349
000380 c1 82 64 bd e6 0b 09 3d f6 f3 ac 3d 90 0b 8d 3e
       -0.05578876 0.033458613 0.08444969 0.27547884
000390 2c 74 1a 3e ab 81 db 3d ea 22 7e bd 41 db 44 3e
       0.15083379 0.107180916 -0.062045015 0.19224264
0003a0 fe 2a 6a be 65 fb 1d bf 6b f2 b0 bc b6 da 1a be
       -0.22867963 -0.6171172 -0.021599969 -0.15122494
0003b0 c8 df c1 3d 0d f1 59 3e 20 83 57 3c c4 cc 47 bd
       0.09466511 0.2128336 0.013153821 -0.048779264
0003c0 c6 ac a0 be f4 e6 28 3e c0 c5 a0 bc c4 dd f4 3c
       -0.31381816 0.16494352 -0.019625545 0.029890902
0003d0 5e c1 27 bd 6d 0c 87 3d 94 6f 9f 3d 96 87 fe 3d
       -0.040955894 0.06594167 0.07784954 0.12428205
0003e0 2e 76 cf 3d 59 a4 da 3d d3 0d 48 be 78 dd 31 3e
       0.10129963 0.10675878 -0.19536524 0.1736964
0003f0 e2 39 3a 3d 90 71 6c be 51 3f 12 be f6 f1 e5 3d
       0.045465358 -0.23090196 -0.14281966 0.11227791

Q.2.bias f4 [128]
000000 75 3e 09 3f 0c 1b 5a 3e 50 01 a9 3c c3 ea 04 bd
       0.53610927 0.2129938 0.020630509 -0.03245045
000010 f0 04 0a bc f2 2f a9 3c a2 07 40 3e 57 04 4d 3e
       -0.008424029 0.020652745 0.18752912 0.20021187
000020 97 99 15 bd fe bd f2 3c f4 22 91 bc 35 ed 58 3b
       -0.036523428 0.029631611 -0.017716862 0.003310037
000030 05 a9 c0 3d 92 94 21 3f ce 2d 5d 3e e5 64 64 bc
       0.09407238 0.63117325 0.21599504 -0.013940071
000040 3e 70 2a 3e a7 02 77 bd f1 c8 aa 3d 29 90 26 3d
       0.1664438 -0.060305264 0.08339108 0.040664826
000050 85 f2 80 3e 45 42 d7 3c 9c eb e4 3d 14 1e 3e 3e
       0.25185028 0.026276717 0.111777514 0.18566161
000060 86 38 3b 3c 7f 3b 1a 3e 30 ca f4 bc 2a 01 22 3e
       0.01142705 0.15061758 -0.029881567 0.15820757
000070 8a da fd 3c 86 b1 28 bd 29 32 b5 bc 84 13 34 bd
       0.030987997 -0.041184925 -0.022118645 -0.043963924
000080 59 52 51 3e 87 53 57 3d 24 df 34 3e f9 df 2d 3f
       0.2044157 0.052569892 0.17663246 0.6791988
000090 f1 00 9c bd 26 2c 8f bd c5 c6 8d 3e e6 1c 57 3e
       -0.07617367 -0.069908425 0.27690712 0.21007118
0000a0 3d ff 94 bd 21 9f 42 3e be aa 1c bd 24 f7 0f 3d
       -0.07275245 0.19006015 -0.03824877 0.0351478
0000b0 90 78 6a 3e 43 db 36 3e 38 37 2b 3e 87 92 ce 3d
       0.22897553 0.17857079 0.16720283 0.100865416
0000c0 ff 0b 39 3e 55 e2 1f 3e 0c 15 1b 3e ae d9 d6 3c
       0.18070982 0.15613683 0.15144747 0.026226845
0000d0 0c 80 4d 3e 7f d0 fa 3c 57 12 38 3e 2d c2 9f 3a
       0.20068377 0.030616997 0.17975746 0.0012188606
0000e0 80 56 d4 3b bb 90 d3 bd 54 af 6a bd 5c 48 89 bc
       0.006480038 -0.103303395 -0.057296112 -0.016758136
0000f0 88 e9 54 3e 4e 00 3e 3e 30 1b 96 bd be d8 27 3c
       0.2079221 0.18554804 -0.07329404 0.010244546
000100 29 6f 42 3b f1 e4 3a bd 28 5d 63 3e 5c 3b 00 3d
       0.0029668307 -0.04562849 0.22203505 0.03130661
000110 6e 8c 0f 3e 06 35 ed bb d6 29 89 3c bd 80 91 bc
       0.14018413 -0.007238987 0.016743582 -0.017761583
000120 4c e5 1b 3e 3c a3 ad 3e f0 2d 52 bd 46 6d 92 bd
       0.15224189 0.339136 -0.05131334 -0.071497485
000130 80 4e 7e 3d 9d 8b 0e 3f 22 ac aa 3e 93 85 77 3e
       0.062086582 0.5568178 0.33334452 0.24172048
000140 2a 79 3d 3d 6a c8 92 bc 39 d6 76 3d a3 c5 15 3e
       0.04625813 -0.01791783 0.060262892 0.14626174
000150 19 ef 72 3d 2c 24 f1 3c a4 99 32 3e 19 42 1e bc
       0.059310053 0.029436193 0.17441422 -0.009659314
000160 05 f5 2c 3e cd c0 d2 bc fd 7e 40 3e b3 67 b2 bd
       0.16890343 -0.0257267 0.18798442 -0.08711185
000170 5f 3e 22 3e 0d 35 37 3e 75 4b 21 3e 1f 65 aa bd
       0.15844105 0.17891331 0.15751441 -0.083200686
000180 98 40 75 3e 5b a5 2c 3e c4 c7 ce 3d 2d 52 3c 3d
       0.23950422 0.16859953 0.10096696 0.045976806
000190 fe ce 05 bc 4b 0c 61 3e c1 8b 4b 3e ff 18 06 3e
       -0.008167027 0.21977346 0.1987753 0.13095473
0001a0 c4 39 32 bd 44 ce 3d 3e 9f 2d 8e 3e 6e f3 5f 3e
       -0.04351212 0.18535715 0.2776918 0.21870205
0001b0 2b 23 39 bd e6 e1 aa 3e 95 f7 84 3d f7 30 fe 3d
       -0.045199554 0.33375472 0.06492535 0.12411683
0001c0 ba fe 7b 3e be fd e7 3d 88 07 87 3b 64 a3 45 3e
       0.24608889 0.11327694 0.004120771 0.1930061
0001d0 45 d9 39 3d c9 1d 3a bd 9d 69 45 3e 2f a8 ab bd
       0.04537322 -0.04543856 0.1927857 -0.08381688
0001e0 e5 a5 40 3d 5e 82 84 3e 41 37 8d bd f4 b7 a8 3d
       0.04703321 0.25880712 -0.068953045 0.08238211
0001f0 b0 5f 66 3d fd 2e 23 3f 13 58 1c 3e f9 8f 1f 3e
       0.0562436 0.63743573 0.15267973 0.15582265

Q.4.weight_mu f4 [4, 128]
000000 a6 ee 84 be 8d 13 24 be 8b 99 c8 3c b5 c4 70 bd
       -0.25963324 -0.16023083 0.024487277 -0.058781344
000010 83 25 31 3d 06 0e 97 bc 9a 16 25 be 4d 21 13 be
       0.043248665 -0.018439304 -0.16121903 -0.14368172
000020 a9 42 6f 3d 1a f0 a9 bd fc 4f d4 bc 84 86 74 bd
       0.05841318 -0.08297749 -0.025917046 -0.059698597
000030 81 05 2a be b5 c5 60 be 08 27 2f be a1 1b 71 3d
       -0.16603662 -0.21950419 -0.17104733 0.05886424
000040 63 ad d0 bd d1 22 29 3d 03 42 e9 bd c4 36 b0 3c
       -0.10189321 0.04129297 -0.11389544 0.02151049
000050 03 ee 48 be 32 e8 83 3d c7 57 f3 be a1 a9 17 be
       -0.19622044 0.06440772 -0.47527906 -0.14810802
000060 b1 78 19 3d 0e 18 45 be 33 b5 ad 3d 0d 03 10 be
       0.037468616 -0.19247457 0.08481827 -0.14063664
000070 ae 20 b0 bd 90 c6 45 bc ba 9d 18 bd 4e 0e fe bc
       -0.08599983 -0.012071267 -0.037259795 -0.03101268
000080 a1 0f 4e be ba e2 57 be 24 07 59 be 49 4f 2e be
       -0.2012315 -0.21082583 -0.2119413 -0.17022432
000090 68 69 28 bd 2c 96 f6 3c 28 f7 c8 be a5 3b 37 be
       -0.04111615 0.030100904 -0.39251065 -0.17893846
0000a0 6b 25 ad bd d7 4b 06 be 08 ec 8e 3d 8e f7 86 bc
       -0.084544025 -0.13114868 0.06978613 -0.016475465
0000b0 28 48 d0 be 3b df 04 be dd f0 01 be 69 9d 33 be
       -0.4068005 -0.1297578 -0.12689538 -0.17540516
0000c0 48 50 df bd b5 24 5b be 0b 5e 42 be e7 dc e3 3c
       -0.10903984 -0.21400721 -0.18981187 0.027815295
0000d0 fd 9a e9 bd 9d 97 40 3d 6f 6a 16 be ff 45 3f 3d
       -0.11406515 0.04701959 -0.14689039 0.046697613
0000e0 d0 88 59 bc 80 e9 8f 3b 00 5c 12 3d 50 a6 3f 3d
       -0.013277248 0.004391849 0.03573227 0.046789467
0000f0 be a4 54 be 16 b4 61 be 67 37 78 bd 1a a6 82 3d
       -0.20765969 -0.22041354 -0.06059971 0.063793376
000100 c3 cf 31 3d 0b 37 a0 3d d2 3b 11 be 93 fe 8c 3d
       0.043411028 0.078229986 -0.14182976 0.06884494
000110 37 ba 20 be 68 7a 7b 3c b4 6c 82 3c 0f 62 6b bd
       -0.15696035 0.015349008 0.015920974 -0.057466563
000120 66 3e 23 be d9 f0 be 3e 3e 9c 38 3d d1 f7 4f 3c
       -0.15941772 0.37293127 0.04507088 0.012693361
000130 bf d9 39 3d 93 e2 68 be 4b df 61 be 17 11 5a be
       0.045373674 -0.22742681 -0.22057836 -0.21295582
000140 20 ed 2d bb 70 d7 c0 3c ef 25 02 be 7a d0 2a be
       -0.0026539043 0.023540229 -0.12709783 -0.1668109
000150 ad 52 13 3d 99 ba 43 3d 8d b0 27 be 90 c6 8e 3d
       0.035967518 0.047785375 -0.16375943 0.069714665
000160 ca 0b fc bd 1c a3 41 bd 99 aa ac bd 38 88 63 bc
       -0.12306936 -0.047274694 -0.084309764 -0.013887458
000170 67 1e 4d 3e e2 be 52 be 96 e6 2a be b0 4e 7d 3c
       0.20031129 -0.20580629 -0.16689524 0.015460655
000180 2e 75 4e be 72 f8 27 be ce 3a 21 be 15 9c e0 3b
       -0.20161888 -0.16403368 -0.15745088 0.006854544
000190 41 2c 20 be 87 8e 34 be 78 4f 2b be 58 35 41 be
       -0.15641882 -0.17632495 -0.16729534 -0.18868005
0001a0 2e dd 65 3d 87 21 58 be b4 6a 79 3e f9 fc 8a bd
       0.056119137 -0.2110654 0.2435711 -0.06786532
0001b0 8c f1 5c bd 65 46 e0 3e 5e 22 29 3d f6 38 b5 bd
       -0.053941295 0.43803707 0.04129254 -0.08848755
0001c0 77 cf 8f 3d 52 95 b6 bd b1 73 8a b9 74 9f 39 be
       0.07021993 -0.08915199 -0.00026407608 -0.18127233
0001d0 80 b4 45 3c 10 d9 43 3c 0f 35 7a be 7c 45 27 3d
       0.01206696 0.011953607 -0.24434303 0.04083775
0001e0 ca ba 3d be 98 fc 8d be 89 c7 7b bc 70 2e 49 be
       -0.18528286 -0.27731776 -0.015367397 -0.19646621
0001f0 d4 1b 60 3d 57 92 8a be 73 06 ca bd 50 d0 53 be
       0.05471404 -0.27064773 -0.09864511 -0.20684934
000200 f7 d0 11 bf d8 44 58 be 4e 39 f5 3c d3 d3 90 3d
       -0.5695948 -0.21120012 0.029934552 0.07071652
000210 10 f6 c6 bb 64 16 93 bc f0 f8 65 be ac 75 26 be
       -0.0060718134 -0.017955013 -0.22458243 -0.16255826
000220 1b 35 53 bb 95 63 67 b9 a1 8c 99 3d 5b 2b 3e bc
       -0.0032227698 -0.00022066974 0.07497526 -0.011607016
000230 20 dc 95 bd 3f e5 25 bf 02 5f 80 bd 5b a2 14 bd
       -0.07317376 -0.64802927 -0.06268121 -0.036287647
000240 57 08 1e be 43 ab ee bc 72 75 22 3e 44 0a f6 bc
       -0.15432869 -0.029134398 0.15865114 -0.030034192
000250 d3 5c e7 bd fe e5 41 bd c1 40 3f be 97 60 61 be
       -0.11297002 -0.04733848 -0.18677045 -0.22009502
000260 06 94 15 bc 58 67 ce bd 2c fc ac 3c 0a 73 af bd
       -0.00912953 -0.10078305 0.021116339 -0.08566864
000270 13 f8 da 3c 9e 1a 0c 3d cf 92 87 3c e2 f7 b7 bb
       0.02672962 0.03420507 0.016549496 -0.0056142667
000280 86 19 0a be 55 f2 ae bd 52 2a 18 be 9e ed 1e bf
       -0.13486299 -0.08542315 -0.14859894 -0.62081325
000290 8d b7 a8 3d cd c5 40 3d 3d 23 a9 3e 95 a4 e3 bd
       0.082381345 0.047063638 0.33034697 -0.11115376
0002a0 16 14 25 bd c4 b5 c8 bd c6 1b a8 bd dd 3b 55 bd
       -0.04030236 -0.09800294 -0.08208422 -0.052059043
0002b0 7f 25 d3 be fe f2 ae bd 1e eb 2c be 00 70 25 3e
       -0.41239545 -0.08542441 -0.16886565 0.16156006
0002c0 84 af 34 be 38 03 05 be 78 d5 9b bd 7e 32 a4 bd
       -0.17645079 -0.12989509 -0.07609075 -0.08017443
0002d0 59 f4 1c be cb f6 50 3b 41 da 16 be 7b 3a 47 bd
       -0.15327586 0.0031885381 -0.14731695 -0.048639756
0002e0 a0 55 02 3d ed b8 a0 3d 40 cd 28 3b fe 0b 43 3d
       0.03181994 0.07847772 0.0025757104 0.04761886
0002f0 70 a6 1a be 08 1d 01 bf b6 71 28 bd 6c 34 4a 3d
       -0.15102553 -0.50434923 -0.04112407 0.0493664
000300 2d 97 91 bb 54 2f df 3c 6d 4c 21 3e 75 51 5c ba
       -0.0044430704 0.027244247 0.1575181 -0.0008404472
000310 3f 54 96 bd ed 9d d3 3c e8 7f 21 bc 70 28 35 3c
       -0.073402874 0.02583214 -0.009857155 0.011057004
000320 32 03 08 be cd a1 03 3f f2 c3 71 bd 4a 58 4f 3d
       -0.13282469 0.51418763 -0.05902476 0.05062131
000330 2f 46 12 bc 0a 74 e9 be 3a 98 85 bf 39 d7 89 be
       -0.008927866 -0.45596343 -1.0437081 -0.26922014
000340 2b 17 19 3d 82 a7 00 bd a1 c9 cd bd 6f 77 b4 bd
       0.03737561 -0.031409748 -0.10048223 -0.08811843
000350 eb 9c 44 3d 44 3a 4a 3d 16 ef 99 bd f7 b0 17 bc
       0.04800121 0.049371973 -0.07516305 -0.0092585
000360 60 1e 2f be bf 10 53 bb ae 6f bd bd f4 c3 b9 3c
       -0.17101431 -0.0032206026 -0.09249817 0.022676446
000370 dd 88 f0 3e 26 1f c0 bd 8d b5 1d be 81 e8 36 bd
       0.46979418 -0.09380941 -0.15401287 -0.044655327
000380 e3 65 34 be d4 5d 06 be f6 19 45 be 95 62 b5 3c
       -0.17616992 -0.1312173 -0.19248185 0.022141734
000390 49 4f f0 3d f3 fa 69 be db 7b 91 bd 44 21 3d be
       0.117338724 -0.22849636 -0.07103702 -0.18469721
0003a0 92 44 23 3d 74 45 a0 bd 8c 1b c8 3e 4d 9f 27 be
       0.039860316 -0.07825747 0.39083517 -0.16369362
0003b0 6a 79 1a 3d 57 ad c4 3e c0 b7 3f bd 6a 3c 93 bd
       0.037713446 0.38413498 -0.046806097 -0.071892574
0003c0 70 68 2d 3f 17 72 c9 bd 66 54 57 3d 4a 5a 35 be
       0.67737484 -0.09836214 0.052570723 -0.17710224
0003d0 05 94 8a 3d df 50 77 bc b3 aa a1 bd e4 ef 7e 3d
       0.06766514 -0.015094965 -0.078938864 0.062240496
0003e0 ac f7 55 3d 4b c5 15 be 2a 26 67 3d 91 ea 04 be
       0.05223815 -0.14626043 0.05643288 -0.12980105
0003f0 7f 06 a8 3b ec e4 2f bf 84 f4 45 be 26 a5 b3 bd
       0.0051277275 -0.6870868 -0.19331557 -0.08771734

Q.4.weight_sigma f4 [4, 128]
000000 57 3e b1 3c c5 81 1b 3d 15 b5 e8 3c f3 04 b5 3c
       0.021636171 0.037965555 0.02840666 0.022097087
000010 a9 d5 04 3d 86 d1 b1 3c 5d 6d 62 bb 46 fd ac 3c
       0.032430325 0.021706354 -0.003455005 0.021116864
000020 ba 35 64 3c f3 04 b5 3c f3 04 b5 3c f3 04 b5 3c
       0.013928825 0.022097087 0.022097087 0.022097087
000030 03 01 03 3c f9 b0 2d bd 98 96 2f 3c 72 08 83 3c
       0.007995847 -0.042405102 0.010717057 0.015995238
000040 16 db b6 3c a1 e9 8b 3c 11 b9 21 3d f3 04 b5 3c
       0.022321265 0.017079176 0.039483134 0.022097087
000050 4d 19 e4 3c 8b f3 ba 3c 92 4b e0 3b 96 ed 34 3c
       0.027844096 0.022821208 0.006844946 0.011042973
000060 92 77 5a 3c 74 56 77 3c f3 04 b5 3c d3 9a 27 3d
       0.013334172 0.015096296 0.022097087 0.040919136
000070 f3 04 b5 3c b5 f7 a7 3c 0b 3a 93 3c da 52 44 3c
       0.022097087 0.020503858 0.017972013 0.011982644
000080 c7 bd 0f 3d 2a af 38 3d fc 4c 2c 3c 3d 30 e5 3c
       0.035093095 0.045088924 0.010516401 0.027977103
000090 50 37 e6 3c 0d ed ba 3c 59 a8 80 3d a3 5b af 3c
       0.028102547 0.022818113 0.0628211 0.021406
0000a0 2e 01 c3 3d df 1e bb 3c ae da bf 3c c7 18 de 3c
       0.095217094 0.022841869 0.023419704 0.027111424
0000b0 42 83 8b 3b 72 bb 5b 3b 14 a0 ec 3b fd 94 c7 3c
       0.0042575905 0.0033528474 0.0072212312 0.024363035
0000c0 bc cc 22 3d 7b 64 c0 3b 34 b1 8b 3c 46 f8 94 3c
       0.03974603 0.005871353 0.01705227 0.018184792
0000d0 56 e9 ec 3c 56 74 90 3c fb cf ca bb 25 65 b5 3c
       0.028919857 0.017633598 -0.006189344 0.022142956
0000e0 f3 04 b5 3c f3 04 b5 3c 8b d2 83 3c 82 d2 83 3c
       0.022097087 0.022097087 0.016091606 0.016091589
0000f0 92 e1 a4 3c e9 d0 17 3c e2 33 c6 3c d1 8b a7 3c
       0.020127092 0.009266117 0.024194662 0.020452412
000100 7a 72 c8 3c f3 04 b5 3c a3 aa 01 bc e2 05 ce 3c
       0.02446865 0.022097087 -0.007914218 0.02514929
000110 05 83 fc 3b 5b 3d aa 3c 4e db 9b 3c f3 04 b5 3c
       0.0077060484 0.02078121 0.019025471 0.022097087
000120 9f e4 08 3d 4d 9e 2d bb f3 04 b5 3c 8d 37 fc 3c
       0.033421155 -0.002649206 0.022097087 0.030788207
000130 eb dd 93 3c fa 65 d0 3c 52 e4 85 3b 2d 4a 5f 3c
       0.018050155 0.025439251 0.004086056 0.013628525
000140 f3 04 b5 3c f3 04 b5 3c 15 6a 85 3c b4 f6 17 3b
       0.022097087 0.022097087 0.016285935 0.0023187818
000150 86 73 05 3d 7d ee eb 3c cd 2b 92 3c b1 fb 8d 3c
       0.032580875 0.028800244 0.017843151 0.01733193
000160 ac 0c c6 3c 8c 13 be 3c fd a2 d9 3c f3 04 b5 3c
       0.024175964 0.02320268 0.026566977 0.022097087
000170 b7 46 29 bc 30 38 d5 3c 91 f7 dd 3c a8 52 ef 3c
       -0.010331801 0.026027769 0.027095588 0.029214218
000180 b5 4f 05 3d ad 1a be 3b eb c3 8e 3c f3 9e 96 3c
       0.032546718 0.00580152 0.017427405 0.01838634
000190 d5 1d 48 3c 66 88 3a 3d be b4 13 3d 7b 24 6b bc
       0.012214144 0.045540236 0.03606104 -0.014351959
0001a0 f3 04 b5 3c ad 29 b3 3c 58 b9 00 bc c4 5e 76 bd
       0.022097087 0.021870458 -0.007856689 -0.06014897
0001b0 f3 04 b5 3c 11 30 8b bc f3 04 b5 3c d1 10 a3 3c
       0.022097087 -0.016990693 0.022097087 0.01990548
0001c0 f3 04 b5 3c 09 26 87 3c fc 54 f7 3c 74 8e 2e 3d
       0.022097087 0.016497629 0.03019189 0.042616323
0001d0 83 b2 b1 3c f3 04 b5 3c c8 f4 57 bc d4 c4 52 3c
       0.021691566 0.022097087 -0.013180919 0.01286431
0001e0 21 e0 85 36 fe 57 b2 3c 87 de 03 3d c9 60 c4 3c
       3.989801e-06 0.021770474 0.03219464 0.023971932
0001f0 bc 2a 3c 3c 26 aa 64 bd 42 e9 a4 bc 6b 50 f5 3c
       0.011484798 -0.05582633 -0.020130757 0.029945573
000200 14 37 d9 bc 75 72 63 bc 0c 19 8d 3c f3 04 b5 3c
       -0.026515521 -0.013882269 0.017223857 0.022097087
000210 f3 04 b5 3c fe c6 7f 3c a7 89 04 3b 08 29 1e bc
       0.022097087 0.015611408 0.0020223649 -0.009653337
000220 cb aa 85 3c 91 b2 bc 3c f3 04 b5 3c ff 76 9f 3c
       0.016316792 0.023034366 0.022097087 0.019465921
000230 36 e6 9e bc 4e 01 0b 3d a6 7a 2f 3c 46 f1 8a 3c
       -0.019396883 0.03393679 0.010710394 0.016960751
000240 c0 89 97 3b ed 3f e6 3c 69 63 32 bb 65 a1 6b 3c
       0.0046245754 0.028106654 -0.0027219898 0.014381741
000250 7b 63 df bb 78 ef 36 3c e0 ce 17 bc 08 97 99 3b
       -0.006817279 0.011165492 -0.009265631 0.004687194
000260 70 2d d2 3c 89 a5 c0 3b f3 04 b5 3c 50 50 c7 bb
       0.025656432 0.0058791083 0.022097087 -0.006082572
000270 33 bc 43 3d b2 55 d7 3c 06 4d 31 3c 25 27 d0 3c
       0.047786903 0.02628598 0.0108215865 0.02540929
000280 39 6a 9e 3b 0f 47 2f 3d 92 92 ca bb e6 d1 b1 bb
       0.00483444 0.042792376 -0.0061820233 -0.005426633
000290 f3 04 b5 3c 8b 58 3b 3d 94 e3 c5 bb 6c bf 1c bb
       0.022097087 0.045738738 -0.0060390923 -0.0023917807
0002a0 40 42 69 3d b6 16 3a 3b 7c 62 57 3c b1 85 70 3c
       0.056947947 0.0028394884 0.013146039 0.014680312
0002b0 41 15 ab ba cc b4 a0 3c 8e 19 86 3b 75 82 9a bb
       -0.0013052599 0.01961746 0.004092402 -0.0047152587
0002c0 91 7c 87 bc 02 5b c0 bc c3 3e 44 3c b6 69 0b 3d
       -0.01653889 -0.023480896 0.011977854 0.03403636
0002d0 8d c1 b5 3a 13 65 e9 3c ed 17 19 3c 2f ae 7c 3c
       0.0013866887 0.028490579 0.009344083 0.015422388
0002e0 f3 04 b5 3c f3 04 b5 3c f3 04 b5 3c 61 37 e6 3c
       0.022097087 0.022097087 0.022097087 0.028102579
0002f0 06 93 89 ba 1d 83 42 3d 4e 1f 33 3c 96 14 cd 3c
       -0.0010496087 0.04748832 0.010932757 0.02503423
000300 d2 01 12 3d f3 04 b5 3c 51 7c f9 3a ed 20 90 3c
       0.035646267 0.022097087 0.0019034242 0.017593825
000310 30 2f 51 3b 86 20 ae 3c 51 9b bf 3c f3 04 b5 3c
       0.0031918995 0.021255743 0.02338949 0.022097087
000320 67 77 53 3b 6e e3 c8 b9 13 50 4c ba f3 04 b5 3c
       0.0032267214 -0.0003831642 -0.00077939144 0.022097087
000330 af 89 fe 3c 24 88 42 3c 0f dc 92 3a 12 01 41 3b
       0.031071512 0.011873279 0.0011204499 0.00294501
000340 4c a7 5b 3d f3 04 b5 3c b5 b2 36 bb c9 8f fc 3a
       0.053626344 0.022097087 -0.0027877514 0.0019268926
000350 b6 10 11 3d 09 34 8e 3c d7 92 99 ba 0b 39 04 3d
       0.035416327 0.017358797 -0.0011716735 0.032280963
000360 9b 08 a2 39 7a d5 98 3c ea e6 be bb f3 04 b5 3c
       0.0003090546 0.018656481 -0.005825867 0.022097087
000370 04 0b 3c b9 60 e9 00 3c 9a 4b 49 bd a5 0e 89 3c
       -0.00017933181 0.007868141 -0.049144365 0.016730616
000380 69 ae c7 3a fe 4d ad ba 4b 9b 02 3d 04 3c ac 3c
       0.0015234473 -0.0013222096 0.03188638 0.021024711
000390 40 e2 5a 3c e4 c1 e2 3b e6 07 8a 3c 66 e8 1e bc
       0.013359606 0.006920086 0.01684947 -0.009698963
0003a0 f3 04 b5 3c d3 31 43 3c c3 9b 0c 3a 9a 0b 88 bc
       0.022097087 0.0119137345 0.00053637865 -0.016607095
0003b0 f3 04 b5 3c be a5 08 3b f3 04 b5 3c ae 16 f2 3c
       0.022097087 0.0020850743 0.022097087 0.02955183
0003c0 22 16 05 3c 1f df 0d bb 84 07 6d 3c ed 24 9d 3b
       0.008122953 -0.0021647883 0.014467124 0.0047956617
0003d0 f3 04 b5 3c 8f 09 88 bb dd 90 90 3a 0a 9e e6 3c
       0.022097087 -0.00415153 0.0011029501 0.02815153
0003e0 3d af e2 3c ba 13 bc bc 6c 51 81 3c 66 87 84 bb
       0.02767145 -0.022958625 0.015785895 -0.004044461
0003f0 5c 8f ca 3c 50 2d 61 bc b8 d5 8e 3c 91 fa 06 bd
       0.024726562 -0.0137437135 0.017435893 -0.032953802

Q.4.bias_mu f4 [4]
000000 42 fa 1e bf 01 f3 e5 bf 8d ed 72 be 60 4e 76 bf
       -0.62100613 -1.7964784 -0.23723431 -0.9621334

Q.4.bias_sigma f4 [4]
000000 8b 06 1f 3e d2 04 94 3d ad 8a e7 3d 5b 38 11 be
       0.1552984 0.07227482 0.11305747 -0.14181654

Q.4.weight_epsilon f4 [4, 128]
000000 31 01 81 be 82 22 da be bd 49 04 bf c5 d5 d7 3e
       -0.2519622 -0.42604452 -0.51675016 0.4215528
000010 fd d8 6f be 16 17 a9 be 56 78 04 bf 08 6c cc be
       -0.23422618 -0.33025426 -0.5174612 -0.3992617
000020 59 1f 06 bf 30 9f d4 3e a2 f8 3c 3e 60 0d 86 be
       -0.5239158 0.415277 0.18454221 -0.2618208
000030 7e f5 dc be f1 7b 14 3e 14 3c c0 be 32 90 09 3f
       -0.43156046 0.14500405 -0.37545836 0.5373565
000040 92 f1 15 bf 25 c8 76 3e cb c1 14 bf 67 3e 21 3e
       -0.5857173 0.24099787 -0.58108205 0.15746461
000050 3d 33 83 be 68 29 42 be 92 d6 d6 3e 56 7a e4 be
       -0.2562503 -0.18961108 0.4196058 -0.44624585
000060 94 cb 6e 3e 03 94 95 3d 24 7f ec be 1c 4f 93 be
       0.23319846 0.073036216 -0.4619075 -0.28771293
000070 49 c6 f6 be a2 13 de 3e bc 5c 03 bf 44 e8 ab 3e
       -0.48198155 0.43374354 -0.51313376 0.33575642
000080 0b 2a b3 3e f2 90 d1 3d d1 58 21 be 06 41 ec be
       0.34993014 0.10232724 -0.15756537 -0.4614336
000090 ad 6f f3 be 29 b6 2d bf fa 67 02 bf 80 73 f2 be
       -0.4754614 -0.6785608 -0.50939906 -0.47353745
0000a0 63 2c f2 3e b9 6f a2 be 31 db 78 be bb 36 d3 be
       0.4729949 -0.31725863 -0.24302365 -0.41252694
0000b0 24 f7 33 3e 36 45 d2 be c4 6f 07 3e 7c 45 ef be
       0.17574745 -0.4106843 0.13226229 -0.467327
0000c0 0e 34 19 bf a7 fa bf be 53 8e a5 3e 08 4a c7 3e
       -0.59845054 -0.3749592 0.32335147 0.3892367
0000d0 4c 17 0c bf 13 8f e2 3e 8a a0 dc be 05 60 a2 3d
       -0.5472305 0.44249782 -0.43091232 0.079284705
0000e0 07 05 24 3f bb f8 3e 3e 74 a7 83 be 4c 47 9a be
       0.6407017 0.1864957 -0.25713694 -0.3013252
0000f0 6a 52 09 bf 36 19 cc 3e 5e 0c b3 3e f5 7e e2 be
       -0.5364138 0.39862984 0.34970373 -0.44237486
000100 40 be 61 be a7 28 0b bf 66 58 57 3e 7b 5d e9 be
       -0.22045231 -0.54358906 0.21029815 -0.45579132
000110 66 1c aa be e5 87 bc be ce 92 b3 be 8c 16 ff 3e
       -0.3322479 -0.3682243 -0.3507294 0.4982189
000120 64 b3 c2 3e c6 95 f4 3e bb d7 e2 be fd 44 45 be
       0.3802749 0.47770518 -0.44305214 -0.19264598
000130 51 cd 1a 3f 76 87 05 be fd 1d ab 3e 02 3d 00 3f
       0.6046954 -0.13039955 0.33421317 0.5009309
000140 8a 78 8a 3e 41 5e 77 be b4 3a 96 3e 7a 61 bc bd
       0.2704509 -0.24157049 0.29341662 -0.0919828
000150 1c f4 f2 be 14 f1 d1 3e 61 b1 02 3f b8 3e a9 3e
       -0.47451866 0.4100424 0.5105191 0.33055663
000160 f5 ed 8d be b6 1c 7c 3e 3d 78 1c 3f 85 ec 64 3e
       -0.2772061 0.24620327 0.6112097 0.2235585
000170 fe 47 03 bf 38 40 70 3e ed db 9d 3e a5 46 6f 3e
       -0.51281726 0.23461998 0.30831853 0.23366793
000180 2c 4d 01 bf 86 cd 8f 3e 5f f5 39 3e f3 61 ce 3e
       -0.5050838 0.2808649 0.18160008 0.40309104
000190 df 26 29 be eb ea 7e bc f2 09 34 3f 8c 50 0e be
       -0.16518734 -0.0155589385 0.70327675 -0.13897914
0001a0 c0 5f 9e 3e ed 69 e2 3e f0 74 df be 66 e0 04 bf
       0.30932426 0.4422144 -0.43643904 -0.51904905
0001b0 25 4a 67 3e ec 22 a3 be ba 50 fd 3e d4 45 5d 3e
       0.22586878 -0.3186258 0.49475652 0.21608669
0001c0 ff f9 79 be e1 49 97 be 7f 15 a6 3e db 4b bf 3d
       -0.24411772 -0.29548553 0.32438275 0.0934064
0001d0 ea 0e 5d 3e 6d a8 9f be 50 44 8f be 69 84 b8 be
       0.2158772 -0.31183186 -0.27981806 -0.3603852
0001e0 e9 b8 5e 3e e8 89 08 3f 5d cb 5e 3e cf 0d 95 3e
       0.21750225 0.5333543 0.21757264 0.29112098
0001f0 fc 6f e6 be 87 a8 db be 40 1e c1 be 9a 46 c6 be
       -0.45007312 -0.42902014 -0.3771839 -0.3872574
000200 aa 30 e4 3e 8e ec 40 3f 78 ff 69 3f dc e3 3e bf
       0.44568378 0.75360954 0.9140544 -0.74566436
000210 9e 20 d4 3e 38 8c 15 3f e3 51 6a 3f cc cb 34 3f
       0.41431135 0.5841708 0.915312 0.7062347
000220 23 3e 6d 3f 59 0c 3c bf 8b 21 a7 be 59 1e ed 3e
       0.9267294 -0.7345634 -0.3264278 0.46312216
000230 fc 6b 43 3f be 52 83 be 6e 04 2a 3f 39 54 73 bf
       0.76336646 -0.25649065 0.6641301 -0.9505039
000240 30 9d 84 3f 9d 42 da be 85 90 83 3f af 9b 8e be
       1.036047 -0.42628947 1.0278479 -0.27853152
000250 d7 12 e8 3e bf b8 ab 3e 28 02 3e bf 5d 12 4a 3f
       0.45326874 0.33539388 -0.7422204 0.7893427
000260 59 32 d3 be 72 4a 04 be eb 29 51 3f ae 48 02 3f
       -0.4124935 -0.12919024 0.81704587 0.5089215
000270 f8 40 5a 3f 0d 69 44 bf 3e 5c 68 3f 0c 0a 18 bf
       0.85255384 -0.76722795 0.9076575 -0.5939033
000280 1d 75 1e bf 83 58 39 be 0c b3 8e 3e fa f2 50 3f
       -0.6189745 -0.18100171 0.27870977 0.8162075
000290 21 4d 57 3f 8f a2 99 3f 4c ab 66 3f 19 6e 56 3f
       0.84102064 1.2002734 0.9010513 0.83761746
0002a0 35 2f 56 bf b7 a9 0f 3f 49 18 dc 3e 8d cd 3a 3f
       -0.8366578 0.5611834 0.42987278 0.72969896
0002b0 82 2a 9f be f2 f7 39 3f 35 91 6f be 2a 9e 53 3f
       -0.31087118 0.7264396 -0.23395236 0.82663214
0002c0 3a 7f 87 3f 91 ca 29 3f 05 6c 12 bf aa 41 30 bf
       1.0585701 0.66324717 -0.57196075 -0.68850195
0002d0 da cc 77 3f e1 5f 48 bf d9 20 43 3f d4 9b 0f be
       0.96796954 -0.782713 0.76221997 -0.14024287
0002e0 2e 10 91 bf 74 e6 a8 be 68 e0 e8 3e a9 72 08 3f
       -1.1333063 -0.32988322 0.45483708 0.5329996
0002f0 f2 e6 72 3f 8d 82 34 bf de 5a 1e bf a0 51 48 3f
       0.94883645 -0.70511705 -0.618574 0.7824955
000300 30 a7 c7 3e ba 26 76 3f fa 74 be be e8 64 4e 3f
       0.3899474 0.9615284 -0.3719862 0.8062272
000310 54 73 16 3f d6 bd 26 3f c4 d1 1e 3f 42 9b 61 bf
       0.58769727 0.65133417 0.62038827 -0.8812753
000320 c8 32 2c bf 3d 51 58 bf 23 a0 48 3f 60 78 ae 3e
       -0.67264986 -0.8449896 0.7836935 0.34076214
000330 31 e9 88 bf 78 31 6c 3e 26 57 17 bf a4 d5 62 bf
       -1.0696164 0.23065746 -0.5911735 -0.8860724
000340 34 ef f4 be 5f c7 da 3e df dd 04 bf db 9b 26 3e
       -0.47838748 0.42730233 -0.5190105 0.16270392
000350 d8 df 56 3f 88 ad 39 bf 23 2d 67 bf 44 af 15 bf
       0.8393531 -0.7253041 -0.9030325 -0.5847056
000360 61 0d fb 3e 79 f9 de be c5 62 8a bf 5a 77 ca be
       0.49033645 -0.43549708 -1.0811392 -0.39544183
000370 8d 37 68 3f eb 7b d4 be 59 9d 0b bf 30 9f d3 be
       0.90709764 -0.41500792 -0.5453697 -0.41332388
000380 0f b7 64 3f a9 5d fe be 6b 77 a4 be b6 87 36 bf
       0.89341825 -0.49680832 -0.3212236 -0.7130083
000390 2e 9a 95 3e ac 74 e1 3c 23 3b 9f bf c5 bb 7b 3e
       0.29219192 0.027521454 -1.2439922 0.24583347
0003a0 f1 11 0c bf 06 3f 48 bf 86 a1 45 3f f6 09 6b 3f
       -0.54714876 -0.78221166 0.7719959 0.91812074
0003b0 fb 8e cc be 35 48 10 3f e3 09 60 bf 08 b3 c3 be
       -0.39952835 0.5636018 -0.87515086 -0.38222528
0003c0 f1 15 dd 3e b4 cd 05 3f 92 e3 12 bf f9 2f 29 be
       0.43180802 0.52267003 -0.57378495 -0.16522206
0003d0 77 82 c3 be a1 34 0d 3f f5 6a fd 3e 19 31 23 3f
       -0.38185474 0.5515843 0.49495664 0.6374679
0003e0 3a fb c4 be 46 84 71 bf 8c 0b c5 be c0 d3 03 bf
       -0.3847292 -0.9434246 -0.38485372 -0.5149498
0003f0 09 ce 4b 3f 80 45 42 3f 77 cc 2a 3f 38 5c 2f 3f
       0.7961126 0.758873 0.6671824 0.6850009

Q.4.bias_epsilon f4 [4]
000000 7c 04 d8 be 2d 0d 3f 3f b2 03 79 bf 0b 9e 55 3f
       -0.4219092 0.7462948 -0.97271264 0.8344428
