model_w/Noisy_DQN/NoisyNetDQN_17999k.pth (torch, 77586 bytes, 10 tensors)

Q.0.weight f4 [128, 2]
000000 00 3a e6 bb 30 91 fb be 2c 2d 0e bf d4 1e 48 be
       -0.007025957 -0.49134207 -0.55537677 -0.1954301
000010 00 0c ce be a9 d5 ee 3b 92 da 80 3e f6 e4 26 bf
       -0.4024353 0.007288654 0.25166756 -0.65193117
000020 30 8c 2e bf b5 b4 05 3c a2 fb f4 be 11 d1 d3 3d
       -0.6818266 0.00816076 -0.4784823 0.103426106
000030 8a 3a 8b bf f1 24 c2 3e 48 3c f8 3a 03 48 d8 bc
       -1.087724 0.3791881 0.0018938864 -0.026401525
000040 e1 ea 80 be bf 67 e4 3e a3 9b 2b bf 09 c1 00 bf
       -0.25179198 0.44610402 -0.6703436 -0.5029455
000050 cb 54 a3 be 22 ba 64 3d f7 07 2d bf 78 db 0c 3e
       -0.3190063 0.055841573 -0.6759028 0.13755596
000060 7e c1 7c 3f ea 65 e1 3b ba 29 5e be 62 d8 18 bf
       0.98732746 0.006878604 -0.21695605 -0.59705174
000070 e3 b2 9d 3f 2c 52 eb bb 44 53 53 be b0 3f 09 bd
       1.2320217 -0.0071814265 -0.20637232 -0.033508003
000080 bb 7f 72 3f 9b d7 87 bd 9f d9 34 bf e6 39 bf be
       0.9472615 -0.0663292 -0.70644563 -0.3734886
000090 8f eb 5e 3f 54 d1 e1 3e a2 90 71 bf db ff 4d 3c
       0.87078184 0.44105017 -0.9436132 0.012573208
0000a0 24 ea 0c 3f 9b 96 3b 3c b9 25 5c bf 0b c6 87 bc
       0.5504477 0.011449481 -0.8599506 -0.016573926
0000b0 51 cd 42 3f da 33 dd 3d 33 e2 48 bd 6b d5 d3 bc
       0.7609454 0.108009055 -0.049043845 -0.025858602
0000c0 fb 05 85 bf 76 3a 9e 3e e4 48 21 be d0 f1 fd bd
       -1.039245 0.30903977 -0.15750462 -0.12399638
0000d0 20 b8 78 3f 65 0d 84 3c 7b 5c d1 be 85 34 8a 3e
       0.9715595 0.016119668 -0.4089087 0.26993194
0000e0 2d 9a 5b bf f6 5f 18 bc e4 30 72 be d6 e9 1c 3d
       -0.8578213 -0.009300223 -0.23651463 0.03830894
0000f0 e0 13 7d bd b4 a0 a8 be 14 7d 0c bf b0 cc 24 3e
       -0.061786532 -0.32935107 -0.54878354 0.16093707
000100 9d 35 09 3f b3 60 50 3d bd c1 3f bf ec 09 e0 bc
       0.5359743 0.05087347 -0.74904996 -0.027348481
000110 48 77 71 3e ae 07 61 be a7 02 74 3f 2d be 2c 3e
       0.23580658 -0.21975586 0.9531655 0.16869421
000120 14 fd 16 bf 43 58 8e be 0c 4d 91 3f d6 6d 80 3e
       -0.58979917 -0.27801713 1.1351638 0.25083798
000130 33 fb 3e bf e6 48 17 3c f0 64 79 be a8 dd 0b bf
       -0.7460205 0.009233689 -0.24354911 -0.54635096
000140 8f ce f3 be 40 ea ee bd ef ae 80 3f 56 9c a6 bc
       -0.4761853 -0.116657734 1.0053385 -0.020338219
000150 94 1c 6e be 00 9b 08 be f0 f9 8a 3f 3c 09 a1 bc
       -0.23253089 -0.13340378 1.0857525 -0.019657724
000160 07 89 3a 3f 6e de c2 3b fa 46 83 bf 15 9c 0b 3c
       0.7286534 0.005946926 -1.0256035 0.0085211
000170 ff bc 39 be 0c 19 d4 3e a7 df 81 3f 1b ba de be
       -0.18138503 0.4142536 1.0146378 -0.43501362
000180 3d 53 92 3e 84 2c f5 3d f2 e5 88 bf 20 69 ad 3e
       0.2857913 0.11971381 -1.0695174 0.33869267
000190 25 9f 86 bf 41 e2 79 bc 81 f8 8a be 43 40 77 bc
       -1.0517317 -0.015251697 -0.27142718 -0.015091005
0001a0 df 35 0c 3f 41 c1 11 bd 78 db e2 be 8c a8 78 3b
       0.547697 -0.035584692 -0.44308066 0.0037942259
0001b0 c8 57 ae 3f 6c 2b 72 3a b6 fb 00 bf a1 cb 12 3d
       1.3620539 0.0009238038 -0.5038408 0.035838727
0001c0 d9 8e 1f bf f0 94 a1 3e 73 0c 5f 3c ca b5 16 3e
       -0.62327343 0.31558943 0.013613808 0.14717785
0001d0 72 15 9d 3e e0 9d f0 bd e1 23 a1 be f8 73 b8 bd
       0.30680424 -0.11748862 -0.31472686 -0.09006494
0001e0 3a ee b8 3e 2e ee cb be 19 89 75 3f 7f d5 c8 3e
       0.36119252 -0.39830154 0.9591232 0.39225385
0001f0 89 d6 73 3f fa 3c 70 bc 22 14 dd be 91 84 b2 3d
       0.9524923 -0.014662975 -0.43179423 0.08716691
000200 df 92 8c be 92 d1 8e 3e 39 3d 62 bf ca 67 55 3c
       -0.27455804 0.27894264 -0.8837467 0.0130252335
000210 3f 82 e0 3e 7e 6e c5 3d 22 8f 2a 3f 96 f5 d4 3d
       0.4384937 0.09640215 0.66624653 0.10398404
000220 e0 23 3c be 30 9f 66 bd 3d cd d1 bd a2 98 bd bd
       -0.1837306 -0.056304157 -0.10244224 -0.09257628
000230 68 7f fb be f0 47 49 bd 3c 9c 86 3f e2 75 9b 3e
       -0.4912064 -0.04914087 1.0516429 0.30363375
000240 66 50 8e 3e 8d 19 73 3e 4a 2e 98 3f de 12 56 3d
       0.27795714 0.23740216 1.1889126 0.052264087
000250 0e f6 2e 3f c4 37 d0 3e 1f 4c 5e be 19 86 a4 3e
       0.683442 0.40667546 -0.21708725 0.32133558
000260 ce ff dc 3e 91 27 bf be 93 36 99 3f a4 26 0d 3d
       0.43163913 -0.37334874 1.196978 0.03446068
000270 ab 20 ad 3f a9 f0 ad bd 26 2e f8 3e 01 f0 9f 3e
       1.3525594 -0.08493168 0.48472708 0.31237796
000280 ef ae 37 bd 03 b3 1f bf 43 50 11 bf 9c 8d 80 3e
       -0.044844564 -0.62382525 -0.56763095 0.2510804
000290 9a 5d 32 bf 4f 9a 98 3e 10 0b b4 be 9e 46 fb be
       -0.69674075 0.29805228 -0.3516469 -0.49077314
0002a0 c4 4c 13 be 4b 52 d4 3e 42 79 0d bf 34 8c 0c 3e
       -0.14384753 0.41469035 -0.5526315 0.13725358
0002b0 47 d2 66 3f 3a 1e cc 3d d1 c5 95 3f 21 02 dc bc
       0.9016461 0.09966703 1.1700994 -0.026856484
0002c0 44 aa 9f 3f c4 fb d8 bd a9 82 60 bf 56 f2 09 bd
       1.2473836 -0.105948955 -0.8769937 -0.033678375
0002d0 84 e7 6c bf db a6 e8 3e 61 1c 8d 3f 11 74 e7 3c
       -0.92540765 0.454398 1.1024286 0.028253587
0002e0 35 83 aa be 50 58 08 3e 01 74 09 3f e7 fe 8f 3e
       -0.33303228 0.13314939 0.5369263 0.28124163
0002f0 b1 aa 58 bf 79 b2 9c bc 1d 53 2c bf 3e 08 75 3d
       -0.84635454 -0.019128071 -0.6731432 0.059822313
000300 bc 4a ad 3f 4b d5 8c be c1 26 d8 3e dc d6 be bc
       1.3538432 -0.2750648 0.42217067 -0.023295812
000310 29 6e 4e 3f 72 78 36 3e b3 12 8a bf dc cf 98 3e
       0.8063684 0.17819384 -1.0786957 0.29846084
000320 49 2e c4 be 7c 74 87 bc 2d 24 96 3f 22 36 21 be
       -0.38316563 -0.016535036 1.172979 -0.15743306
000330 46 f9 71 3f fb d6 6e bd f0 1d 11 3f 09 3a bf bc
       0.94520986 -0.05831049 0.56686306 -0.023343103
000340 ee 4a 67 3f 0c c0 52 bc 4a 5a 6f 3f 6e ee c5 bd
       0.9034871 -0.01286317 0.93497145 -0.096646175
000350 f2 99 86 bf 14 46 11 3f 62 aa a7 3e 60 f4 9a be
       -1.051573 0.56747556 0.3274718 -0.30264568
000360 e6 fa f4 be 4a 8a 89 3d a6 d8 9a 3f f7 99 fb bb
       -0.4784767 0.0671583 1.2097366 -0.007678266
000370 34 4e 45 3e bb f0 2c bf 46 1e 1c bf e9 c8 6b 3e
       0.19268113 -0.67554826 -0.60983694 0.2302586
000380 74 67 83 3f c7 e1 45 3d 08 61 33 bf c3 5e 2c bf
       1.0265946 0.04831102 -0.7006993 -0.67332095
000390 4c 84 ce be 13 04 c0 be a7 9d 9c 3e 13 d1 90 3e
       -0.4033531 -0.37503108 0.3058903 0.2828451
0003a0 aa a0 07 bf 4b e2 27 bf 42 05 86 bf 2a 3c 92 3e
       -0.5297953 -0.6557967 -1.0470355 0.28561527
0003b0 6d 04 8e bf 56 09 a2 3e 38 89 23 bf 63 8d b3 3b
       -1.1095101 0.31647748 -0.63881254 0.005479501
0003c0 10 5d 45 bf 91 52 39 bb 85 2b 51 3f 11 5c 4d 3e
       -0.7709513 -0.0028277973 0.8170703 0.20054652
0003d0 03 32 a8 3e b0 81 ca 3e 95 f9 77 3f 59 f4 17 3e
       0.32850656 0.3955207 0.96865207 0.14839305
0003e0 80 8f 97 bf ec 2b 35 3c 1a e2 7a 3f 89 f1 80 3c
       -1.1840668 0.011057835 0.98001254 0.015740173
0003f0 23 a6 ea 3e 25 61 4d be 69 f5 d2 3e e6 ce a0 bc
       0.45829877 -0.20056589 0.41202858 -0.019629907

Q.0.bias f4 [128]
000000 6e 4b 65 be 42 c5 1a bf 52 e7 c4 be d3 d6 ee 3e
       -0.22392055 -0.6045724 -0.38457733 0.46648273
000010 ab 70 0b bf 70 29 a1 bf 25 da 8e 3f d3 6b ae 3f
       -0.5446879 -1.2590771 1.1160322 1.3626655
000020 a3 6c 9c bf ba ad fa be 9a 3a 5e bf 2b 49 86 bf
       -1.2220653 -0.48960668 -0.8680817 -1.0491079
000030 9b b3 46 be 72 db ca be f5 72 14 3f ec 2b 04 be
       -0.19404452 -0.39620548 0.5798791 -0.1290738
000040 16 1f 48 3f 6b 4f 03 bf 0b 50 91 3f 95 69 89 3f
       0.78172433 -0.5129306 1.1352552 1.0735346
000050 dc 0e 9b be 5d cb 9d 3f bb 7c 95 be 70 1a b0 3f
       -0.30284774 1.2327687 -0.29196724 1.3758068
000060 5a b1 4c 3f c0 f8 7c bd ec 1b 85 be ea 42 86 bc
       0.79958117 -0.061760664 -0.25997865 -0.016389329
000070 75 75 90 3f 64 07 4a bf 1c 6f 25 bf 75 a0 9a bf
       1.1285845 -0.7891753 -0.64622664 -1.2080218
000080 da 6b c0 3e dd 80 8e 3f ba 47 19 bf 67 f9 d9 be
       0.37582284 1.1133076 -0.5987507 -0.4257309
000090 76 be a5 be 89 b8 6e 3f 4d dc 55 3f 87 81 cd be
       -0.32371873 0.9325033 0.8353928 -0.40137884
0000a0 ad 79 2d bf c1 69 a1 3f f9 fd 28 bf 7f 80 96 3f
       -0.6776379 1.2610399 -0.6601253 1.1757964
0000b0 45 dc 81 3f 48 17 97 3f ad c1 6d bf 14 86 24 3f
       1.0145346 1.180398 -0.9287365 0.64267087
0000c0 26 8e 88 bf e9 35 54 bf 1b 59 b5 3f 78 51 13 3f
       -1.066838 -0.8289476 1.4167818 0.57546186
0000d0 04 19 ac bd b6 4d 9c 3f 83 e7 81 be 39 45 29 bf
       -0.08403209 1.2211215 -0.25371942 -0.6612125
0000e0 23 3e a1 3d 1a b5 62 bf 0b f2 2f bf bf ed 02 bf
       0.0787318 -0.8855759 -0.68728703 -0.5114402
0000f0 a7 98 de be 12 3d 63 be f6 c5 59 3f f1 b8 90 bf
       -0.4347584 -0.22191265 0.8506769 -1.130644
000100 ce 82 94 3f fa 2c 80 3f 2d 85 81 bf e4 c5 fd be
       1.1602418 1.0013726 -1.0118767 -0.4956504
000110 c8 1a 98 bd b9 c2 8e 3f af 6e 0f bf 38 4b 77 3f
       -0.07426983 1.1153175 -0.56028265 0.9659915
000120 4a 05 7f 3f 4d a7 a4 3f 70 4c 82 bf 9a fa 93 3f
       0.99617445 1.2863556 -1.0179577 1.1560853
000130 48 4e f1 be 06 c3 cc be 61 a7 06 3f 8b 61 54 3f
       -0.47130036 -0.3999254 0.5259915 0.8296134
000140 4a 4c 80 3f 1b 7d 82 bf 63 25 60 bf f8 34 ce be
       1.0023282 -1.0194429 -0.8755705 -0.40274787
000150 9c d9 c3 be 13 13 aa 3e 29 4e 93 bf 2c c2 aa 3f
       -0.3825196 0.33217677 -1.1508228 1.3340507
000160 d9 ee 1f 3e 81 ed b7 3f 1b 9d d9 3e c0 d1 82 3f
       0.15618457 1.4369355 0.42502674 1.0220261
000170 35 31 95 bf f1 f3 50 3f de e2 b0 3f 6f b3 ba 3e
       -1.1655642 0.81622225 1.3819234 0.36465022
000180 6e ec df 3e 79 a4 b3 3e c3 b3 51 bf 01 62 6b 3f
       0.4373507 0.3508642 -0.8191492 0.9194642
000190 e8 2b 86 3f f5 3a 10 3f 35 8b 95 bc 8a d3 87 3f
       1.0482149 0.5633996 -0.018254856 1.0611432
0001a0 2c a6 0b 3f 55 4f 95 bc 5e f0 98 bf 17 09 eb 3e
       0.54550433 -0.018226305 -1.1948354 0.45905373
0001b0 ab 69 c9 3e 12 c4 c5 3e 36 77 5c 3f c3 1d 75 bf
       0.3933843 0.38626152 0.861194 -0.9574854
0001c0 4d 6b 9f be d6 e3 1d bf 39 99 95 be 7e ac 74 bf
       -0.31136551 -0.61675775 -0.29218462 -0.955757
0001d0 8a 49 fe be 0d 76 93 3f e2 37 32 3f 80 c0 4e 3f
       -0.4966548 1.1520401 0.6961652 0.8076248
0001e0 42 9c 91 3f a1 c3 0b 3f ea 6e 24 bf a4 1e 56 3f
       1.1375811 0.5459538 -0.6423174 0.83640504
0001f0 bd 90 9b 3f e9 7f b3 be 55 bb b2 3d 3b a4 90 3f
       1.2153546 -0.35058525 0.08727137 1.1300119

Q.2.weight f4 [128, 128]
000000 be 17 2b 3d 27 be 82 3d c1 0a 2c 3c be 8e 1f 3f
       0.04177069 0.06383925 0.010500611 0.6232718
000010 b5 31 bd 3c 0b 33 61 3b ec 89 d0 ba 25 5f a4 bd
       0.023094991 0.00343627 -0.0015910245 -0.0802596
000020 d0 3c ca bd 5f 53 a4 bd ef 6c 0a 3e 20 eb f6 bc
       -0.0987488 -0.08023714 0.13518117 -0.030141413
000030 97 73 a3 39 94 75 cf 3c d0 28 b9 3e 14 46 40 bd
       0.00031175904 0.02532462 0.3616395 -0.04694183
000040 05 a1 0f 3d f1 fe 90 bd 05 9b 98 bc 8a da 0f bf
       0.03506567 -0.07079876 -0.018628607 -0.5619284
000050 4e e9 70 3d dd d9 66 bf 3f 58 82 3d 1b c0 eb bd
       0.058816247 -0.90176183 0.06364488 -0.115112506
000060 9b 23 8a bd 6a 4f ec bc bc 36 20 3e de 54 e1 3a
       -0.067450725 -0.028846461 0.1564588 0.001719143
000070 5c 9d 47 bf c9 1c ea 3c 48 e7 e5 bc 15 2c 39 3d
       -0.77974486 0.028578179 -0.028064385 0.045208056
000080 29 fb 67 bd b5 f7 9c bd 92 24 a2 bd a1 17 b0 3d
       -0.05663601 -0.07664434 -0.079171315 0.08598257
000090 02 39 5b 3d 87 1a b6 3d 52 36 f3 be ad 55 60 bd
       0.053521164 0.088917784 -0.4750238 -0.054769207
0000a0 c5 03 8e 3d 3e 40 c6 3e 18 81 3b bd ee 83 b3 3e
       0.06934313 0.38720888 -0.04577741 0.35061592
0000b0 52 3a f3 3d 6a c5 fd be 5f 5d 13 bd 3e 34 9c 3e
       0.11876358 -0.49564677 -0.035977717 0.30508608
0000c0 5d 1d 17 3d c6 13 e9 bc 3a 29 16 bf 1c e0 2b 3e
       0.036893237 -0.028451812 -0.58656657 0.1678471
0000d0 4c 7a fa 3d 79 89 7c be 91 5a c8 3e 07 05 29 3b
       0.122303575 -0.24661817 0.39131597 0.002579035
0000e0 79 6a e9 bd aa d3 c9 bd ec db b3 bd c8 5b 20 bc
       -0.11397261 -0.09854825 -0.08782181 -0.009787507
0000f0 4e 82 f9 bc 51 a4 1b bd 61 32 8a 3e 0a 7e e0 bc
       -0.030457642 -0.0379985 0.2699156 -0.02740385
000100 8f d3 df bc bb 61 01 bf 93 b8 ee 3b 42 a4 30 3d
       -0.027322559 -0.5053975 0.0072851866 0.0431254
000110 96 2b 51 3d 76 88 98 3e e0 7a 90 bb 0a 4c a4 3d
       0.051066957 0.2979161 -0.004409179 0.08022316
000120 91 58 88 3d 77 b4 a5 3d 84 78 81 bd 4d a3 b8 bc
       0.06657518 0.080910616 -0.06321815 -0.022538805
000130 50 19 ee bb d3 55 f5 3d ad 1b f7 3e 94 8f a8 3d
       -0.007266201 0.1197926 0.48263302 0.0823051
000140 c3 62 a0 3e d1 12 b6 bd fa ac c5 3b 4e 5d 4f 3d
       0.3132535 -0.08890308 0.0060325833 0.05062609
000150 3f 74 19 3d 3b aa 17 bd 44 12 cd 3d ac 02 7f 3e
       0.037464377 -0.03702758 0.100132495 0.24903363
000160 72 ca c0 3e bd 7d fd bd 8c f7 c3 bd 0d ba 46 3e
       0.37654454 -0.12377498 -0.095687 0.1940691
000170 e8 32 a0 bd 5f 73 67 3d 74 59 cf be fe 24 7f 3a
       -0.078222096 0.05650651 -0.40497935 0.00097329903
000180 12 b8 b7 bd ec 25 2e 3d fc 71 41 3d 31 cc 90 bd
       -0.089706555 0.042516634 0.047227845 -0.070701964
000190 9b dd 17 3e a2 00 c5 3e c3 5b 95 3e 32 72 82 3c
       0.1483063 0.38477045 0.2917157 0.015923593
0001a0 b0 1c 9d 3d b0 ba fb 3e 4b 66 06 be 1f 55 a3 3e
       0.07671487 0.4916587 -0.13124959 0.3190088
0001b0 51 91 d1 3c 01 8c f0 3e 82 c2 d4 3e b5 89 b9 39
       0.025581988 0.46981815 0.41554648 0.0003538855
0001c0 4a f3 e0 3d b8 6f 1b bc 33 81 2f bd 2e 06 c2 3c
       0.10983904 -0.009487085 -0.042847823 0.023684587
0001d0 7c 8e 9e bd fb da 10 be ee a7 1b be c0 5c 12 bf
       -0.077420205 -0.14146034 -0.15200779 -0.57172775
0001e0 43 a7 1e bf e4 08 af 3c 07 17 0f bd cc da 31 3d
       -0.6197397 0.021366544 -0.03493407 0.04342155
0001f0 da 97 23 bf 9c db 8b 3e 31 91 92 3d b0 0d 63 3d
       -0.6390358 0.27315986 0.07156599 0.055432975
000200 60 23 cb bc 6d 7d 17 bd 60 20 9a bd 5b 62 08 be
       -0.024797142 -0.03698485 -0.07525706 -0.1331877
000210 b7 d4 7b bd 8d c3 e2 bd cf 4a 1f bd c8 0b 96 3e
       -0.061482158 -0.110724546 -0.038889702 0.29305863
000220 c4 9b 20 bd 90 2e fb 3c cc a5 49 be 7e 9a 13 be
       -0.03921105 0.030661851 -0.19692153 -0.14414403
000230 7a ee 3f 3c 12 2d 6c 3d cc 6f ce 3e 50 cc 3a 3c
       0.011714572 0.05766017 0.4031967 0.011401251
000240 9a e6 25 3e 39 aa 40 bd 68 22 55 3d 68 f0 02 bf
       0.16201249 -0.047037337 0.052034765 -0.5114808
000250 8e 73 39 3c a8 45 bf be 5b 76 89 3c b4 30 8f 3e
       0.011319054 -0.3735783 0.01678007 0.27966845
000260 51 f2 0a be 08 c8 12 3d 83 88 f4 3c 20 65 07 be
       -0.13568999 0.035835296 0.02985025 -0.1322217
000270 0d e8 0a bf 34 92 09 bd c1 a8 09 bd 27 c5 9e bd
       -0.5426033 -0.033586696 -0.033608202 -0.077524476
000280 d0 c7 9e bd b1 27 dc be b2 ce 89 bd 3d 0c e8 3d
       -0.07752955 -0.42999032 -0.06728877 0.11330459
000290 fe 22 96 bd 79 90 ad 3c 39 3e 23 bf 7f ab a3 3d
       -0.07330893 0.021187054 -0.6376682 0.07991695
0002a0 5c 5a 58 bd 2f 2b e9 3e f8 39 76 bc c9 70 d1 3e
       -0.05282055 0.4554076 -0.015028469 0.4090636
0002b0 36 ae 77 3e 54 09 a2 be bc 65 d3 bd 75 4d 69 3e
       0.2418755 -0.31647742 -0.10322139 0.22783454
0002c0 45 6d 12 be ca 6e 65 bd a6 9a b9 be df 18 8c be
       -0.14299496 -0.05601386 -0.362508 -0.27362725
0002d0 ce fd 46 3d 20 9f 14 bc bf 80 2e 3f 91 04 bd bd
       0.04858189 -0.0090711415 0.681652 -0.092293866
0002e0 aa 9d fe 3a f4 af 74 bd bb 9a a0 3d ae 4a 4c 3d
       0.001942565 -0.059738114 0.078420125 0.049875908
0002f0 40 26 50 bc f9 05 f0 bc 9d 9e 01 3f c5 32 29 be
       -0.012704432 -0.029299723 0.5063265 -0.16523273
000300 ce c6 6d 3c 83 be fa be 2e da 3c be 7a d8 99 3c
       0.014512731 -0.48973474 -0.18442604 0.018779982
000310 c0 81 eb bb a7 db 8f be 36 2a 1b 3d 56 50 8c 3d
       -0.0071870983 -0.2809727 0.037882052 0.0685126
000320 58 b6 c9 3b f6 b8 5e 3e a2 02 0d 3b 3a d5 1f 3c
       0.0061557703 0.21750244 0.0021516462 0.009755427
000330 16 75 6c 3d 48 d2 df 3d 5d 9a 0d 3f 5f 7c a9 bc
       0.05772885 0.1092878 0.55313665 -0.020689188
000340 92 47 29 be a0 93 fd bd 44 b5 4d be 48 f9 a3 bd
       -0.16531208 -0.12381673 -0.20088679 -0.08006531
000350 11 97 2b bc 9d 04 0c be 80 9f 24 bb d7 da fa 3e
       -0.010473029 -0.13673635 -0.0025119483 0.48995087
000360 46 70 24 3f 58 4c 04 bf 8b f9 37 be 41 5c 8f 3e
       0.64233816 -0.5167899 -0.17966287 0.28000072
000370 62 d5 21 be e8 3e d7 3c 00 3b d4 bc cc af bc bd
       -0.15804055 0.026275113 -0.02590704 -0.09213218
000380 c8 0b d4 3e 51 10 95 3d a5 aa 1f 3d 41 05 b3 bd
       0.41415238 0.07278503 0.0389811 -0.087412365
000390 a3 0b c4 be 44 1e ba 3e 52 e9 89 3e 6c 7f b7 bc
       -0.38290128 0.36351216 0.26935822 -0.022399627
0003a0 4b 8b 0d 3e 75 05 e6 3e 25 bd 34 bd f0 69 1b be
       0.13822667 0.44926038 -0.044125695 -0.1517713
0003b0 a2 78 5b bc 96 c7 1f 3f 92 83 6f bd 11 22 48 be
       -0.01339546 0.6241392 -0.058475085 -0.19544245
0003c0 de d5 a1 3d b2 e5 d8 bc f6 e0 77 3d 23 81 e0 bd
       0.0790212 -0.026476715 0.060517274 -0.10962131
0003d0 8c 3d 9a bc ce 2b 98 bd 3e 6d ca bd b0 e2 08 bf
       -0.018828176 -0.0743023 -0.098841175 -0.534709
0003e0 48 64 b3 be bc 07 31 3c f1 4f d7 bc a1 7f 14 3e
       -0.35037446 0.010805067 -0.026283236 0.14501812
0003f0 75 e7 07 bf 0d 46 ae 3e 24 99 5c bc e0 d5 d3 3e
       -0.5308755 0.3403782 -0.013464246 0.4137411

Q.2.bias f4 [128]
000000 43 a2 a6 bd 28 c7 53 3e 9d f5 65 3e 16 c6 b4 bc
       -0.08136418 0.20681441 0.22456975 -0.022067111
000010 f6 30 a6 3d 8b 1a 03 3f 60 2f 02 3f 8a d7 e1 3e
       0.08114807 0.51212376 0.5085354 0.44109756
000020 89 7b 36 3d 6f d8 12 3f 35 10 e0 3e 28 48 f7 3e
       0.044551406 0.573615 0.43762365 0.48297238
000030 71 95 57 3d 8f 17 34 bd b6 a9 6e bd d5 cb 62 bd
       0.052632753 -0.04396778 -0.058267318 -0.05537017
000040 35 b0 91 bd ce 8c fb 3e 5e e8 e9 3e 49 6b fe 3e
       -0.07113687 0.49130863 0.45685095 0.49691227
000050 98 07 4a 3e 83 ac 9f bd a6 5b 00 3e dd 50 03 3f
       0.1972946 -0.07796576 0.12534961 0.5129526
000060 e2 05 4f 3e b2 66 e7 3e 82 a2 c4 bc 3f d0 b5 3e
       0.20217088 0.45195538 -0.024003271 0.35510442
000070 59 a2 b4 3d 6a 76 9b bd ca 85 cc 3c 90 a2 c7 3e
       0.08820028 -0.07590945 0.02496614 0.38991213
000080 d4 fe 03 3f fe 19 e2 3e ae 79 82 bd 46 1c a3 3e
       0.5156071 0.44160455 -0.06370865 0.31857508
000090 86 58 70 3e 63 db 07 3f 7a 94 69 3d 78 41 2f 3d
       0.23471269 0.5306913 0.057026364 0.042787045
0000a0 a3 8a dc 3e 9b 0b d4 bd fe f4 55 3e ea 9d 65 be
       0.4307452 -0.10353776 0.20894238 -0.2242352
0000b0 7c d4 99 3e f0 76 c9 3e 62 aa 90 bd 9f 36 eb bc
       0.30044925 0.39348555 -0.07063748 -0.028712569
0000c0 32 d7 69 bd 72 ac 97 bc 92 f7 5b 3b b2 60 fe 3e
       -0.057089992 -0.018514846 0.0033564311 0.49683148
0000d0 d7 bf 00 3f 47 fe 0b 3f 92 71 3e 3d 5b 60 84 bd
       0.50292724 0.5468487 0.046495028 -0.06463691
0000e0 5e 3e b3 bd c8 64 44 bc 2c c2 ce bc 77 31 09 3f
       -0.0875213 -0.011986919 -0.025239073 0.535911
0000f0 9c d7 69 3d a8 67 ed 3e b0 36 f1 bb d0 63 0a 3c
       0.057090387 0.46368146 -0.0073612556 0.008446649
000100 39 bb fd 3c 43 e4 01 3f fe 01 6e 3d 29 a6 a1 3d
       0.030973064 0.50738925 0.05810737 0.07893021
000110 a1 6a 05 3f 8b 1c 99 bd 5a 86 9d bd 36 32 33 3d
       0.5211583 -0.07476147 -0.07691641 0.043749057
000120 1d 92 0c 3f b6 6a eb 3e 98 83 11 3f f2 30 b9 bd
       0.5491045 0.4597985 0.5684142 -0.09042539
000130 47 a9 d5 3e b0 b7 a3 bd 97 56 16 3f ee d2 4b be
       0.4173071 -0.0799402 0.58725876 -0.19904682
000140 eb d8 bc bd d7 5d a2 3e ae 6b 37 bd c1 d2 1f be
       -0.09221061 0.3171222 -0.044780426 -0.1560774
000150 d3 70 9f 3e 43 ae 62 3e d5 45 d5 3e 6c 37 b0 bd
       0.31140766 0.22136788 0.4165484 -0.08604321
000160 8a 01 fe bc 7a 0b dc bb 0a 95 77 bd 14 4f 77 bd
       -0.031006593 -0.0067152353 -0.06044487 -0.06037815
000170 0e 68 23 3e 3c 24 f9 bc b2 25 9b 3d db 57 eb 3c
       0.15957662 -0.030412786 0.07575549 0.028728416
000180 5a 26 fc 3e 64 cb 50 3e c0 45 53 bc 0d db 8a bd
       0.4924801 0.20390087 -0.012895048 -0.06780062
000190 f9 6a 8e bd 2b c9 11 3f 81 b2 16 3f 51 6c cb 3e
       -0.06953997 0.5694758 0.58866125 0.39731076
0001a0 50 3e d0 3b cb 9d fc bc 34 05 89 3a ee 52 ca 3e
       0.0063550845 -0.03083696 0.0010453821 0.39516395
0001b0 dc 0d 97 bd e3 fe ab bd 17 d5 b3 bd c7 56 b5 3e
       -0.0737569 -0.08398225 -0.08780878 0.35417768
0001c0 14 18 6c bd ab 06 c3 3d f6 82 f7 3e b4 46 c1 3c
       -0.05764015 0.09522756 0.48342103 0.023593284
0001d0 68 5c 0c 3f 6e 24 3c 3c 68 54 6a bb aa 45 8b be
       0.548285 0.011483295 -0.0035755876 -0.27201587
0001e0 c8 a8 98 3c db dd 54 bd fb 01 c3 bd d0 45 92 bc
       0.018635169 -0.05196939 -0.09521862 -0.017855555
0001f0 a3 10 cc 3e ce 29 42 bd 2b c0 04 bd 26 7d 09 3e
       0.39856443 -0.04740315 -0.03240983 0.13426647

Q.4.weight_mu f4 [4, 128]
000000 61 93 31 3e ed 2a 9f 3e 4f 17 5d 3e c6 a1 81 bd
       0.17341377 0.31087437 0.21590923 -0.06329684
000010 c7 15 92 3e d3 77 a0 3e 70 c5 8b 3e 0f a2 9a 3e
       0.2853224 0.3134142 0.2729907 0.30201766
000020 d8 18 f7 3e 7b 19 69 3e 40 77 d5 3e 4d 2d c9 3e
       0.48261142 0.22763626 0.41692543 0.39292374
000030 aa b4 82 3d 80 46 16 3c 60 c2 d9 bb 39 1d 1b bd
       0.06382115 0.009172082 -0.0066454858 -0.037869666
000040 eb 81 2e 3d 06 7f ee 3e 58 12 c3 3e 39 d6 a8 3e
       0.04260437 0.46581286 0.38099933 0.3297594
000050 19 76 0c 3e ee 72 76 3d b6 5b 91 3e fe 84 62 3e
       0.13716926 0.0601682 0.28390282 0.22121045
000060 c5 24 4a 3e 31 1a 32 3f 87 d9 8b bd 2f a5 87 3e
       0.19740589 0.69571215 -0.068285994 0.26493213
000070 6e b2 92 bd e7 ca c5 3d df 26 a1 3d 83 7d 5e 3e
       -0.07162939 0.09657841 0.07868742 0.21727566
000080 22 28 76 3e 51 e5 84 3e df 56 a0 bc 8f 9a f2 be
       0.24038747 0.25956205 -0.019572673 -0.47383544
000090 b1 1a 12 3f 14 33 c6 3e 02 ea 60 bd 30 50 81 3b
       0.5707198 0.38710845 -0.054910667 0.0039463267
0000a0 e2 a2 66 3e fa 07 e7 bc 9b f6 9f 3d 2e c1 9f 3d
       0.22523072 -0.028202046 0.07810708 0.07800518
0000b0 4b 41 ed 3e 92 1b 8f 3e 80 fe ef 3a 0e 74 bd bd
       0.46338877 0.27950722 0.00183101 -0.09250651
0000c0 70 cf c4 bc a7 b0 b1 bd 83 a3 38 bd 28 a0 b9 3e
       -0.024024695 -0.08676272 -0.045077812 0.36255002
0000d0 2c 0f 8f 3e 70 30 dc 3e 49 20 8c 3e f3 10 82 bd
       0.27941263 0.43005705 0.27368382 -0.06350889
0000e0 96 05 7f 3d ea 5b e1 bc 7d dd a6 3d a8 53 d4 3e
       0.062261187 -0.027509648 0.08147714 0.41470075
0000f0 ba 20 60 3d aa 77 89 3e 4c 3b d1 bc 15 aa 7a bd
       0.05471871 0.2684911 -0.02554097 -0.06119736
000100 74 ba 2a bd 6a db da 3e 89 78 95 3d 86 89 9c bd
       -0.04168172 0.42745525 0.07298381 -0.07643418
000110 8f f9 30 3f da 48 84 bd 3f 28 af 3d 30 97 82 bb
       0.69130796 -0.06459208 0.08552598 -0.003985308
000120 3c 4f 92 3e 50 51 9e 3e 1c b7 b4 3e d3 0e 97 bc
       0.28576076 0.30921412 0.3529595 -0.018439686
000130 8c 46 84 3e 04 56 a1 bc 6e 10 cb 3e df 88 a5 3e
       0.25835073 -0.019694336 0.39660972 0.32330987
000140 ea 73 38 3d 2a 45 e8 3e 2d 62 90 3d b7 8f 4f 3e
       0.04503242 0.45365268 0.070499755 0.20269667
000150 00 c3 fd 3e 82 0f e1 3e cf a6 83 3e 7e 18 fb bc
       0.49562836 0.43957144 0.25713202 -0.030651327
000160 2f 5f 93 bd 81 c4 ec bc e8 b7 45 bd ea 2b 3f 3d
       -0.07195889 -0.028902294 -0.04827109 0.04667274
000170 c4 a9 46 3e f8 69 7c bd 5e 8c 45 3d 00 bd 3b 3b
       0.19400698 -0.061624497 0.048229568 0.0028646588
000180 62 a8 a4 3e 8e fa 59 3e 5a 7b 23 bd 9e 7d 8c 3d
       0.32159716 0.21286985 -0.03991256 0.06859897
000190 e6 98 dd bc 22 55 c1 3e 97 d1 cc 3e 9e 47 81 3e
       -0.027050447 0.37760264 0.40003654 0.25249952
0001a0 9a 7f 7e 3d 79 4a e9 3d ff ab a2 3d 8d 3e fd 3e
       0.06213341 0.11391158 0.07942962 0.49461785
0001b0 d6 e6 33 bd be 8c 8c 3c 38 14 e7 3c 94 39 f2 3e
       -0.043921314 0.017156955 0.028207883 0.47309554
0001c0 93 25 77 3e fa 76 bc 3d 73 d5 e9 3e ef 62 78 3e
       0.24135427 0.092023805 0.4567066 0.2425649
0001d0 8a f9 62 3e 7e 8a 87 bd 7f 86 94 3c 85 7f ce 3c
       0.22165504 -0.06618212 0.018130539 0.02520729
0001e0 46 b1 af bd ca c6 94 bd 45 41 0e bd 63 7d 82 bd
       -0.08578734 -0.072644785 -0.034730215 -0.06371572
0001f0 96 97 32 3e c5 07 91 3b 78 a1 ef bc 7f db 42 3d
       0.17440638 0.004425975 -0.029251799 0.04757261
000200 46 32 1a bf 5d 66 27 bf ce 79 21 bf b4 2c 07 3d
       -0.6023296 -0.6539057 -0.63076484 0.033001617
000210 cc 03 0b bf 72 f4 74 be ab 44 e8 bd 71 c6 47 3f
       -0.5430267 -0.23921373 -0.113412224 0.7803717
000220 87 25 cc be 44 91 87 bd 22 68 71 3f 64 36 27 be
       -0.3987238 -0.06619504 0.9429952 -0.16329342
000230 0c 52 2a 3d b8 f1 39 bc c2 b7 75 3d 08 e8 98 3b
       0.041582152 -0.011349134 0.0599897 0.004666332
000240 8d ed 04 be 32 7b 4e 3f 23 bb 8b be 32 f6 2a 3f
       -0.12981243 0.8065673 -0.2729121 0.66781914
000250 aa f7 00 bf b0 9f ca 3c 3e 7a 0a bf 4a 6b 0a 3f
       -0.50377905 0.024734348 -0.54092777 0.5406996
000260 c2 5d 08 bf 0e 73 10 3f 4e 98 82 3d ca 3e 55 3e
       -0.53268063 0.5642556 0.06376706 0.20824733
000270 bc e2 70 bd c4 b7 90 3b 43 64 a8 3d 89 8a 86 be
       -0.05880998 0.004416438 0.082222484 -0.2627757
000280 05 31 f9 bd 87 d4 99 be 68 51 4b 3d b7 c3 82 3f
       -0.12167553 -0.30044958 0.049638182 1.0215977
000290 de f3 1f bf 46 ac 95 be 16 d2 8e bc 8e e9 9e 3d
       -0.62481487 -0.29232997 -0.017434161 0.07759391
0002a0 01 3a 4a 3f ba d3 82 3d d6 42 01 bf 30 32 dc 3d
       0.78994757 0.0638804 -0.5049261 0.1075176
0002b0 d5 cf 29 bf 8c 16 70 be 0d fb 9b 3d 71 a2 0c 3d
       -0.6633275 -0.23446101 0.076162435 0.034334604
0002c0 d0 ba c2 3c 63 40 ac bd 38 66 96 3d b0 34 5b 3f
       0.02377072 -0.08410718 0.073437154 0.8562727
0002d0 0d bb 38 3f 2a 31 33 be 8a 97 03 bf f9 6a 19 bc
       0.72160417 -0.17499223 -0.51403105 -0.009363883
0002e0 7e 64 53 bd 37 16 1a bd df 42 a9 3d 9c 28 35 3f
       -0.05160951 -0.037618842 0.08264708 0.7076509
0002f0 32 78 14 bf 9f 72 37 3f 65 09 9c bd 52 6e 25 3d
       -0.57995903 0.7165927 -0.07618979 0.040388413
000300 9b d9 6d bd 49 71 31 3f fc 99 0f bf 6c 7a e3 bc
       -0.058068853 0.69313484 -0.56094337 -0.027768336
000310 8f 7d 7e 3f fe 64 16 3d b1 04 e1 be b1 ee 4a bd
       0.9941034 0.036717407 -0.43948892 -0.04954404
000320 01 d3 93 be a9 48 3f 3f 23 dc 6a 3f e0 f7 0e bc
       -0.2887192 0.74720246 0.9174215 -0.00872609
000330 fe e3 11 3f 99 43 a3 bd b3 0a 3b be 52 f2 e5 bd
       0.56988513 -0.079718776 -0.182658 -0.112278596
000340 2c 68 21 bd 10 14 10 3f 3e d3 3d 3d 60 27 85 be
       -0.039405987 0.5628061 0.046344034 -0.26006603
000350 03 62 31 3e 5a 96 1a bf aa b9 76 be 36 e5 7f 3d
       0.17322545 -0.6038567 -0.24094263 0.062474452
000360 59 03 95 3d 77 88 42 bc df 5e 3a bd 31 46 3b bd
       0.07276029 -0.011873356 -0.045500632 -0.045721237
000370 50 9e 29 bf 01 21 30 3d 78 7d 18 3d 50 59 06 3d
       -0.6625719 0.043000225 0.03722903 0.03280002
000380 58 7d 50 3f 75 75 06 bf bd de a7 bd 99 81 54 bd
       0.8144126 -0.52522975 -0.08196781 -0.051881406
000390 4c 8a 58 bd b7 ca 96 be b7 c8 8b be af ec 00 be
       -0.052866265 -0.29451534 -0.2730157 -0.12590288
0003a0 59 49 89 3d 1e d5 b8 be d0 5f ab 3b 30 0f 20 3f
       0.06703443 -0.36100096 0.0052299276 0.62523174
0003b0 16 83 57 3d dd 2c c7 3d 05 e3 2f 3d b6 32 23 3f
       0.052615248 0.09725354 0.042941112 0.63749254
0003c0 07 08 87 be 61 81 07 bf 12 e3 51 3f 12 65 d6 be
       -0.26373312 -0.5293179 0.81987107 -0.41873986
0003d0 f6 37 2e be df 0f 23 bd a5 70 5b 3d ff 4e 0d 3e
       -0.17013535 -0.039810058 0.053574223 0.13799666
0003e0 78 c1 17 bc c0 3e d9 3b d8 cb 1f bc a0 73 b1 3b
       -0.009262435 0.006629795 -0.00975319 0.005415395
0003f0 a5 2b 8c be cf 35 40 3d 21 61 08 3c ee 4f 1b bf
       -0.27377048 0.046926316 0.008323939 -0.6066884

Q.4.weight_sigma f4 [4, 128]
000000 55 6f 9c bd e3 a4 ef 3b 36 d3 d8 3d 93 55 ed 3c
       -0.076384224 0.007313357 0.1058716 0.028971469
000010 ce f2 3d bd 93 bd 52 bc af 79 a3 3c fe b7 a9 bc
       -0.046374135 -0.012862581 0.019955484 -0.020717617
000020 96 e7 8d bc c0 73 d5 bc a0 14 52 bc f6 dc 83 bd
       -0.017322343 -0.02605617 -0.0128223 -0.06438629
000030 a5 da 11 3c f3 04 b5 3c f3 04 b5 3c 5b 49 e0 3c
       0.008902227 0.022097087 0.022097087 0.027378729
000040 24 36 88 3d cb cf 63 bd 5b e6 ce bc 46 22 17 bc
       0.066509515 -0.05561809 -0.025256326 -0.00922448
000050 c6 ca 22 bc f3 04 b5 3c 04 5d 3a 3d 39 8a df 3c
       -0.00993604 0.022097087 0.045498863 0.02728759
000060 3a 5e 04 bd df b7 51 bd f1 3b 82 3c ba 21 a7 3c
       -0.032316424 -0.051200744 0.015897723 0.020401824
000070 f3 04 b5 3c 67 42 6f bb f3 04 b5 3c 17 17 ff 3d
       0.022097087 -0.0036508085 0.022097087 0.12455576
000080 ef f0 f9 bb c5 b8 c7 bc 36 83 f8 3c 20 12 68 3c
       -0.0076275985 -0.024380097 0.030336004 0.014164478
000090 57 4a 9e bd 31 09 12 3d 79 7a 02 3d f3 04 b5 3c
       -0.07729023 0.035653297 0.03185508 0.022097087
0000a0 d9 e5 90 3b 69 b4 e4 3c 6d a1 5f 3c 43 02 bc 3d
       0.004421931 0.027918058 0.013649327 0.09180119
0000b0 f1 f3 5f 3d ac 98 bd 3c f3 04 b5 3c 89 d2 83 3c
       0.054676 0.023144089 0.022097087 0.016091602
0000c0 f3 04 b5 3c f3 04 b5 3c f3 04 b5 3c 1f 49 2e bd
       0.022097087 0.022097087 0.022097087 -0.042550202
0000d0 75 9a 59 3d da aa 9f bc 16 f4 7f bd f3 04 b5 3c
       0.053125817 -0.019490648 -0.062488638 0.022097087
0000e0 f3 04 b5 3c f3 04 b5 3c f3 04 b5 3c 59 12 be 3d
       0.022097087 0.022097087 0.022097087 0.09280843
0000f0 9d 6b f5 3c b5 5f 8b 3c f3 04 b5 3c f3 04 b5 3c
       0.02995854 0.01701341 0.022097087 0.022097087
000100 79 fe ec 3c d5 36 8e bc a9 61 09 bc f3 04 b5 3c
       0.028929936 -0.01736013 -0.0083851 0.022097087
000110 39 6e 09 3d f3 04 b5 3c 01 c7 a8 bc f3 04 b5 3c
       0.033552382 0.022097087 -0.020602705 0.022097087
000120 72 40 f1 bc c1 66 07 3d 52 5a 8a bc e2 46 bc 3c
       -0.029449675 0.033056978 -0.016888771 0.022983018
000130 18 17 61 3d f3 04 b5 3c e0 79 ff 3c 22 49 c1 3d
       0.054953665 0.022097087 0.031186044 0.09437777
000140 f3 04 b5 3c 28 04 68 3d f3 04 b5 3c 2d 5c c6 3b
       0.022097087 0.05664459 0.022097087 0.0060534687
000150 9c f0 8c bc 81 d7 1f 3d e6 f4 2c bd f3 04 b5 3c
       -0.017204575 0.03902388 -0.04222574 0.022097087
000160 f3 04 b5 3c b2 6f 80 3c f3 04 b5 3c f3 04 b5 3c
       0.022097087 0.01567826 0.022097087 0.022097087
000170 23 60 36 bd f3 04 b5 3c f3 04 b5 3c f3 04 b5 3c
       -0.044525277 0.022097087 0.022097087 0.022097087
000180 60 9b 9a 3d c1 82 ee 3c f3 04 b5 3c 13 b4 ef 3c
       0.07549167 0.029115083 0.022097087 0.02926067
000190 f3 04 b5 3c a2 02 53 3c a1 4e fe 3c c0 db 81 bc
       0.022097087 0.012879046 0.031043353 -0.015851855
0001a0 f3 04 b5 3c fb d8 d2 3b f3 04 b5 3c 61 d5 ca 3c
       0.022097087 0.0064345575 0.022097087 0.02475995
0001b0 f3 04 b5 3c 90 b2 67 3c f3 04 b5 3c 5c 6b 5a bc
       0.022097087 0.014141694 0.022097087 -0.0133312605
0001c0 81 c1 27 3b c0 61 57 bc 99 81 15 bd c3 9f 40 bc
       0.0025597515 -0.013145864 -0.036500547 -0.01175684
0001d0 e2 eb 59 3d f3 04 b5 3c 04 2a be 3c fc 22 c3 bc
       0.05320347 0.022097087 0.023213394 -0.023820393
0001e0 f3 04 b5 3c f3 04 b5 3c f3 04 b5 3c f3 04 b5 3c
       0.022097087 0.022097087 0.022097087 0.022097087
0001f0 a9 5b fd bb a7 da cd 3c 81 d2 83 3c 5d 81 e5 3c
       -0.007731874 0.025128676 0.016091587 0.028015787
000200 e5 50 79 bd c5 4b e1 bc 89 eb 61 3c 68 c6 9f 3c
       -0.060868163 -0.02750195 0.013789066 0.019503787
000210 1a d6 a5 3d 0c 63 b2 3b 62 03 b6 3c 79 61 5f bc
       0.08097477 0.005443936 0.02221841 -0.013634079
000220 a8 e3 38 bd 46 f1 22 3c 8c f3 37 3c 9a cc af ba
       -0.045138985 0.009945219 0.0112275 -0.0013412416
000230 7b f1 c2 3c f3 04 b5 3c f3 04 b5 3c dc 1f dc 3c
       0.023796787 0.022097087 0.022097087 0.02687066
000240 e6 f1 19 3d 8c 01 c1 3c 75 1b 57 bd 64 47 25 3d
       0.037584208 0.023560308 -0.05251642 0.040351287
000250 64 25 c5 bc f3 04 b5 3c c6 d8 19 bd 79 0e 13 bc
       -0.02406568 0.022097087 -0.037560247 -0.0089756185
000260 64 48 11 bd e0 36 9e bc 4e 9f eb 3c f9 33 8a 3c
       -0.035469428 -0.019313276 0.028762486 0.016870486
000270 f3 04 b5 3c fd 36 e6 3c f3 04 b5 3c a3 a8 8e 3d
       0.022097087 0.028102392 0.022097087 0.06965759
000280 4f e0 31 3c 38 f3 76 bd c6 9c 4e 3c 0f 71 1a bd
       0.010856702 -0.060290545 0.01261062 -0.037705477
000290 9e 2c 5d 3c 62 8c 21 bc e5 b7 87 3c 51 ed bc 3c
       0.013499407 -0.00986013 0.01656718 0.02306238
0002a0 2c 1e 3a 3b f8 0b c9 3c 12 0e 59 bd 73 49 87 bc
       0.0028399331 0.02454184 -0.052991934 -0.016514516
0002b0 57 ff af 3c bc 9e 98 3c f3 04 b5 3c 30 86 c3 3c
       0.02148406 0.018630378 0.022097087 0.023867697
0002c0 f3 04 b5 3c f3 04 b5 3c e6 05 e3 3c 88 4e ae bc
       0.022097087 0.022097087 0.027712774 -0.021277681
0002d0 9b 21 49 3c 74 89 30 bd 98 76 03 3d 51 37 e6 3c
       0.012276079 -0.043099836 0.03209552 0.028102549
0002e0 f3 04 b5 3c f3 04 b5 3c f3 04 b5 3c 4a 49 55 3d
       0.022097087 0.022097087 0.022097087 0.052071847
0002f0 e9 3f 07 3d 01 2e 87 bc f3 04 b5 3c f3 04 b5 3c
       0.033019934 -0.016501429 0.022097087 0.022097087
000300 70 46 8a 3c 98 50 15 3c 84 0a 9d 3c f3 04 b5 3c
       0.01687929 0.009113453 0.019170053 0.022097087
000310 c6 dd 0a bd f3 04 b5 3c 10 4d 89 bd f3 04 b5 3c
       -0.033902906 0.022097087 -0.06704152 0.022097087
000320 87 fc 44 3c d0 85 8c 3b 8d ea ce 3c a4 42 ab 3c
       0.012023098 0.0042884126 0.025258327 0.0209058
000330 95 43 ea bc ff d6 83 3c 6a 5c 9d 3c 50 e2 1d 3c
       -0.028596679 0.016093729 0.019209106 0.009636477
000340 f3 04 b5 3c 2b 3d f8 3c f3 04 b5 3c a5 75 d1 bc
       0.022097087 0.030302605 0.022097087 -0.025568793
000350 70 f8 7d bc c0 71 03 be 6b 0d 2e bc f3 04 b5 3c
       -0.015501127 -0.12836361 -0.010623316 0.022097087
000360 f3 04 b5 3c b5 c7 b7 3c f3 04 b5 3c f3 04 b5 3c
       0.022097087 0.022434095 0.022097087 0.022097087
000370 08 00 07 bd 1f 37 e6 3c 77 39 eb 3c 4f 37 e6 3c
       -0.032959014 0.028102456 0.028713925 0.028102545
000380 7a 02 86 3a 24 9f 28 3c f3 04 b5 3c 18 73 75 3c
       0.0010224127 0.010291848 0.022097087 0.014981054
000390 f3 04 b5 3c 89 ef 49 bc 01 93 95 bb 31 80 66 bd
       0.022097087 -0.012325176 -0.0045646434 -0.056274597
0003a0 f3 04 b5 3c a0 80 9f 3d f3 04 b5 3c 17 fa e3 bc
       0.022097087 0.07788205 0.022097087 -0.027829213
0003b0 f3 04 b5 3c 9e 3f ff 3c 24 85 fb 3c d3 34 e2 bc
       0.022097087 0.031158265 0.030703135 -0.02761308
0003c0 e2 90 04 bd d2 c6 ef 3c bd 5c 89 3c 14 82 98 bc
       -0.032364734 0.02926961 0.016767854 -0.018616714
0003d0 3b 06 3d 3d f3 04 b5 3c af 2b c7 3c 2e 61 82 bd
       0.04614852 0.022097087 0.024312822 -0.06366192
0003e0 f3 04 b5 3c f3 04 b5 3c f3 04 b5 3c f3 04 b5 3c
       0.022097087 0.022097087 0.022097087 0.022097087
0003f0 36 c4 8f bb 3c ae b6 3c 22 5e 8b 3c 53 8e 89 3d
       -0.004387404 0.022299878 0.01701266 0.06716599

Q.4.bias_mu f4 [4]
000000 78 d2 e3 3e 46 5d d0 bd 41 f9 53 3e 7f c5 06 3f
       0.44496512 -0.101740405 0.20700552 0.52645105

Q.4.bias_sigma f4 [4]
000000 86 b4 a4 bd 9b 04 e8 3c f1 7d a1 3d bc c5 72 3d
       -0.080422446 0.028322509 0.078853495 0.059270605

Q.4.weight_epsilon f4 [4, 128]
000000 97 f1 66 bf d2 f0 28 3f 49 5a 5c 3f 4d 5c 83 be
       -0.90212387 0.6599246 0.86075264 -0.25656357
000010 46 37 5c bf 01 99 be 3e 1c 8d 73 3f 65 b0 1c bf
       -0.8602184 0.37226108 0.9513719 -0.61206657
000020 bc cf b5 3e 46 d2 67 3e 9a b6 0f 3f 2a 3e 56 bf
       0.3551005 0.22638807 0.56138 -0.83688605
000030 0c c3 40 3f 81 b9 18 3f 48 75 56 bf 29 28 a6 3d
       0.7529762 0.59658056 -0.83772707 0.08113129
000040 21 05 30 bf 10 a7 23 be 65 86 ca be 27 be 8f bf
       -0.68757826 -0.15981698 -0.3955566 -1.1229905
000050 79 5a 15 3f a2 25 e6 be ef 93 02 3f 38 15 ce be
       0.58341175 -0.44950587 0.5100698 -0.40250564
000060 d0 d2 48 3f 77 2b ba 3e 1b b6 63 3f 1e 98 1d 3f
       0.78446674 0.36361286 0.88949746 0.6156024
000070 66 8e a5 3e 7e 87 82 bf 5d 1a 70 3f e5 c0 8e 3e
       0.32335204 -1.0197599 0.9379023 0.27881542
000080 2c b3 36 bf 18 2e 02 bf d9 72 82 3f 0a 3c 1c 3f
       -0.71367145 -0.50851583 1.0191299 0.6102911
000090 fa d4 53 be 59 60 ad 3e 73 a8 18 3f 58 66 18 3f
       -0.20686713 0.3386257 0.59632033 0.59531164
0000a0 1b b0 1c 3f f6 dc fc 3e 45 2b 78 3f 3e b6 f6 be
       0.61206216 0.4938733 0.96941024 -0.48185915
0000b0 26 37 b4 3e e1 0e 1d 3f 09 8d 82 bf 63 f7 fb be
       0.35198325 0.6135083 -1.019929 -0.4921218
0000c0 21 ca 9d 3e f6 eb 31 bf 5d b6 52 3f 84 c8 2f bf
       0.30818275 -0.6950067 0.82309514 -0.6866534
0000d0 9d e2 24 3f cb 45 10 bf 46 70 8b 3f 9a 37 91 3f
       0.64408284 -0.56356496 1.0893638 1.1345093
0000e0 52 53 67 3e 0e 54 96 3f c0 b6 14 bf ad 80 f8 3e
       0.22590378 1.1744401 -0.58091354 0.48535672
0000f0 e3 ae 49 bf 0c a7 81 3f ae df 12 3f 1e 66 23 3e
       -0.7878248 1.0129104 0.5737256 0.15956923
000100 5c 54 89 bf c2 f1 dc 3d ff 52 1d 3f 34 f7 8a bf
       -1.072887 0.10788299 0.61454767 -1.085669
000110 20 7d e4 be 59 98 91 be 91 3d 58 bf f7 62 86 3f
       -0.44626713 -0.28436545 -0.8446894 1.0498952
000120 a4 6f e1 be 18 4b 17 3f dd f6 08 3f d4 c2 1e 3f
       -0.44030488 0.5909896 0.53501683 0.62016034
000130 b2 13 42 3e eb 0c 1b bf 4b 39 25 3f f0 de 40 3f
       0.18952826 -0.60566586 0.6454055 0.75340176
000140 93 45 76 3f e3 91 10 bf 82 a8 95 3e 4d 6a 7b bf
       0.9619991 -0.56472605 0.29230124 -0.9820908
000150 9e 72 b9 be 96 e2 57 bf 99 b6 a2 bf 14 f2 a3 3e
       -0.36220258 -0.8433012 -1.2711974 0.32020628
000160 bd d0 57 3f dd 9e 95 3f d4 f8 2b be f9 df c0 3e
       0.84302884 1.1689106 -0.16794139 0.37670878
000170 d1 cf 54 bf d7 18 2b bf d1 cf 05 3f 0b 3e 86 3e
       -0.831296 -0.6683478 0.5227023 0.2621921
000180 77 5e 08 3f fb 81 1c 3f 47 e2 3f bf b6 4f 7e 3f
       0.5326914 0.61135834 -0.74954647 0.9934038
000190 d6 09 13 3f 71 ec 84 3f ce c7 ad bf 0c d9 19 bf
       0.57436883 1.0384656 -1.35766 -0.6009681
0001a0 70 4c 6e bf ee 00 21 3f 68 b0 f5 3e 66 ce 11 bf
       -0.93085384 0.62892044 0.4798615 -0.56955564
0001b0 2a 52 17 bf 8c 34 f6 3e cd ff 62 be 2a b7 40 3f
       -0.5910975 0.48086965 -0.22167893 0.75279486
0001c0 2e a4 04 bf 50 4e 7c 3f 8a 21 19 bf 48 c9 3f bf
       -0.5181302 0.98556995 -0.598168 -0.74916506
0001d0 a7 16 a2 be d3 9f 67 3f da 21 53 3f a2 7d d0 3e
       -0.31657907 0.9047825 0.8247353 0.4072085
0001e0 17 ba 64 3f 55 ff 90 3f 8c 55 1c bf c9 17 e7 be
       0.8934645 1.1327921 -0.61068034 -0.45135334
0001f0 36 40 ea 3e 70 29 f2 3e 76 d1 6d 3e d7 3a 0a 3f
       0.45752114 0.4729724 0.23224434 0.5399603
000200 35 44 6b 3f 56 1a 2c bf 27 7a 60 bf be d1 85 3e
       0.9190095 -0.67227685 -0.8768639 0.26136583
000210 7c 56 60 3f 4c 2a c2 be 23 1c 78 bf 35 9f 1f 3f
       0.87631965 -0.37922895 -0.96917933 0.62352306
000220 ec 36 b9 be 18 29 6c be 3c 67 12 bf c1 40 5a 3f
       -0.36174715 -0.23062551 -0.57188773 0.85255057
000230 b5 5e 44 bf 51 95 1b bf e7 78 5a 3f 57 44 a9 bd
       -0.7670701 -0.60774714 0.8534073 -0.08264988
000240 91 50 33 3f 3d b7 26 3e d6 50 ce 3e ed 6e 92 3f
       0.7004481 0.16280837 0.40296048 1.1440102
000250 21 26 18 bf 6f 74 ea 3e a0 05 05 bf b6 f0 d1 3e
       -0.5943318 0.45791957 -0.5196171 0.4100396
000260 1a 95 4c bf 8a a7 bd be 3c f9 67 bf 44 8b 20 bf
       -0.7991501 -0.37041885 -0.90614676 -0.627125
000270 b3 a7 a8 be f3 f8 84 3f de 98 74 bf ee 6c 91 be
       -0.32940444 1.0388473 -0.95545757 -0.2840342
000280 9e 1e 3a 3f e1 9d 04 3f eb e3 84 bf ab 28 1f bf
       0.7270297 0.51803404 -1.0382055 -0.6217143
000290 04 cc 57 3e 1f 9f b0 be f1 83 1b bf 9a 40 1b bf
       0.2107392 -0.344964 -0.607482 -0.6064545
0002a0 e8 9e 1f bf 4e cc 00 bf 6d d0 7c bf 6a 54 fb 3e
       -0.62351847 -0.50311744 -0.9875553 0.4908784
0002b0 b0 96 b7 be 75 ff 1f bf 99 fe 84 3f 5e 57 00 3f
       -0.35857153 -0.6249917 1.0390197 0.5013331
0002c0 37 be a0 be 83 40 35 3f 09 a8 56 bf d2 12 33 3f
       -0.31395122 0.7080156 -0.8385015 0.6995059
0002d0 b2 f8 27 bf 1b f9 12 3f 6d 0c 8e bf 71 ef 93 bf
       -0.65613854 0.57411355 -1.1097542 -1.1557447
0002e0 c5 a7 6b be 63 24 99 bf 58 7f 17 3f 6e 27 fd be
       -0.23013218 -1.1964229 0.59178686 -0.49444145
0002f0 4b 75 4d 3f 4e 14 84 bf 75 9f 15 bf 14 75 26 be
       0.802571 -1.0318696 -0.5844644 -0.162556
000300 67 e6 8b 3f 76 14 e1 bd da 44 20 bf 16 91 8d 3f
       1.0929688 -0.10990231 -0.6260506 1.1059902
000310 fa c3 e8 3e ff 51 94 3e bb 49 5c 3f e8 e6 88 bf
       0.45462018 0.28968808 0.86050004 -1.0695467
000320 dd a7 e5 3e 0c 20 1a bf 28 87 0b bf 91 bb 21 bf
       0.44854632 -0.6020515 -0.5450311 -0.6317683
000330 a9 b5 45 be e0 f3 1d 3f 00 51 28 bf 1f 7b 44 bf
       -0.19307579 0.6170025 -0.65748596 -0.7675037
000340 a3 e1 7a bf a0 46 13 3f a0 75 98 be 82 0f 80 3f
       -0.98000544 0.5752964 -0.2977724 1.0004733
000350 3b eb bc 3e 0b ed 5b 3f 46 c2 a5 3f a9 03 a7 be
       0.36898217 0.85908574 1.2949913 -0.3261998
000360 dd da 5b bf cd 6b 98 bf df 30 2f 3e 2c 7c c4 be
       -0.85880834 -1.1907898 0.17108487 -0.38375986
000370 8d cb 58 3f b0 4c 2e 3f 02 51 08 bf 4c c1 88 be
       0.84685594 0.68085766 -0.5324861 -0.26709974
000380 e9 eb 0a bf ec 6f 1f bf bb 79 43 3f 26 89 81 bf
       -0.5426622 -0.62280154 0.7635762 -1.0119979
000390 67 ca 15 bf 5f 69 87 bf 82 08 b1 3f 3e ba 1c 3f
       -0.58511966 -1.0579032 1.3830721 0.61221683
0003a0 4c c2 72 3f 6a 04 24 bf ae 49 fa be 10 89 14 3f
       0.94827724 -0.64069235 -0.48884338 0.5802164
0003b0 40 27 1a 3f 4b d0 fa be 84 3f 67 3e 9a 52 44 bf
       0.6021614 -0.4898704 0.22582823 -0.7668854
0003c0 c2 1f 07 3f a5 83 80 bf 4d ff 1b 3f 44 60 43 3f
       0.52782834 -1.0040175 0.60936433 0.76318765
0003d0 55 1f a5 3e b3 f5 6b bf 89 15 57 bf aa 64 d4 be
       0.32250467 -0.9217178 -0.84017235 -0.4148305
0003e0 16 02 69 bf 1f b6 93 bf a8 42 1f 3f 1e 6b eb 3e
       -0.9101881 -1.1539954 0.62211084 0.4598016
0003f0 ad a2 ee be cf b1 f6 be 05 45 72 be 33 d1 0c bf
       -0.46608487 -0.48182532 -0.23659141 -0.5500671

Q.4.bias_epsilon f4 [4]
000000 0b 75 47 3f c9 30 4b bf 6c ca 52 3f dd 8f a6 bf
       0.7791297 -0.79371315 0.8234012 -1.3012654
