model_w/Noisy_DQN/NoisyNetDQN_24999k.pth (torch, 77586 bytes, 10 tensors)

Q.0.weight f4 [128, 2]
000000 cd 9c ef be 89 5c 37 3f 45 91 99 be 1f 75 16 bf
       -0.46799317 0.7162557 -0.29993644 -0.5877246
000010 ae a4 12 bf 35 00 2f bf 24 ba dc be e8 49 d8 be
       -0.5728253 -0.6835969 -0.43110764 -0.42243886
000020 24 92 4c bd 5e 80 02 3f f7 00 72 3e ad d6 98 be
       -0.049944058 0.5097712 0.2363318 -0.29851285
000030 f8 1e 55 bf 11 6c c4 bd 9c 87 16 be 10 f0 74 3e
       -0.8325038 -0.095909245 -0.14700168 0.23919702
000040 c6 48 d5 be 00 e8 e0 3a 0f 6e 7d be 96 48 98 3e
       -0.41657084 0.0017158985 -0.24749015 0.2974288
000050 11 2b 25 3f e6 1c 06 bf 40 eb cf bd 94 95 40 3d
       0.6451884 -0.52387846 -0.10152292 0.04701765
000060 18 79 1a bf f4 69 1f bf ce c5 24 3f 9c 2c 6b be
       -0.60341024 -0.62271047 0.64364326 -0.22966236
000070 18 19 a5 bc 2b cc a0 bd a5 84 7d 3a 48 e5 bd 3d
       -0.020153567 -0.07851442 0.00096709497 0.092722476
000080 b0 95 5f be 6d 32 aa be 50 f9 1b 3e ab f0 77 be
       -0.21834445 -0.33241597 0.15231824 -0.24212901
000090 c0 11 7d 3e ff cc 59 3e b7 d5 8a bd 9e c1 23 bf
       0.24713802 0.21269606 -0.06779044 -0.6396731
0000a0 6d a1 57 3e ed 1b 81 be b2 96 2b bf 94 db 2a bf
       0.21057673 -0.25216618 -0.6702682 -0.667413
0000b0 47 00 12 3e d6 6d 5d be 5e ce 25 bf 26 df 18 3f
       0.14257918 -0.2162393 -0.64768016 0.597155
0000c0 72 22 14 3e cf 66 21 be 4e 97 e5 3e a7 33 75 3e
       0.14466265 -0.15761875 0.44842 0.23945485
0000d0 58 bd 15 bf c5 a6 09 3f 54 ad 4d be 49 7c 17 3f
       -0.5849204 0.53770095 -0.2008565 0.5917402
0000e0 0e 5c 16 3f 70 22 41 3e 14 e0 55 bf 6b 00 47 bf
       0.58734214 0.18860793 -0.8354504 -0.7773501
0000f0 25 d3 07 bf 3f 75 be 3e 00 41 cc bd 5a 9e 8e be
       -0.53056556 0.37198827 -0.09973335 -0.27855188
000100 65 ba ba be 1c 4c 30 be e6 1b 70 3e 39 07 3a 3e
       -0.36470333 -0.17216533 0.23448142 0.18166818
000110 fb 26 18 3f dd af 0e bf 7a 9a 70 be 88 f0 ac bd
       0.5943448 -0.55737096 -0.23496428 -0.08444315
000120 e9 31 4b 3d 1d df 4b 3f a0 22 d8 bc 78 cc 4c be
       0.049608145 0.7963732 -0.026383698 -0.19999874
000130 71 64 37 be 37 07 1b 3e db 5b 10 be 32 2b d2 be
       -0.17909409 0.15139471 -0.1409754 -0.4104858
000140 f8 ed a6 be aa 4f 27 3f d6 d2 49 be ea ea 1c 3f
       -0.3260343 0.6535593 -0.19709334 0.6129595
000150 70 7f b7 3e 18 90 b9 3e 24 2e 7a bd 46 4c ab be
       0.35839415 0.36242747 -0.06107916 -0.3345663
000160 f8 6c 1a bf 98 71 01 bf 8b e4 b7 3e fe 8a 35 3e
       -0.60322523 -0.50563955 0.35916552 0.17728803
000170 4a 42 2c 3f b9 94 d6 3e a5 32 16 bf f1 4c b3 be
       0.6728865 0.4191034 -0.5867103 -0.3501964
000180 9b 70 85 3e 05 db 9f be 6f 51 be be ec d3 f9 3e
       0.26062474 -0.31221786 -0.37171504 0.48794496
000190 61 7e 3a bf 4c 8c 3b bf 20 e0 36 bd 5f e6 e6 be
       -0.7284909 -0.7326095 -0.044647336 -0.45097634
0001a0 96 d5 1c 3e f4 70 37 3f de 1a 20 3f 8c b6 3e bf
       0.15315852 0.7165673 0.62540996 -0.74497294
0001b0 04 ef eb 3b 18 6a e6 bd ab e9 30 be e4 32 f5 3e
       0.0072001237 -0.112507045 -0.17276637 0.4789039
0001c0 ab 69 9f be ba f0 13 3f cb d1 b9 bd ef a8 e2 be
       -0.31135306 0.57789195 -0.09073218 -0.4426951
0001d0 73 19 05 3f f3 1a 25 bf db f2 f6 3c 5b f9 5b be
       0.5199196 -0.64494246 0.0301451 -0.2148184
0001e0 60 e2 13 bf ed 04 2a be 40 24 20 3c b6 9e 7f be
       -0.57767296 -0.16603442 0.009774268 -0.24962887
0001f0 cc 53 fc be 98 47 c0 bd e6 e8 c3 3e 51 89 f5 3e
       -0.49282682 -0.093886554 0.38263625 0.47956327
000200 0a 1b f7 3e c5 30 b6 3e da ef 0a be 02 6e 80 3e
       0.48262817 0.35584083 -0.13568059 0.2508393
000210 ad dd 2d bf 3f 7b 2c bf f6 51 fd 3d a5 74 ba be
       -0.67916375 -0.6737556 0.123691484 -0.36417118
000220 9d 94 df be 98 b5 a8 be 45 8a 2b bf 0f 8d c9 be
       -0.4366807 -0.32951045 -0.6700786 -0.39365432
000230 d6 24 3b 3e 6e ab 7b be a0 9c 3f 3d 68 be 11 bf
       0.1827577 -0.24577114 0.04678023 -0.5693116
000240 41 fc 26 bf 5d 26 32 bf d7 0a 19 bf 84 d1 2d be
       -0.6522866 -0.6958979 -0.59782165 -0.16974455
000250 e6 43 81 bf 54 04 02 3f 9b b3 e2 be 4b 43 1d 3f
       -1.0098846 0.50787854 -0.44277653 0.61430806
000260 61 a8 e4 3e 96 16 0f 3d 9f d6 1b 3f f1 62 b6 be
       0.44659713 0.03493365 0.6087436 -0.3562236
000270 76 7e d6 be 11 55 a4 3e fd 9b a9 3e 51 6c 96 be
       -0.41893357 0.3209615 0.33126822 -0.29379514
000280 85 be 35 bf 90 ec 33 bf 4a d0 4f 3e bb 8a dd be
       -0.70993835 -0.7028284 0.202943 -0.43269905
000290 5e 92 01 3e 16 78 ec bd 12 7c e7 be 5a 75 1f 3f
       0.12653491 -0.11546342 -0.45211846 0.6228844
0002a0 23 51 08 3f 31 16 0f bf fa e4 01 3f 96 21 cd be
       0.53248805 -0.55893236 0.50740016 -0.40064687
0002b0 60 1d eb 3d 16 1c 6f be a6 6d f5 3e e1 b7 34 3f
       0.11480212 -0.23350558 0.47935218 0.70593077
0002c0 5b ef df be f8 eb d8 be b5 f1 b4 be 04 10 c5 3e
       -0.437373 -0.4236753 -0.35340658 0.3848878
0002d0 fb df c8 3e 43 c9 1a bf 80 32 b6 3b b6 72 06 ba
       0.39233384 -0.6046335 0.0055602193 -0.00051287876
0002e0 dc ad c5 3e 5c 4c 85 3e e0 c9 1b 3f c4 b4 62 be
       0.38609207 0.2603482 0.6085491 -0.22139269
0002f0 70 52 4b be 8f 9a 00 bf 4d 60 17 3f 3c c6 fd be
       -0.19855666 -0.5023584 0.5913132 -0.49565303
000300 de dc ae 3e bc 8a 8b bd 6f 6a 08 3d 62 5e 0d be
       0.34152883 -0.06813571 0.033304628 -0.13805535
000310 5c 03 d4 be be 7d f8 be 46 bb 66 3d af de 09 bf
       -0.41408813 -0.48533434 0.05633094 -0.53855413
000320 9e a2 bd be 97 c5 f7 3e e8 9f 57 3e 25 3a 87 3b
       -0.3703813 0.48392937 0.21057093 0.0041268044
000330 b4 b3 dc 3e 85 53 cc be 78 bc 87 3e 48 59 2d bf
       0.43105853 -0.3990747 0.26510978 -0.6771436
000340 78 59 3f 3d fb e0 10 be 40 50 73 bd 3e 88 1d bf
       0.046716183 -0.14148323 -0.059402704 -0.61536014
000350 45 b7 69 3e 1d 9c ab 3e 80 e1 45 bd 0c 68 2b bf
       0.22823818 0.33517542 -0.048310757 -0.6695564
000360 0e 47 4e bf 43 09 1a bd 86 00 12 bf 35 f6 ba 3e
       -0.8057717 -0.03760649 -0.5703205 0.36515966
000370 32 5b a4 3e 3a 7b 45 bf 4c d5 94 be d7 5e a6 3e
       0.32100827 -0.77141154 -0.29068983 0.32494232
000380 d0 d7 09 3e a3 d4 e8 be 43 24 19 bf f7 5b 07 bf
       0.13461232 -0.4547473 -0.59820956 -0.528747
000390 a0 c6 0a 3f 2e e5 21 bf 05 37 06 3f 29 80 cf be
       0.5420933 -0.63240325 0.52427703 -0.40527466
0003a0 d4 f5 14 be 8c 2a 30 be c1 10 15 3f 81 26 0d bf
       -0.14546901 -0.1720373 0.5822869 -0.5513688
0003b0 db ea 0d 3f a2 7c 20 bf c0 40 bb 3d 5e c7 29 bf
       0.55436486 -0.62690175 0.091432095 -0.66319835
0003c0 0c 2b a0 3e 44 1c 09 bf 59 65 24 bf 2d c8 2b bf
       0.31282842 -0.53558755 -0.64217144 -0.6710232
0003d0 ce 87 b9 3e 7b 00 a3 be 4e 7b 2e be e1 dd 77 bf
       0.36236423 -0.31836304 -0.17039225 -0.96822935
0003e0 21 a4 a9 3c 6a 98 dd be 02 30 e7 be 07 7b dc be
       0.020708146 -0.43280345 -0.45153815 -0.43062612
0003f0 5b 62 fa 3e f5 60 0f bf 2d 02 2c bf 13 00 e2 3e
       0.48903164 -0.5600732 -0.6719082 0.44140682

Q.0.bias f4 [128]
000000 99 4e e3 3e 48 1e 55 be bf 9b 0c bf a2 8d a4 3e
       0.44395903 -0.20812333 -0.5492515 0.32139307
000010 f2 a3 87 bf 51 c2 5b 3f 43 e8 f1 3e ed fa 8a 3f
       -1.0596907 0.8584338 0.47247514 1.0857826
000020 bb bf 22 bf 0f b7 c7 3f cc 86 c7 3f ab 29 e1 3f
       -0.6357381 1.560274 1.5588012 1.7590841
000030 82 75 f0 3d f3 46 d6 bf d8 5f 01 40 43 3b dd 3f
       0.11741163 -1.6740402 2.0214748 1.728371
000040 5e 8e 27 bf 30 db ad 3f 09 0c 53 bf d5 93 83 3f
       -0.6545161 1.3582516 -0.8244024 1.027949
000050 b1 ef a7 3f a1 15 10 3f 81 07 06 40 e3 b4 1b bf
       1.3120023 0.56283003 2.094208 -0.60822886
000060 c8 d6 c2 3f a5 be 6d 3e 99 7d b4 be 83 2c 93 bc
       1.5221796 0.23217256 -0.35252073 -0.01796556
000070 56 f6 ba bf 9d 51 2f 3f 83 ab 12 3f 50 7d e6 bd
       -1.4606426 0.68483907 0.57292956 -0.1125437
000080 42 60 80 be d2 a7 83 bf 81 d9 fc be 7e 32 95 be
       -0.2507344 -1.028559 -0.49384692 -0.29140085
000090 c2 20 7b bf c0 1b ee bd 72 0b 82 3f 14 b3 42 3f
       -0.9809686 -0.11626387 1.0159743 0.760545
0000a0 19 9b 6e bf 9c 1c 14 3e 90 5e fe bd 3b 08 a2 3e
       -0.9320541 0.14464039 -0.1242038 0.31646904
0000b0 99 1e 05 bf 68 1c be bf 57 03 89 bf b6 7b 8f be
       -0.51999813 -1.4852419 -1.0704144 -0.2802407
0000c0 35 4a cb be bf 7f c9 3f 23 7d 1b 3f c4 12 17 be
       -0.39705053 1.574211 0.6073782 -0.14753252
0000d0 29 ec 75 bf 3a d2 ac 3f 44 4b d3 3f 2c ee 96 3f
       -0.96063477 1.3501656 1.6507344 1.1791434
0000e0 0c 55 58 bf ef 71 35 3f 5b a2 db be 6c e1 f8 bc
       -0.8450477 0.70876974 -0.42897305 -0.030380927
0000f0 3e 00 e9 3e e4 4a 0b be 7c 53 52 be 3d 10 3f bf
       0.45507997 -0.13602787 -0.2053966 -0.7463415
000100 0b 65 60 bf 1e 0d cc 3f 98 c9 12 3f f4 d7 23 3f
       -0.8765418 1.5941503 0.5733886 0.64001393
000110 3a d1 61 be f6 37 0d 3f 98 16 b6 3f 33 9e e4 be
       -0.2205247 0.55163515 1.4225645 -0.44651946
000120 b0 5e bd be 3c be ce be de 2d c4 3e 4e c1 ef 3e
       -0.36986303 -0.40379512 0.38316244 0.46827167
000130 91 e3 a3 bf 71 a4 6b bf f0 0c 2c 3f 60 ed dc be
       -1.2803823 -0.9204779 0.6720724 -0.43149853
000140 be 8f 0d 3f f3 30 98 3f 20 49 7c 3f ea 1d b4 3f
       0.5529746 1.1889938 0.9854908 1.4071629
000150 9e 92 bf 3d 6c 85 1e bf 44 17 75 be e0 66 7d bf
       0.09354137 -0.61922336 -0.23934656 -0.989851
000160 40 c1 3b bc af 48 4d 3f 08 17 34 3f 4c 14 1d bf
       -0.011459649 0.8018903 0.7034764 -0.61359096
000170 6a 1f 5e bd af 5b de bf ac 2d 17 bf b1 9a a4 3f
       -0.054229178 -1.737173 -0.59054065 1.2859708
000180 a1 dc da 3f 1f 19 e6 3f 03 4b 2e bf 8f 3c 8c 3f
       1.7098581 1.7976416 -0.6808321 1.0955981
000190 60 36 cb 3f 4c 21 b3 3f 02 35 24 3f 1d 81 2d 3f
       1.5875969 1.3994536 0.64143384 0.67775136
0001a0 5c 04 c0 3f 3e 76 03 bf fd 68 1e bf 85 5a b5 be
       1.500133 -0.513523 -0.6187895 -0.35420623
0001b0 81 6c 23 3f 5c c6 91 be c8 f9 55 3f 43 d5 07 40
       0.6383744 -0.2847165 0.8358426 2.1223915
0001c0 01 57 29 bf 07 d8 ef 3e dc 70 9c 3f aa 43 28 bf
       -0.6614838 0.46844503 1.2221942 -0.6572825
0001d0 9f 0f 98 be 76 55 00 bf 12 2f d3 3f 04 f5 07 be
       -0.29699418 -0.50130403 1.649874 -0.1327706
0001e0 f2 06 5d 3f 90 1a b7 be ed dc a4 3f e3 30 5d 3f
       0.8633872 -0.35762453 1.2879921 0.8640272
0001f0 66 0d 1f 3f 4b dd ac 3e db 1a ae 3f ab bc c8 3e
       0.6212982 0.33762583 1.3601946 0.39206442

Q.2.weight f4 [128, 128]
000000 39 9e ef bd 40 cc 9a 3c 8e 0d a0 bd 3a 3b cb bc
       -0.117001005 0.018896222 -0.07815085 -0.024808515
000010 ce 89 1b 3d 64 2f 58 bd 57 df 49 bd 26 1d 98 bd
       0.037973218 -0.05277957 -0.04928526 -0.074274346
000020 54 31 ac bc ca f7 91 bd 1e 4e 83 3b 7c c6 cf 3c
       -0.021019615 -0.0712734 0.004007115 0.0253632
000030 0e 0e af bd da 80 05 3d 42 0b 90 3c 0a 43 86 bb
       -0.085476026 0.032593586 0.017583493 -0.004097347
000040 8f 21 a0 bd e8 db 8a 3d 1f b4 15 bd 61 29 42 bd
       -0.07818901 0.06780225 -0.03654873 -0.047402743
000050 ab 98 97 bc ea 5d dc 3b 57 48 6a bd 9b e0 29 3b
       -0.018505415 0.0067250626 -0.057197895 0.0025921229
000060 08 91 22 3c 0e b9 fa bd 4a 26 e9 3c 41 8d 1c 3c
       0.009922273 -0.12242328 0.02846064 0.009555162
000070 b4 b6 e7 bc 41 98 bd bc 3e 4a aa bd 9a da 85 bd
       -0.028285362 -0.02314389 -0.08314942 -0.065358356
000080 24 e8 bf bc b9 1f d6 bd 54 6a 57 bd f2 02 42 3d
       -0.023426123 -0.10455269 -0.052591637 0.04736609
000090 72 9d 22 bd d0 38 39 3c 32 31 0a bc 2f 35 55 3d
       -0.039700933 0.011305049 -0.008434581 0.052052673
0000a0 47 5a 61 3d 6d b3 15 3d 89 a4 27 3c a0 2d 1b 3c
       0.055017736 0.036548067 0.010232099 0.009471327
0000b0 86 de 4e 3d e3 2a 91 bd bc b9 fa bd ec 30 c6 3c
       0.050505184 -0.07088258 -0.12242457 0.02419325
0000c0 74 bd 57 bb 18 80 7a bc 38 d1 d9 3c 04 20 ac 3c
       -0.003291932 -0.015289329 0.026589021 0.02101136
0000d0 5f 3b 6b 3d 8c 08 34 3d 8e 76 77 bd 22 46 00 be
       0.057429668 0.043953463 -0.060415797 -0.12526754
0000e0 17 8e 43 3d a0 e5 0f bb 59 67 19 3c cd d8 83 3d
       0.04774293 -0.0021956936 0.009363019 0.06437836
0000f0 67 24 11 3d 88 4c c0 3c 05 24 a1 3d 06 2c ed bc
       0.035435107 0.023473993 0.07868198 -0.028951656
000100 1f 57 89 bd c9 f1 0a bd 94 42 1c bd 52 05 b9 3c
       -0.0670607 -0.03392199 -0.03814943 0.022585545
000110 73 57 b0 bd 5e f2 b0 bd 67 94 97 bd 47 ad 41 bd
       -0.086104296 -0.08639978 -0.074013524 -0.04728439
000120 2c 7d 87 bc 80 d7 7c bc 29 14 c8 bd ae dd c4 bd
       -0.016539179 -0.015432239 -0.0976947 -0.096125945
000130 63 62 2d 3d e2 96 2a bd 4a 00 2a bc ec 8a 1d 3d
       0.042330157 -0.0416478 -0.0103760455 0.038462564
000140 8a dd 4d bd bb bd a0 bd eb b3 1a bd fb ab 6c bc
       -0.050260104 -0.07848688 -0.03776924 -0.0144453
000150 ee e5 f9 3a ba a3 f5 3c a0 3f 8f 3b 9b 8d 81 bd
       0.0019065717 0.029985297 0.0043715984 -0.06325837
000160 c3 6c 4c bd 87 3d c3 bd 4c f7 00 bd ba 22 2b 3d
       -0.04990841 -0.0953322 -0.03148584 0.041781165
000170 b9 13 8a 3c 9d 12 05 3d 00 8d 40 3a d6 ae 8e 3d
       0.016855108 0.032488454 0.00073452294 0.06966941
000180 dd 15 ba bd e2 ce 0b 3d 6c 9e 80 bc 9f 4a 83 3d
       -0.09086201 0.034132846 -0.015700541 0.06410717
000190 65 ee 32 bc a8 07 ff bb 3d b8 cc bd 22 89 a3 bc
       -0.0109210955 -0.007782895 -0.09996078 -0.019962851
0001a0 e8 ca 9b bc 27 c1 98 3d f8 6d be bd 59 c8 82 3d
       -0.019017652 0.07458716 -0.092983186 0.063858695
0001b0 e3 24 af bd 64 6c 0e bb 2a c5 64 3d 87 38 16 3c
       -0.085519575 -0.0021732086 0.055852093 0.009168751
0001c0 31 fb 95 bd 19 ee 6f 3d af 62 7a 3c 72 28 8d bc
       -0.073233016 0.058576677 0.015282317 -0.0172312
0001d0 13 3e 89 bd e6 ac 87 3d 1d 8a c8 bd 0e 8f e0 bc
       -0.06701293 0.06624775 -0.09791968 -0.027411964
0001e0 9e 65 8e bd d7 53 86 bd 12 9e 52 bd f9 5b b0 bc
       -0.06952976 -0.0655896 -0.05142028 -0.021528231
0001f0 9c e6 a2 bd d5 a0 80 3d c7 73 78 bb d0 ff 68 3d
       -0.079541415 0.06280676 -0.0037910806 0.056884587
000200 3a 30 94 bc b8 c3 34 3c a2 5c 65 3d a1 de 6f 3d
       -0.018089402 0.011032991 0.055996545 0.058561925
000210 4d 36 b2 bd 04 7b 77 bd fd 93 b5 bd d4 f8 6a bc
       -0.08701763 -0.06042005 -0.08866117 -0.014341552
000220 8d 6f 9a 3d 4c 1c 8f 3d ff 9e 37 3c d4 81 e7 3c
       0.07540808 0.06987819 0.011207341 0.028260149
000230 3a 4b a1 bd 24 50 db 3b bb 8d 5b 3d 0b 72 35 3b
       -0.078756765 0.006692903 0.05360196 0.0027686383
000240 68 2a c4 3c 6e c8 7e 3d 99 7e a7 3d ed 3c 8c 3c
       0.023946002 0.062202863 0.081784435 0.017118895
000250 81 27 87 bd f1 24 7e bc 55 4f 04 bc 9d 55 0b bd
       -0.06599332 -0.015511737 -0.008075555 -0.034017194
000260 b3 0c 1a bc 96 25 c5 bd 0d 10 1e bd 73 c1 bf 3d
       -0.009402442 -0.096263096 -0.038589526 0.093630694
000270 48 d5 91 3d a5 7e 81 bb c6 17 99 bd 1d 4a 50 bd
       0.07120758 -0.003951865 -0.074752375 -0.05085193
000280 70 d9 ff bb cc 9b 40 bd df a0 8c bc b5 1e 3f bd
       -0.007807903 -0.04702358 -0.017166553 -0.046660144
000290 c1 92 73 3d e0 b3 3f 3b f6 a3 8e bd b9 ae 10 bd
       0.059466127 0.00292515 -0.06964867 -0.03532288
0002a0 00 48 41 bb b1 f4 c5 bd 37 6d 83 bd e8 ff 37 3d
       -0.0029492378 -0.09665812 -0.064173155 0.044921786
0002b0 60 e4 1d bc f3 49 54 bd cd 82 49 bd a8 c6 2a bd
       -0.009636968 -0.051828336 -0.049197007 -0.04169336
0002c0 b7 aa 7e bd 3c 0f 3b 3d 29 5d 91 3d d9 55 92 3d
       -0.062174525 0.045668826 0.07097847 0.071452804
0002d0 7b b8 81 bd 88 d7 10 bd 3d 08 53 bd a8 d2 85 3d
       -0.06334015 -0.035361797 -0.05152153 0.0653432
0002e0 9a 0f 85 bd 75 29 f2 3b 1d a6 b7 bc a5 67 66 bd
       -0.064971164 0.007390196 -0.022418076 -0.056251187
0002f0 76 f7 b6 bd bb 98 a3 3d bd fa ab bd aa 04 0d bd
       -0.08933918 0.079881154 -0.08397434 -0.034428276
000300 7c fa 93 bc 24 3d c4 3c f6 ae c3 bb 04 1c 5b bd
       -0.018063776 0.023954935 -0.0059717847 -0.053493515
000310 fe 5c 76 3d 77 93 7e 3d da 7c 75 bd 98 ce 51 bc
       0.060147278 0.062152352 -0.05993352 -0.012805603
000320 5e c9 70 bd 18 73 18 bc 13 8c a6 bd d6 09 65 bc
       -0.05878579 -0.009304784 -0.08132186 -0.013979396
000330 3c b5 71 bd 58 7d 38 3d ee 8e a2 bd 7c 64 13 3d
       -0.05901073 0.045041412 -0.07937418 0.0359845
000340 45 72 ad bd b0 dc 37 bd 19 19 20 3c e1 7a a4 bd
       -0.08469061 -0.0448882 0.009771609 -0.0803125
000350 6f 61 17 3d 23 b5 2b bd 4a 04 0b 3d 26 eb e5 3c
       0.036958154 -0.041920792 0.033939637 0.02806623
000360 30 be 70 3c f0 16 e7 bc e7 35 8f bd 48 16 26 3c
       0.014693782 -0.02820918 -0.06992703 0.010137148
000370 db 9c 91 3d 7d 80 94 bd 64 08 95 bc c4 ec 58 3d
       0.07109996 -0.0725107 -0.018192478 0.052960172
000380 ee ac 76 3d da 6d 13 bd 00 22 ef ba b3 f3 05 bb
       0.060223512 -0.035993434 -0.0018244386 -0.0020439446
000390 d1 1d 77 bc 23 79 62 bc 2e e1 2a 3d b6 55 40 3d
       -0.015082792 -0.013822827 0.041718654 0.04695674
0003a0 11 1d a5 bd 24 a3 82 bd ce bf 6b bd 70 bc ef 3b
       -0.080621846 -0.06378773 -0.057555966 0.0073161647
0003b0 ee 7b 59 3c 9a 8f b1 bd af 21 52 bd 21 a3 5a 3d
       0.013274176 -0.08669968 -0.051301654 0.053378228
0003c0 46 72 4c bd 8c c5 32 bd 1c 0d 70 3d 98 0a ad 3b
       -0.049913667 -0.043645427 0.058606252 0.005280804
0003d0 56 7e 40 3d db 77 96 bd ca e3 13 3d 51 54 0a bd
       0.046995483 -0.07347079 0.03610591 -0.033771817
0003e0 12 2e 3e 3d 60 83 9e bc ea 07 c1 bd 49 53 99 3c
       0.046430655 -0.019349754 -0.094253376 0.018716471
0003f0 e5 fb 73 3c ef a9 d6 bc 5c 5f 88 bd 7e 15 5a 3d
       0.014891599 -0.026204078 -0.06658813 0.053243153

Q.2.bias f4 [128]
000000 0a 52 0e bd 20 e4 68 bc f0 5a 08 3c ab 3f df bc
       -0.034746207 -0.0142145455 0.008322462 -0.027252039
000010 31 88 e8 be 76 50 f7 3b b7 76 cd bc ad e5 3b 3d
       -0.45416406 0.0075474335 -0.025081022 0.045873333
000020 59 8c 14 bf 2b 3f c4 bd 04 fd 90 3e 50 27 9d be
       -0.58026654 -0.09582361 0.28318036 -0.30694056
000030 95 f8 e8 be db f7 1c 3b 12 ca 98 3c 18 fb d7 bd
       -0.45502153 0.0023951444 0.018651042 -0.10545939
000040 21 c3 c7 be 14 f8 85 3e 7f 5b 86 bd d0 4a 00 bd
       -0.3901606 0.2616583 -0.0656042 -0.031321347
000050 82 e1 e6 bd ca a4 ee 3e 5a 04 7c 3e 22 85 ba 3d
       -0.11273481 0.466101 0.24611035 0.09107424
000060 3c f4 85 bd 5b 18 e5 bc 5a b3 4d 3f a9 a1 14 bd
       -0.06540725 -0.027965715 0.80351794 -0.036286984
000070 8e 11 1f 3d e7 df e7 bd 09 0a 76 3f eb 2f a4 be
       0.0388351 -0.11322003 0.9610906 -0.32067809
000080 01 7a 2f bc 43 4a d8 be e7 af a4 3d 43 f5 1e 3e
       -0.01071024 -0.42244157 0.08041363 0.15523247
000090 18 1a 4a ba 7c 02 59 bd b8 4b b5 bb 2a a1 8a 3f
       -0.0007709577 -0.052980885 -0.005532708 1.0830433
0000a0 e7 3f 00 bf 14 d4 35 3f ce 81 02 3d 6c 89 5f bd
       -0.5009751 0.7102673 0.031862073 -0.054574415
0000b0 66 5b 81 3f f6 28 e0 bd 08 9c 98 3f e2 c5 ad 3e
       1.0106018 -0.10945313 1.1922617 0.33940035
0000c0 f0 3a 6c bb 45 38 19 3f 00 38 80 3f 62 c7 8c 3c
       -0.0036045872 0.59851485 1.001709 0.017184917
0000d0 60 b6 9a bd 1e b8 0c 3f 1d 87 19 bf 43 82 83 3f
       -0.075543165 0.5496844 -0.5997179 1.0274128
0000e0 af 4d 55 3f 7a 98 9f be cf e6 3d 3f d8 98 b5 3e
       0.8332166 -0.31171018 0.7418031 0.35468173
0000f0 43 b3 b9 3e 7d 95 b1 3e 27 45 8b 3e 77 8f d2 bc
       0.36269578 0.34684363 0.27201197 -0.025703175
000100 64 ae d1 bc 9b 32 3b 3c 1a 93 fc 3c 5a ce 4c 3f
       -0.025595851 0.0114256395 0.030831862 0.8000237
000110 fe b4 24 bf b5 32 87 3c 76 a2 22 3d e5 12 50 bd
       -0.6433867 0.016503671 0.039705716 -0.05079927
000120 80 66 56 3f 88 38 40 3e 0f 0a d7 3c ac c2 dc 3d
       0.8375015 0.18771565 0.026249913 0.10779318
000130 97 0d 2d bf 1a 70 19 3e ae 39 13 bd bf 4d 55 3f
       -0.6759886 0.1498417 -0.03594368 0.83321756
000140 1a 8e 78 bd 04 b5 3a bd 6c 0f ab 3f f3 b1 6b 3f
       -0.060682394 -0.045582786 1.3364081 0.92068404
000150 1b 88 4b 3f bb 3c b5 be b0 21 49 3f d3 6d 8c 3c
       0.79504555 -0.35397896 0.7856703 0.017142212
000160 cc 01 71 3f f0 07 2b bf 5f ac 41 3e e9 0b 97 3f
       0.94143367 -0.66808987 0.1891341 1.180051
000170 b0 4f c7 bc 6c 55 0a bf da 9b d6 bd 49 03 11 be
       -0.02432999 -0.54036593 -0.10478945 -0.1416141
000180 98 e5 08 3d c2 9f b5 3b be a1 ba 3e ab 06 38 bd
       0.033422083 0.0055427263 0.36451524 -0.044928234
000190 54 72 7c 3f 4e b9 5e bd c3 bf 6d bc b0 1e f9 bd
       0.9861195 -0.05437594 -0.014511052 -0.12164056
0001a0 be 63 3d bc 05 1a bd bd cf cf 25 bd 25 ea 51 3f
       -0.011559425 -0.092334785 -0.040481385 0.819979
0001b0 8f cd 37 bf 9b ac 81 bd e7 f6 b2 bd ac 64 b0 bc
       -0.7179803 -0.0633175 -0.08738499 -0.02153238
0001c0 11 3c 9a bd 11 6c 12 be d3 b9 8f be d2 b0 66 3b
       -0.07530988 -0.14299037 -0.2807146 0.0035200608
0001d0 83 d9 ed be 54 2b a1 3c ae b5 e1 3c 5e 89 87 3f
       -0.4645501 0.01967398 0.027552452 1.0588796
0001e0 76 c9 66 3d 52 12 7d 3d a7 36 4c 3d 64 6d dc 3a
       0.056344472 0.06178505 0.049856808 0.0016817269
0001f0 76 86 b6 bd d0 6a b9 bb 5d 93 b4 3b a3 bb ab bd
       -0.08912365 -0.005658485 0.005510731 -0.08385398

Q.4.weight_mu f4 [4, 128]
000000 0e 74 40 bd ba 52 37 3d 17 02 e5 bb 19 54 a2 bc
       -0.04698568 0.04475663 -0.0069887745 -0.019815492
000010 e9 09 c9 be ce 08 75 3d 43 f9 ad 3c 9a d4 51 3d
       -0.39265373 0.05982285 0.021237021 0.051228143
000020 bf 97 0e be 1e 91 97 bc a0 f1 9c bd ec f1 91 bd
       -0.13925074 -0.018501814 -0.07663274 -0.07126221
000030 31 84 cc 3c f6 d6 79 3c ef 15 2f bc 11 44 a2 bb
       0.024965378 0.015249005 -0.010686382 -0.004951962
000040 39 22 79 be b4 d5 35 be 4f 78 a1 bc c1 b7 ae 3d
       -0.24329461 -0.17757303 -0.019710688 0.08531142
000050 b4 eb 3d 3d f0 4c 3c be ac 23 1f be 58 25 d3 bd
       0.046367362 -0.18388724 -0.15540951 -0.10309857
000060 b4 fd 91 bd 71 ac b0 bc 4c 26 9f 3c 41 f1 94 3d
       -0.07128468 -0.021566601 0.019427441 0.07272578
000070 66 b2 69 3d eb c2 d3 3d 0b 63 a1 3e 47 b8 83 bd
       0.0570549 0.10339912 0.31520876 -0.064316325
000080 ba 4a 88 bd ac 53 48 3c d2 bb ab bd 56 00 42 be
       -0.06654878 0.01222698 -0.08385433 -0.1894544
000090 b7 09 b2 bd 22 ce 40 3d 1e eb 4b be 21 7a b4 bd
       -0.08693259 0.047071584 -0.19913909 -0.08812357
0000a0 1a 9a 86 3c 90 bb 3f 3e 55 47 31 3c 60 81 a6 be
       0.016430903 0.18723893 0.01082023 -0.3252058
0000b0 21 ad 2b 3f 42 c2 30 bd 3a 27 b6 bd 5d e1 a5 bd
       0.6706105 -0.04315401 -0.088942006 -0.08099625
0000c0 98 c5 17 bd 5f d3 60 3e cb 4b 9b 3e d0 ea 1c bc
       -0.037053674 0.21955632 0.30331263 -0.009577468
0000d0 9a e2 81 3d d4 d3 7b bc b5 df e1 be 69 46 f6 bd
       0.06342049 -0.015370328 -0.44115987 -0.120251484
0000e0 14 dc b5 3e 1e 7d 30 be 29 93 d1 3e 9e 63 4c 3f
       0.3551947 -0.17235228 0.40932587 0.79839504
0000f0 40 6b ca bd a4 aa 22 3e 9f 0d 8d bd b3 e2 26 3d
       -0.098837376 0.15885407 -0.06887364 0.04074354
000100 4f 61 18 bd 05 10 47 3d b4 3a f2 bc 3f 1c d7 3d
       -0.037202176 0.04859926 -0.029569007 0.105034344
000110 67 08 41 bd 19 57 1c 3d 3a 1f 96 3d 5f 9c 50 bd
       -0.047127154 0.038169 0.07330175 -0.050930377
000120 e2 03 9a 3e bd 29 01 bd e0 e5 b3 3b f7 cb ff bd
       0.30081087 -0.031533945 0.0054900497 -0.12490075
000130 1f 7d fe bd 98 5d af bd f6 62 49 3d 07 fe 8a 3d
       -0.12426209 -0.085627735 0.049166642 0.06786733
000140 4a e3 df bb ae 4b d0 3b 0f ad 3d bd f8 c7 0b 3f
       -0.006832515 0.006356678 -0.04630762 0.54602003
000150 ae 22 ae 3d b4 7c 37 3e 8e 47 ac 3e fd c7 eb 3c
       0.085027084 0.17918664 0.33648342 0.028781885
000160 f2 0a c7 be 24 b0 09 be 02 cb b9 be a0 f1 58 3f
       -0.38875538 -0.13446099 -0.36287695 0.8474369
000170 53 7e 4a 3d a4 41 60 be 7c 5c 07 3d dc 4b 1d 3e
       0.04943688 -0.2190004 0.033047184 0.1536097
000180 35 dc 82 3d 32 71 66 3d 46 f1 aa bc 8b 21 99 3d
       0.063896574 0.056260295 -0.020867001 0.07477101
000190 46 30 bb bd 74 54 41 bd 86 9b 49 bd b3 a9 95 bd
       -0.09140067 -0.04719968 -0.049220584 -0.07307758
0001a0 5f 21 50 3d 5e e6 32 3d 10 63 0d 3c 31 b6 1d 3c
       0.050813075 0.043676727 0.008629575 0.009625957
0001b0 e9 15 38 be 50 54 9f bb 10 b2 89 3b b4 e3 e5 bd
       -0.17977108 -0.0048623458 0.004202135 -0.112250715
0001c0 b8 d3 29 3d 95 48 2b 3d c6 69 7b 3e 68 67 2d bc
       0.041461676 0.041817266 0.24552068 -0.010583736
0001d0 02 91 43 be af 55 ab 3d 8c 77 81 bd e4 39 ab bc
       -0.19098285 0.08365952 -0.0632163 -0.020901628
0001e0 f3 8d a8 bd a4 65 84 bd ba 85 02 3d 6b e6 85 3d
       -0.082302 -0.06464699 0.031865813 0.06538089
0001f0 62 46 8d bd 80 de a1 bd d1 cb 9d 3d 40 d7 a3 3b
       -0.0689819 -0.07903767 0.077048905 0.005000025
000200 d1 7e e9 3c 3f 34 9b bc 54 b6 8b 3d da 29 10 3d
       0.028502854 -0.018945811 0.06821886 0.035196163
000210 2b 23 c4 be 79 ca 5a 3d 88 c2 85 3d 33 31 88 3c
       -0.3830808 0.05341575 0.065312445 0.016625023
000220 c7 41 ec be 54 dc 66 3c 66 52 80 3e 25 1c ed bd
       -0.46143934 0.014090616 0.25062865 -0.11577634
000230 43 db 0e bf e6 1d b2 3b e6 ab 94 bd 41 03 c7 bc
       -0.55803317 0.005435693 -0.072593495 -0.024293544
000240 6e 22 d9 be 42 ae a7 3e 32 d8 61 3d 3c 4a ff 3c
       -0.4240908 0.32750136 0.05513782 0.031163327
000250 6e 80 3f 3d cb 5a a1 3e db 07 42 be 9a 7b 8e be
       0.04675334 0.31514582 -0.18948309 -0.27828676
000260 26 e1 40 3d 11 28 21 39 1c ef fd 3e eb f7 1e bd
       0.04708972 0.00015369082 0.49596488 -0.03881065
000270 ad 0e ac bd 29 b1 21 3c ec e5 a1 3e 8b 8b 9e be
       -0.08401237 0.009868898 0.3162073 -0.30965838
000280 98 3a 37 3c a2 78 15 bf 58 d9 67 bc 5f e9 6e 3e
       0.011183403 -0.58387196 -0.01415094 0.23331212
000290 a9 a6 91 3b a8 e1 52 bd 9f 18 28 bd 0d 5d c8 3e
       0.0044449163 -0.051484734 -0.041039106 0.39133492
0002a0 ec c7 12 bf a1 3b 7b 3e 31 68 40 3d e2 79 a4 be
       -0.57336307 0.24534465 0.046974365 -0.3212424
0002b0 60 5f 03 3f 1c 46 e9 bc 0b 9f 5d 3f 26 75 21 bf
       0.51317406 -0.028475814 0.86570805 -0.6306938
0002c0 bc 5f f1 3c db 7d 86 3e 09 29 fe 3e 98 7d 52 3d
       0.029464595 0.26267895 0.49640682 0.051389307
0002d0 65 2e 75 3c 24 ea 12 bf 12 40 d8 be e9 af 56 3f
       0.014964675 -0.5738852 -0.42236382 0.8386217
0002e0 81 f0 b5 3e 4f 8c d6 bf c6 ac 85 3e d7 57 15 3f
       0.35535052 -1.6761569 0.26108378 0.5833716
0002f0 5d 7a 0b bf d9 3c 1b bf 86 d8 e6 be 04 00 fb bc
       -0.54483587 -0.6063972 -0.4508707 -0.030639656
000300 ba 37 07 bc ac f2 89 bd 71 4a c1 be f4 54 ad 3e
       -0.008253032 -0.06735739 -0.37752107 0.33853877
000310 2a 38 cd be f6 a0 65 3d ea d2 88 3c 3f 27 8f 3d
       -0.40081912 0.056061707 0.016702134 0.069899075
000320 b0 d7 d8 3e 8c 29 05 bd ad f0 0e 3d 36 3e 94 be
       0.42352057 -0.032510325 0.034897495 -0.28953713
000330 da 57 31 bf 92 66 75 be 47 b6 92 3d 62 35 d0 3e
       -0.69274676 -0.23964909 0.07163673 0.40665728
000340 3b 36 d7 3c 4c af 14 3d 96 c2 77 3f 78 1d 9f 3e
       0.026270976 0.03629999 0.9678129 0.3107717
000350 2c ff cc 3e 32 ff e9 be 6d 3c ce 3e e5 a1 a7 3d
       0.4003843 -0.4570251 0.40280476 0.08185176
000360 fe 27 20 3f 8d 7b 12 bf aa f7 d6 3e 64 e6 82 3f
       0.62561023 -0.57219774 0.41985828 1.022656
000370 b7 59 43 3d 9f 8c 9c be 1e 4f da 3c 27 ee 7d 3d
       0.04769298 -0.30576035 0.026649054 0.061994698
000380 46 67 59 3d 00 6b 7e 3c 36 d7 0f bf ea 55 2d bd
       0.053077005 0.0155284405 -0.5618776 -0.042318262
000390 5e 4e ec 3e a6 69 72 3d 08 25 35 3d 77 71 aa 3e
       0.4615354 0.059182785 0.04422477 0.33289692
0003a0 99 02 41 bc 56 41 7d 3d 48 90 92 bc ae 68 d1 3e
       -0.0117804045 0.061829887 -0.017891064 0.40900177
0003b0 83 7d 0c bf 77 07 43 bd f9 6b 2b bd 61 44 82 bb
       -0.54879016 -0.04761454 -0.041851018 -0.0039754366
0003c0 04 b5 74 3d ef c4 74 bd fd 17 36 bf 20 ed cb bb
       0.059742942 -0.059758123 -0.71130353 -0.006223336
0003d0 5e 7b 99 be fa e2 01 bd 45 e1 a3 be bf 99 16 3f
       -0.29976934 -0.031710602 -0.32007805 0.5882835
0003e0 12 59 92 bd 0f 73 5c 3d 06 65 7a 3d 23 1e dc be
       -0.07145895 0.053820666 0.0611315 -0.42991742
0003f0 06 07 7c 3d 38 f8 13 bd f3 e0 4f bd af 53 83 3c
       0.061530136 -0.03612539 -0.050751638 0.016031114

Q.4.weight_sigma f4 [4, 128]
000000 f9 52 3f 3c c8 21 a6 3c 66 37 e6 3c c9 47 58 3d
       0.011677497 0.02027978 0.028102588 0.052802835
000010 40 70 e1 b9 30 50 97 3c aa 40 e2 3c 17 0c ce 3c
       -0.00042998977 0.018470854 0.027618725 0.02515225
000020 77 35 94 3d a6 b6 08 3d f1 34 4a bc cc 40 62 3d
       0.0723676 0.033377312 -0.012341724 0.055237576
000030 d1 6d 35 3c 52 f5 98 3c af 47 fb 3c fb f3 d7 3c
       0.011073546 0.018671665 0.03067383 0.026361456
000040 57 93 a2 bd 7d 9e d1 3c dd 72 0f 3d f3 04 b5 3c
       -0.07938259 0.025588268 0.03502165 0.022097087
000050 5d 37 e6 3c 4e b5 08 be 75 20 af 3d ca 06 ec 3c
       0.028102571 -0.13350412 0.085511126 0.028811831
000060 f3 04 b5 3c 3d 73 c5 3c e9 54 ac 3c f3 04 b5 3c
       0.022097087 0.024102801 0.021036582 0.022097087
000070 f3 04 b5 3c 47 0c 10 3d 24 87 92 3c 6b 0e a5 3c
       0.022097087 0.03516796 0.017886706 0.020148477
000080 d9 a1 f1 3c f1 af 36 bd f3 04 b5 3c 56 77 ef 3c
       0.02949612 -0.044601385 0.022097087 0.029231708
000090 f3 04 b5 3c f3 04 b5 3c 3f b6 32 3b 2c 13 c3 bd
       0.022097087 0.022097087 0.0027269272 -0.09525141
0000a0 7b 08 3d 3d c2 3e 18 bc 2a 6d 9a 3c 9c ec 39 3d
       0.046150666 -0.009292306 0.018850882 0.045391664
0000b0 c4 9f b6 3d f3 04 b5 3c 3e ce 87 3c bb 54 1c 3b
       0.089171916 0.022097087 0.016577836 0.0023854214
0000c0 20 b7 a6 3b 3b 01 17 3c a4 39 31 bc f3 04 b5 3c
       0.005087748 0.009216602 -0.010816965 0.022097087
0000d0 b3 0a c6 3c 6b f7 30 3d 52 51 84 bb cd 13 c3 bc
       0.024175024 0.043204706 -0.0040380144 -0.023813153
0000e0 ed 07 04 be bf 85 5e 3d 87 58 0c 3a b6 e3 f1 3b
       -0.12893648 0.05432677 0.0005353768 0.0073818816
0000f0 db d9 91 3c c8 5b b7 bb 54 5e 1c 3d 02 8b d1 3c
       0.017804077 -0.005595658 0.038175896 0.02557898
000100 97 d2 83 3c 60 12 f0 3c 27 aa e9 3c 25 ec 79 3b
       0.016091628 0.029305637 0.028523518 0.0038135138
000110 65 f9 48 bc c5 91 03 3d 17 fc 9c 3c f3 04 b5 3c
       -0.012266492 0.03212144 0.019163175 0.022097087
000120 a6 a2 90 3d 63 80 1f 3c 38 6d 80 3c 01 34 21 bd
       0.07062273 0.0097352 0.01567708 -0.039356235
000130 9d da 6b 3c 0a 36 2f 3d f3 04 b5 3c f0 cb 2f 3b
       0.014395383 0.042776145 0.022097087 0.0026824437
000140 0b 9d c8 3c 69 2c 86 3c ec a6 2c bd 45 71 38 3d
       0.024488946 0.016378598 -0.042151377 0.045029897
000150 cf 1c 75 bd 14 d4 35 3d 15 f6 89 bc 2c 84 e7 3c
       -0.059841927 0.044391707 -0.016840974 0.028261267
000160 07 5d 19 bd 8b 4e 30 3d 58 0c 3c 3d 9b 80 a8 3c
       -0.037442233 0.043043654 0.04591021 0.020569136
000170 d7 43 a6 3c 94 33 5d bc 0c 37 b3 3c 07 76 e7 3d
       0.02029602 -0.013501067 0.021876834 0.11301809
000180 c7 03 91 3c 9a 06 2a 3c 18 ac b4 3b 56 37 e6 3c
       0.017701996 0.0103775505 0.0055136792 0.028102558
000190 73 9f 6e 3d b1 61 11 3d 9e f7 51 3d 7e ca 39 3c
       0.05825753 0.035493556 0.051261537 0.011339782
0001a0 58 a8 8b 3c a5 e1 f1 3c f3 04 b5 3c 26 af 35 3c
       0.017048046 0.029526541 0.022097087 0.011089122
0001b0 59 8b 1f 3d f3 04 b5 3c f3 04 b5 3c 11 fc 1d bc
       0.03895125 0.022097087 0.022097087 -0.009642617
0001c0 a5 48 88 3c 61 bb 47 3c 38 29 8f bb f3 04 b5 3c
       0.016636202 0.012190671 -0.0043689273 0.022097087
0001d0 b0 f9 87 3c f3 04 b5 3c 11 55 0c 3d eb 4e 14 3d
       0.016598552 0.022097087 0.034260813 0.036208075
0001e0 5a de 16 3c 49 21 0b 3d 2f 2a ca 3c 0a 18 ac 3c
       0.009208286 0.03396729 0.024678318 0.021007556
0001f0 f3 04 b5 3c f3 04 b5 3c 80 74 ee 3c f3 04 b5 3c
       0.022097087 0.022097087 0.029108286 0.022097087
000200 ab b9 e7 3c 3d 43 82 3c 53 37 e6 3c 25 2c ec 3c
       0.028286776 0.015901202 0.028102553 0.028829644
000210 83 eb 6b bb a9 80 76 3c 2f dc 88 3c 5d ea 8b 3c
       -0.003599853 0.015045323 0.016706554 0.017079527
000220 a9 63 6f bd 2c d3 29 3d 05 e2 17 bb 5a cc 61 3d
       -0.058444653 0.041461155 -0.002317549 0.055126525
000230 8f c1 c2 ba 70 26 77 3c ea f7 96 3c 1c c8 89 3c
       -0.001485871 0.015084848 0.018428762 0.016819052
000240 14 8a 46 bc 7e d0 a8 bc 5c d6 55 3c f3 04 b5 3c
       -0.012117881 -0.02060723 0.013051596 0.022097087
000250 6e 28 da 39 d3 e1 84 3c 9a ee 17 bc a4 d0 30 3c
       0.00041610323 0.016220963 -0.009273196 0.010791931
000260 f3 04 b5 3c 3e 34 ce 3c 40 66 30 bc f3 04 b5 3c
       0.022097087 0.025171395 -0.010766566 0.022097087
000270 f3 04 b5 3c 29 da 8e 3d 13 e0 49 3b 5a 9e 48 3d
       0.022097087 0.069752045 0.0030803725 0.04897914
000280 f5 96 8d 3c b0 c1 5b 3c f3 04 b5 3c b9 fe 9d bc
       0.017283896 0.013412878 0.022097087 -0.0192865
000290 ea 08 7b 3c f3 04 b5 3c 7d 3a f1 bb c2 fc 00 3c
       0.0153219495 0.022097087 -0.0073617087 0.007872762
0002a0 4c dc e3 3a 79 99 6d bc 00 07 a0 3c 2a 1d aa bc
       0.0017384379 -0.014501923 0.019534588 -0.02076586
0002b0 c9 b7 f5 bc 6e 5e 1e bc 6f 34 d5 ba 3d 56 ea 3b
       -0.029994862 -0.0096660685 -0.0016266237 0.0071513937
0002c0 f3 04 b5 3c fc da 38 3b b1 43 a6 bb f6 4c 89 bb
       0.022097087 0.0028206697 -0.0050739874 -0.0041900827
0002d0 dc d0 8c 3c b6 a2 42 3c 8e de 7d ba e2 c1 dd bb
       0.017189436 0.011879614 -0.00096843473 -0.0067674974
0002e0 26 c0 60 3c fa 48 a3 bd e5 9a 4e 3c da 97 28 3c
       0.013717687 -0.079729035 0.012610172 0.0102901105
0002f0 eb 6d cc bb e8 b7 70 3c de 54 40 3c 2c ff d3 3c
       -0.006238689 0.014692284 0.011738984 0.025878511
000300 4d b5 e3 3c f3 d2 cd 3c e3 0d 30 bc c3 8e 32 ba
       0.027796412 0.025125002 -0.010745498 -0.0006811434
000310 af 62 7b bd ff 3b 8c 3c b7 b1 b1 3c f3 04 b5 3c
       -0.06137341 0.017118452 0.021691186 0.022097087
000320 ce f4 b6 ba 1e 9b b1 3b be 52 36 3c cc 46 82 b9
       -0.0013958456 0.0054201027 0.011128126 -0.0002484828
000330 b9 4c a7 bc 69 36 71 bd ec e5 1a 3c 0c 77 8c 3c
       -0.020422326 -0.05888978 0.009454232 0.01714661
000340 5b 2c 79 3c 1d d7 e7 3c 0d f7 92 bb d3 5d bb 3b
       0.015208329 0.028300816 -0.004485017 0.005717972
000350 e6 86 e2 3b fb fb b5 bc 4d 85 41 bb 3c 32 d6 3c
       0.006913054 -0.02221488 -0.0029528916 0.026147
000360 2b 32 f9 3a b1 e0 1f bd 1c 9d 29 bb 3f 60 6d bb
       0.0019012144 -0.03903264 -0.0025880998 -0.0036220697
000370 a7 1d da 3c ff 51 b6 bb 51 ff 8e 3c 49 60 55 3b
       0.026625467 -0.005563974 0.017455729 0.003255861
000380 ea 15 e7 3c f1 7a c4 3c 3d 5b 22 3c 4f 37 e6 3c
       0.028208692 0.023984404 0.009909448 0.028102545
000390 63 54 11 bb f3 04 b5 3c cf 12 7f bd 26 af fe 3c
       -0.0022175543 0.022097087 -0.062273797 0.031089377
0003a0 d7 f1 ef 3c 5e fd 84 3c f3 04 b5 3c f2 ce 88 3c
       0.029290123 0.016234096 0.022097087 0.016700242
0003b0 0f cc 96 bb c8 9d 88 3c f3 04 b5 3c b3 b2 f2 3c
       -0.0046019624 0.016676798 0.022097087 0.029626226
0003c0 98 8b e6 3c c6 d7 71 3c 12 c5 07 3d 6f fe b9 ba
       0.028142735 0.014760917 0.033146925 -0.0014190207
0003d0 19 6b 1c bc f3 04 b5 3c dc 8b c1 3c ab fb 46 bc
       -0.009547018 0.022097087 0.02362626 -0.012144963
0003e0 22 60 14 3c 01 14 7b 3c fd 41 88 3c a6 9c b9 3a
       0.009056123 0.0153245935 0.016633028 0.0014161065
0003f0 f3 04 b5 3c f3 04 b5 3c c9 ad 66 3d 6f 78 83 3c
       0.022097087 0.022097087 0.05631808 0.016048638

Q.4.bias_mu f4 [4]
000000 61 3c 38 be c6 fd 0c 3f 26 0f 0d be 75 53 8f 3e
       -0.17991783 0.5507473 -0.1377531 0.2799336

Q.4.bias_sigma f4 [4]
000000 e1 3f 30 3c 8e ab f0 3c 60 2a bf 3d 7d b2 3d bb
       0.010757417 0.029378679 0.09334254 -0.0028945499

Q.4.weight_epsilon f4 [4, 128]
000000 a4 e4 20 be f5 6e 0d be 6d 7d 43 be c7 ab 06 3e
       -0.1571222 -0.13811858 -0.19090815 0.13151465
000010 14 02 2c 3d 13 95 b8 3d d9 a6 53 be 39 7f b8 bd
       0.04199417 0.09012809 -0.20669116 -0.09008641
000020 35 e6 b5 bd b5 bc 63 be e6 70 36 3e b4 3d 47 be
       -0.08881799 -0.22239955 0.17816505 -0.19457132
000030 68 9f a8 3d 0b f5 94 3e 4e 85 52 3e 99 22 39 3e
       0.08233529 0.29093203 0.20558664 0.18079604
000040 b5 83 24 3e 26 75 13 be a4 84 e9 3d d0 79 ce bd
       0.16065867 -0.14400157 0.11402252 -0.10081828
000050 f0 5b 08 3e 4f 67 97 be b5 78 3d 3e 4d 50 89 be
       0.13316321 -0.29571006 0.18503077 -0.26819077
000060 48 69 8e bd 78 1a da 3d e3 67 2d be 3f 9d c5 be
       -0.069536746 0.1064958 -0.16934161 -0.38596532
000070 58 c2 8e be 9e 13 3c 3e c0 a0 58 3e 1c 6e 10 be
       -0.27882648 0.18366858 0.21155071 -0.14104503
000080 c9 c1 f3 bd ae d6 e8 bd 17 81 55 3e d1 ce 4b be
       -0.11902196 -0.11369072 0.20850025 -0.19903113
000090 68 57 04 3e e4 2b 68 3e 18 33 2b 3e 2b b1 0c 3e
       0.12923968 0.22672993 0.1671871 0.13739459
0000a0 1e 4e 48 3e 21 9a 91 3e 74 2b 1e 3e c4 9f 11 be
       0.1956105 0.28437904 0.15446264 -0.14221102
0000b0 6e cf 89 bd 48 60 3d 3e b0 29 47 be 17 03 b7 3d
       -0.06729017 0.1849376 -0.19449496 0.08936136
0000c0 be 69 a6 3d 3b 62 18 3e 9a 6a 3d be 35 a3 24 be
       0.081256375 0.14881222 -0.18497697 -0.16077884
0000d0 78 f9 bc bd 1b 5c b8 3d 27 db 47 3e 5c 23 9b 3d
       -0.0922727 0.09001943 0.19517194 0.07575104
0000e0 ac 1f c0 3d 8b 03 8a be 63 25 29 be 2d 54 31 be
       0.09381041 -0.26955828 -0.16518168 -0.17317267
0000f0 f8 10 51 bd 35 02 11 be 0d 77 4b 3e 5a 36 57 3e
       -0.051041573 -0.14160998 0.19869633 0.21016827
000100 ca 27 c6 bd 9a 27 1e be 09 95 3f 3e 2d 38 6b 3e
       -0.09675558 -0.15444794 0.18709196 0.22970648
000110 ed dd 57 be 0b 7e 67 be 8c 7a 8a 3e ab f5 0d 3d
       -0.21080752 -0.22606675 0.2704662 0.034658115
000120 0d db 60 3e 7e 04 fa bd 15 4f a6 3c a3 62 6a 3e
       0.21958561 -0.12207888 0.020301381 0.2288919
000130 07 e7 25 3e d2 0c 01 be 6c e5 89 3e ab aa 97 3d
       0.16201411 -0.12602547 0.26932847 0.07405599
000140 a3 3d 79 3d e1 bb f9 bd f9 5c 8f be b6 06 43 3e
       0.060849797 -0.12194038 -0.2800062 0.19045529
000150 b8 b7 e9 3d 6d 37 e8 3d ce 37 dd bd c4 22 45 be
       0.11411995 0.11338697 -0.108016595 -0.19251543
000160 0d 08 65 be 21 3c 28 3e 6b 7e 20 3e b1 d5 27 be
       -0.22366352 0.16429187 0.15673225 -0.1639011
000170 e2 9d 25 be 38 d7 32 3e 6c 07 61 be 80 5f 19 3e
       -0.16173509 0.17464912 -0.21975487 0.14977837
000180 87 4b 98 bd 71 ac d5 3d f2 14 a1 3e f0 61 21 3e
       -0.07436281 0.10433281 0.31461293 0.15760016
000190 2d ec 51 be 1a 23 b1 be 76 03 14 3e fb a7 48 be
       -0.2050025 -0.34597093 0.14454445 -0.1959533
0001a0 eb 92 f3 bd 53 27 90 3e 03 cb 07 be 95 fa 62 be
       -0.11893257 0.28155002 -0.13261037 -0.22165902
0001b0 3f 14 6a bd 39 2c 6d be 39 d7 52 be 1b ba e2 bd
       -0.057148214 -0.23161401 -0.20589913 -0.11070653
0001c0 27 2b ff 3d 84 69 2f 3e 6b 10 4b be c3 4f 28 3e
       0.124594025 0.17130095 -0.19830482 0.16436677
0001d0 b8 eb 98 3e a7 38 28 3e 6c 81 3e be 96 cf 3a be
       0.2986734 0.16427861 -0.18604058 -0.1824325
0001e0 6e 6b 88 3e ef af 7c be 8d 30 9e bd f2 9e 5f 3e
       0.26644462 -0.24676488 -0.07724104 0.21837977
0001f0 84 37 0c be 3d fa c5 3c b4 ab 88 3e bb b7 24 be
       -0.13693053 0.024167174 0.266935 -0.16085713
000200 66 c9 38 3f e8 6f 22 3f 77 85 60 3f a3 ab 1a bf
       0.7218231 0.63452005 0.8770365 -0.60418147
000210 66 8d 45 be 6f fe d3 be 53 15 73 3f 57 e5 d3 3e
       -0.1929222 -0.41405055 0.94954413 0.4138591
000220 90 e9 d0 3e 5a c7 82 3f da 88 51 bf 5a d4 64 3f
       0.40803194 1.0217087 -0.81849444 0.8938652
000230 06 aa c1 be 06 14 ab bf c7 c8 71 bf fa a0 54 bf
       -0.3782503 -1.3365486 -0.94446987 -0.8305813
000240 23 f2 3c bf 1f 5b 29 3f 36 19 06 bf 82 23 ed 3e
       -0.7380697 0.66154665 -0.5238222 0.46316153
000250 f9 9b 1c bf 4c e3 ad 3f f2 9b 59 bf a0 b4 9d 3f
       -0.61175495 1.358499 -0.8500358 1.2320747
000260 67 8f a3 3e 38 7e fa be 59 28 47 3f 0c f6 e2 3f
       0.31945345 -0.48924422 0.7779594 1.7731338
000270 b1 f5 a3 3f d3 01 58 bf 68 cc 78 bf fb e0 25 3f
       1.2809354 -0.84377784 -0.971869 0.6479642
000280 69 fa 0b 3f 50 b5 05 3f fd 35 75 bf 16 13 6a 3f
       0.5467897 0.52229786 -0.95785505 0.9143537
000290 b2 fe 17 bf 3c 53 85 bf ad 9f 44 bf ef 95 21 bf
       -0.5937301 -1.0416026 -0.76806146 -0.63119406
0002a0 39 0d 66 bf 8e 39 a7 bf ad a8 35 bf 08 40 27 3f
       -0.89863926 -1.3064439 -0.70960504 0.6533208
0002b0 a2 46 9e 3e e4 7f 59 bf 5d bd 64 3f c2 30 d2 be
       0.30913264 -0.8496077 0.89351445 -0.41052824
0002c0 5a 20 bf be 7b 03 2f bf be 8b 59 3f 51 16 3d 3f
       -0.3732937 -0.68364686 0.84978855 0.7386218
0002d0 cf 09 d9 3e 02 bd d3 be 2f 89 65 bf 54 2d b2 be
       0.42390296 -0.4135514 -0.8966245 -0.34800208
0002e0 bd a7 dc be 7d 82 9e 3f e7 43 42 3f c7 a9 4b 3f
       -0.43096724 1.2383572 0.7588486 0.79555935
0002f0 26 1d 70 3e 13 8b 26 3f 4a ae 69 bf 30 2c 77 bf
       0.23448619 0.6505596 -0.9128157 -0.965518
000300 2b 95 e3 3e 40 a4 35 3f 83 08 5c bf 51 13 87 bf
       0.44449744 0.7095375 -0.8595049 -1.055277
000310 a6 ec 77 3f 67 ef 84 3f 2a 0b 9f bf 9f 0a 23 be
       0.9684547 1.038556 -1.2425282 -0.1592202
000320 c1 1f 81 bf c5 92 0f 3f bc 01 bf bd b1 98 86 bf
       -1.0087816 0.5608333 -0.09326503 -1.0515348
000330 3a 8a 3e bf fb 36 14 3f e4 5f 9e bf a8 30 ae be
       -0.74429667 0.57896394 -1.2373013 -0.34021497
000340 93 20 8f be 12 69 0f 3f 49 a7 a4 3f 1f fd 5f bf
       -0.2795454 0.560197 1.2863551 -0.8749561
000350 8b 36 06 bf dc 59 05 bf f7 11 fe 3e 61 69 62 3f
       -0.52426976 -0.5209024 0.4962308 0.88442045
000360 a1 85 83 3f 01 38 41 bf ff 53 38 bf 59 c2 40 3f
       1.0275155 -0.7547608 -0.7200317 0.7529655
000370 38 36 3e 3f 4c 66 4d bf 3c 39 81 3f 5d 26 30 bf
       0.7430148 -0.8023422 1.0095592 -0.6880854
000380 68 e9 ae 3e c8 67 f5 be e1 00 b9 bf 4e 59 39 bf
       0.3416245 -0.4793074 -1.4453393 -0.72401893
000390 e9 18 71 3f 6a 71 cb 3f 91 fe 29 bf 6e 74 66 3f
       0.94178635 1.5893986 -0.6640406 0.9002141
0003a0 7f df 0b 3f af 8f a5 bf 86 f5 1b 3f e1 57 82 3f
       0.546379 -1.2934474 0.60921514 1.0183069
0003b0 ad 6b 86 3e 78 32 88 3f dd 26 72 3f da 32 02 3f
       0.26254025 1.0640402 0.9459055 0.50858843
0003c0 03 88 12 bf 41 76 49 bf 6a 38 69 3f 8c 4e 41 bf
       -0.5723879 -0.78696066 0.91101706 -0.7551048
0003d0 63 a1 af bf 02 34 41 bf f9 cb 5a 3f ac 8d 56 3f
       -1.3721126 -0.7546998 0.8546749 0.83809924
0003e0 c4 ad 9c bf 3d 1b 91 3f 88 ae b5 3e 3a 6a 80 bf
       -1.2240529 1.1336437 0.3548472 -1.0032418
0003f0 37 0a 21 3f da 60 e3 bd 95 f7 9c bf e3 2d 3d 3f
       0.6290621 -0.11102457 -1.2263056 0.7389814

Q.4.bias_epsilon f4 [4]
000000 f9 9f 4f be 5b 75 6e 3f 89 b9 9a 3f 79 c5 0d be
       -0.20275868 0.9314782 1.2087871 -0.13844861
