model_w/Noisy_DQN/NoisyNetDQN_14999k.pth (torch, 77586 bytes, 10 tensors)

Q.0.weight f4 [128, 2]
-0.11244832 -0.65425915 0.6599218 -0.7110723 0.33540654 -0.6284722 -0.62043947 -0.4323073
0.5664013 0.41437864 0.15386182 -0.75808656 -0.23032022 -0.58396626 0.2645683 -0.9225351
0.09792357 -0.19386037 -0.56937015 -0.015339842 -0.24495152 -0.03214616 0.85403436 -0.040215705
0.7003728 -0.028333277 0.6512466 -0.15366608 -1.456656 0.15967979 -0.16027841 0.5801121
-0.008148611 -0.44985607 -0.11103809 -0.09416044 -0.8459837 -0.43485716 0.5007174 0.15287663
0.5382849 -0.112823956 0.20098202 0.47858986 0.12722433 -0.17614543 -0.17878044 -0.5766538
0.17661685 0.3615789 0.14596273 -0.33881664 0.038556494 -0.4003568 -0.11494224 -0.037001748
-1.128529 0.10405438 0.6696071 0.5693377 -1.9166793 0.36597496 -0.020506287 -0.15844919
0.72050136 -0.20013097 0.016445907 0.16426046 0.85901517 -0.85198206 -0.764255 0.4225008
0.037678976 0.6075981 -0.61560744 0.6774314 -1.5848749 0.38310274 -0.20420188 -0.13137263
-0.46897545 -0.0005880857 -0.46780464 -0.45043254 -0.14285956 0.3679795 0.44941074 0.4456144
0.13456075 0.14790668 -0.018635532 0.29967907 -0.08498144 -0.6330573 -0.016326701 -0.041703492
0.70405227 0.24060567 0.54280645 -0.51874137 0.7376472 0.28285226 0.08068879 0.6046136
0.1283799 -0.05357419 -0.22525989 0.7084927 0.725165 -0.01130298 0.2593349 0.19132417
-0.5472491 -0.6685879 -0.28347716 -0.16434985 0.99242353 0.53487337 -0.30452293 -0.57636505
0.43697065 -0.3109914 0.22552574 -0.10412747 0.5350182 0.026645228 0.11260568 0.14467363
0.54147726 0.23917791 -0.26077625 0.03678065 0.3717759 -0.2652227 0.22343433 0.43646
-0.3544725 0.45280886 -1.3665189 0.5798194 0.45309553 -0.76889116 -0.83132815 0.24304333
-0.8417788 0.29341263 0.49090922 0.14931467 0.36542025 0.106261976 -1.4923784 0.14814769
-0.11614997 -0.038466524 0.94001055 -0.03849541 -0.21852979 -0.3333563 0.24915981 -0.8997238
0.70716745 0.08964303 0.37309715 0.1656929 0.40108174 -0.11146289 0.12606089 0.16817862
-0.07038838 -0.53132033 1.076638 -0.24174899 0.4123531 -0.2822164 -0.2286873 -0.036904123
0.5081522 -0.6767055 -0.0026081093 -0.6235088 0.16404343 -0.1687476 -1.1446812 0.1539489
-0.53941745 -0.009623408 0.34833348 0.39739814 -0.52309173 0.4478137 -0.50851804 0.019596267
0.026571546 -0.040362027 -0.2489225 -0.6276051 -0.081597805 -0.5115086 0.7251837 0.20034316
-0.45885956 0.0004520984 0.3925119 -0.27164078 -0.44433597 -0.03272851 0.3312375 0.61588824
0.6012744 0.3567839 -0.23091179 -0.23117688 0.90951234 -1.0150899 -0.5401133 -0.6915813
0.5931138 -0.54244816 -0.3028968 -0.042201128 0.77766025 -0.03982617 0.8598328 -0.059504
-0.2292673 -0.50971866 -0.78025025 0.6211864 0.5678976 0.55027866 -0.5379431 -0.2877662
-0.21384788 -0.41923967 0.813374 -0.04287969 -0.5473563 -0.37293336 -1.3441079 0.2623678
-0.3187677 0.26500064 0.1692953 0.069845796 -0.069302596 0.32533103 -0.09212494 0.267596
-1.8852705 0.6107363 -1.0047853 0.13237697 -0.36733547 0.3307811 0.8133779 0.49286836
00000000: 4e4b e6bd 877d 27bf a3f0 283f d608 36bf
00000010: 68ba ab3e 8ee3 20bf 1fd5 1ebf 6257 ddbe
00000020: adff 103f 7029 d43e f48d 1d3e f611 42bf
00000030: 10d9 6bbe d07e 15bf 7f75 873e 432b 6cbf
00000040: 278c c83d 5583 46be 3ec2 11bf f653 7bbc
00000050: 92d4 7abe b1ab 03bd ffa1 5a3f 39b9 24bd
00000060: a24b 333f 301b e8bc 19b8 263f a45a 1dbe
00000070: b473 babf 1983 233e 0620 24be 3a82 143f
00000080: c081 05bc 8953 e6be f067 e3bd 30d7 c0bd
00000090: 6392 58bf 99a5 debe 042f 003f b18b 1c3e
000000a0: 0acd 093f 3f10 e7bd 3bce 4d3e bb09 f53e
000000b0: 1847 023e 785f 34be 3812 37be 959f 13bf
000000c0: 0cdb 343e df20 b93e 4177 153e 6079 adbe
000000d0: 6aed 1d3d 91fb ccbe d666 ebbd 258f 17bd
000000e0: a373 90bf 761a d53d 5f6b 2b3f 1ec0 113f
000000f0: bf55 f5bf 1261 bb3e cdfc a7bc 8140 22be
00000100: c772 383f 22ef 4cbe 91b9 863c e533 283e
00000110: 6be8 5b3f 7f1b 5abf 37a6 43bf 0652 d83e
00000120: 4555 1a3d 8d8b 1b3f 7398 1dbf 256c 2d3f
00000130: 2edd cabf 0b26 c43e 4c1a 51be 8c86 06be
00000140: 8d1d f0be c329 1aba 1784 efbe 189f e6be
00000150: c749 12be cf67 bc3e 2a19 e63e 9227 e43e
00000160: 4bca 093e d974 173e 8ba9 98bc 896f 993e
00000170: c00a aebd 0b10 22bf 93bf 85bc 48d1 2abd
00000180: c53c 343f 5561 763e 5df5 0a3f 3ccc 04bf
00000190: 72d6 3c3f 03d2 903e 2a40 a53d f5c7 1a3f
000001a0: 0576 033e 9c70 5bbd 87aa 66be c75f 353f
000001b0: 6aa4 393f 2230 39bc 8bc7 843e 7cea 433e
000001c0: 8418 0cbf 9428 2bbf eb23 91be 544b 28be
000001d0: 780f 7e3f 76ed 083f 6eea 9bbe a98c 13bf
000001e0: 9eba df3e 443a 9fbe 38f0 663e c840 d5bd
000001f0: f4f6 083f 1847 da3c cf9d e63d 5325 143e
00000200: 419e 0a3f 0eeb 743e 7784 85be 4fa7 163d
00000210: 6959 be3e 45cb 87be f8cb 643e af77 df3e
00000220: 6b7d b5be 90d6 e73e 17ea aebf 0b6f 143f
00000230: 23fc e73e 0dd6 44bf ecd1 54bf 5ae0 783e
00000240: d17e 57bf 2e3a 963e 7458 fb3e f2e5 183e
00000250: 5d18 bb3e e19f d93d 4106 bfbf 07b4 173e
00000260: 09e0 edbd 138f 1dbd 88a4 703f 5dad 1dbd
00000270: 46c6 5fbe adad aabe c023 7f3e 4d54 66bf
00000280: ed08 353f c496 b73d 9706 bf3e 66ab 293e
00000290: 965a cd3e a846 e4bd 1b16 013e 0437 2c3e
000002a0: c827 90bd 9c04 08bf 46cf 893f 0c8d 77be
000002b0: f21f d33e ab7e 90be 012d 6abe c728 17bd
000002c0: 4316 023f 923c 2dbf d0ec 2abb 469e 1fbf
000002d0: 00fb 273e 2ccc 2cbe ea84 92bf c8a4 1d3e
000002e0: 4317 0abf 80ab 1dbc c458 b23e c577 cb3e
000002f0: 57e9 05bf d647 e53e 3d2e 02bf 5a88 a03c
00000300: 92ac d93c a752 25bd 8ae5 7ebe baaa 20bf
00000310: c01c a7bd 3af2 02bf a4a5 393f c226 4d3e
00000320: a4ef eabe 9f07 ed39 52f7 c83e 8014 8bbe
00000330: 0180 e3be 550e 06bd f697 a93e daaa 1d3f
00000340: 1eed 193f 61ac b63e 2474 6cbe a2b9 6cbe
00000350: cdd5 683f 77ee 81bf dd44 0abf 790b 31bf
00000360: 4ed6 173f e2dd 0abf 4a15 9bbe 17db 2cbd
00000370: be14 473f c420 23bd 011e 5c3f 77ba 73bd
00000380: 0cc5 6abe ec7c 02bf 7bbe 47bf 1206 1f3f
00000390: bd61 113f 10df 0c3f a4b6 09bf 1756 93be
000003a0: f0fa 5abe 95a6 d6be 4739 503f 9da2 2fbd
000003b0: 8b1f 0cbf 1ff1 bebe ba0b acbf 1355 863e
000003c0: 8535 a3be 2aae 873e bf5b 2d3e 500b 8f3d
000003d0: 85ee 8dbd ca91 a63e 00ac bcbd 5802 893e
000003e0: 8b50 f1bf 3759 1c3f ce9c 80bf d48d 073e
000003f0: 6513 bcbe 245c a93e 8939 503f 3e59 fc3e

Q.0.bias f4 [128]
0.64652747 0.6014494 -0.26154116 -0.39244363 1.033964 -0.15739395 -0.31747222 0.29410926
1.3106428 1.4771105 1.5322001 1.6130186 0.40161622 1.3271734 0.8465037 1.0558047
-0.6274547 -0.08211309 0.8839293 -0.036707517 1.0054791 0.58946866 -0.19285673 -0.5126359
0.36727926 0.7882663 1.0285945 1.5998666 0.74535805 0.90883994 -0.2249847 1.307935
0.5366208 0.80338305 -0.13100979 1.00048 -0.66499376 -0.06966024 0.23195028 -0.15113491
1.2281138 -0.043976724 1.1385627 -0.8630561 -0.7695676 0.8952116 -0.16782606 1.7833703
0.81980085 -0.1552382 1.1407208 0.98622394 -0.2096553 -0.5030437 -0.14411882 0.9959917
-0.2173109 -0.10017109 -0.5515736 -0.68623364 -0.24235895 -0.47608423 0.3109148 0.15250388
0.56990016 1.156448 -0.22079815 1.196979 -1.0786098 -0.57333195 -0.45903793 0.88189065
-0.66073775 0.5727702 0.67746 0.2700402 1.6487294 1.553725 -0.2850726 -0.2518865
0.59517264 1.1403289 -0.6258407 -0.014484742 -0.69888103 -0.16345027 -0.5796443 1.6900358
-0.12635621 0.24524544 -0.48526472 0.46565142 -0.028373778 0.7359951 -1.0225543 1.214308
1.67414 -0.41482216 -0.6665983 0.7306935 1.1896644 -0.39591014 1.7269083 1.0567479
0.5706505 -0.34146583 -0.07527306 -0.15457422 0.81775576 1.9121925 1.5792577 -0.026699552
-0.5259712 -0.04405372 0.97189057 -0.485025 -0.049978673 1.7833649 -0.3839652 0.57531935
-0.60565716 1.0911511 1.050314 -0.6511062 -0.49852008 0.71239936 -0.8082752 1.1634749
00000000: d382 253f 96f8 193f b9e8 85be 5fee c8be
00000010: ef58 843f e12b 21be b88b a2be 7d95 963e
00000020: 25c3 a73f f511 bd3f 221f c43f 6577 ce3f
00000030: a4a0 cd3e d1e0 a93f 77b4 583f 9c24 873f
00000040: dfa0 20bf e82a a8bd 3149 623f 9f5a 16bd
00000050: 8ab3 803f 6be7 163f 3c7c 45be 1b3c 03bf
00000060: 070c bc3e d2cb 493f fca8 833f 6ec8 cc3f
00000070: c9cf 3e3f bca9 683f 6462 66be 6a6a a73f
00000080: fb5f 093f 83aa 4d3f 6e27 06be bb0f 803f
00000090: 083d 2abf 07aa 8ebd 6084 6d3e 1cc3 1abe
000000a0: d532 9d3f f020 34bd 6cbc 913f 3ff1 5cbf
000000b0: 6202 45bf 962c 653f 98da 2bbe 7a45 e43f
000000c0: 78de 513f c3f6 1ebe 2403 923f 2c79 7c3f
000000d0: e1af 56be 79c7 00bf e293 13be 50f9 7e3f
000000e0: c086 5ebe 8026 cdbd ed33 0dbf 02ad 2fbf
000000f0: f22c 78be 50c1 f3be 3a30 9f3e fa29 1c3e
00000100: fae4 113f 7d06 943f e918 62be 9c36 993f
00000110: e30f 8abf e2c5 12bf 0507 ebbe 96c3 613f
00000120: 1c26 29bf 11a1 123f 056e 2d3f b642 8a3e
00000130: 9109 d33f 76e0 c63f 09f5 91be 44f7 80be
00000140: 3c5d 183f 4cf6 913f 1937 20bf 6951 6dbc
00000150: dee9 32bf 825f 27be 9263 14bf 1853 d83f
00000160: 8663 01be 9f21 7b3e 9e74 f8be dd69 ee3e
00000170: 2070 e8bc 2d6a 3c3f 0fe3 82bf 726e 9b3f
00000180: 384a d63f 9263 d4be 30a6 2abf bb0e 3b3f
00000190: ec46 983f bcb4 cabe 550b dd3f 8443 873f
000001a0: 2716 123f 9cd4 aebe c328 9abd b448 1ebe
000001b0: 7158 513f b9c2 f43f 1e25 ca3f 05b9 dabc
000001c0: 0ca6 06bf ac71 34bd d2cd 783f 3255 f8be
000001d0: 70b6 4cbd 4d45 e43f 1697 c4be 2148 133f
000001e0: 590c 1bbf d7aa 8b3f b070 863f e5ae 26bf
000001f0: 063e ffbe ce5f 363f 20eb 4ebf bfec 943f

Q.2.weight f4 [128, 128]
-0.20324433 -0.13406394 0.24465586 -0.0122740865 0.07606064 0.22733139 -0.0528632 0.33268672
0.43322164 0.23272175 0.3095896 0.26503944 0.23101185 0.42943776 0.1578879 0.07265949
0.04247374 0.07679028 -0.09460477 -0.03084378 0.44679812 -0.077398755 -0.08445187 -0.06773971
-0.03573767 0.38457018 -0.21005166 0.49110454 0.18319605 -0.026347253 -0.022272877 0.37990624
0.32520914 0.032412294 0.09280703 0.030538278 -0.22622852 -0.008244567 -0.0789307 -0.018951721
0.30729112 0.017657071 0.037152715 -0.2046657 -0.376198 0.088456936 0.05606752 0.4125714
0.040680777 0.2298135 0.12097279 0.08464233 -0.044968728 -0.13074884 0.22106208 0.093313135
-0.04440766 0.030867338 -0.16025652 -0.04549705 0.17489745 -0.07346328 0.0580228 0.0002664036
0.11632866 0.28114364 0.14079708 0.1124613 -0.11533785 -0.18730606 0.34564584 -0.020490501
-0.26634878 0.051668487 0.049632672 0.029099273 0.4634255 0.41330022 0.013052881 0.13046199
0.094120085 0.17602833 0.07724794 -0.057652764 -0.05934231 -0.00398913 0.016223617 0.38050044
0.4396321 0.036923997 -0.060116757 -0.0714161 -0.07615876 -0.054627135 -0.09942092 0.16468345
0.41754955 -0.009001568 -0.0021759346 0.030012855 0.32199714 0.3016199 0.32052156 0.09754458
0.01935851 0.012806244 0.3756741 0.08312795 -0.17074497 0.28781408 0.2665752 0.22939016
0.044195406 -0.043942645 0.116643466 0.010453925 -0.043095816 0.34416285 0.019749738 -0.03588906
-0.27134457 0.09476836 0.13791865 -0.37681913 -0.17335576 0.005160363 -0.14477988 0.07042824
-0.49964416 0.016269317 0.0968972 0.07541748 0.20764436 -0.048170555 -0.060121424 0.11534835
0.38751584 0.87882435 1.1600933 0.761367 0.30837718 0.4354785 0.25341177 0.124389194
-0.0762685 0.007958829 -0.02964006 0.060492944 0.34682718 0.0014418726 0.07261623 0.022340685
-0.021539193 0.48554152 -0.5772811 1.0381716 0.26538542 0.13531297 -0.030870952 0.44381627
0.16104934 0.20419605 -0.007974373 0.21638796 -0.2287516 -0.11978606 0.14044337 -0.008534379
0.7318434 -0.024980076 0.29036516 -0.2888661 -0.395411 0.16696271 -0.07324721 0.9395486
0.2520118 0.061661005 0.13551742 0.10709214 0.056928124 -0.031249564 0.047353916 0.1692283
0.03655979 0.03144396 -0.08726247 0.08011281 0.18357283 0.025273852 0.083648555 0.014999075
0.11986213 0.4523262 0.22119679 0.26667586 -0.1653729 -0.024354614 0.13883984 0.14599082
-0.22081171 0.07026746 0.23504461 0.077741794 1.0204561 0.7811065 0.014821202 0.034951646
0.20912394 0.328789 -0.026325628 0.01872922 -0.0058740973 0.046454553 -0.046417966 1.0005585
0.10082962 0.044350855 -0.081600115 0.18988991 0.068303354 0.03056933 -0.1378972 0.6455658
0.9881217 -0.061497845 -0.033991255 0.10478319 0.70647687 0.25255743 1.1033444 0.17164972
0.044333704 -0.044809096 0.06998192 -0.058640376 -0.19108729 1.0900068 0.8625541 0.123465225
-0.086740345 -0.04866841 0.10896782 -0.046960093 -0.0710412 0.7467979 0.0054167435 0.22871199
-0.12772958 0.43483025 0.20767578 -0.47746092 0.032010872 0.36031562 -0.14064458 0.102840506
00000000: 481f 50be 0f48 09be 1187 7a3e 4019 49bc
00000010: aec5 9b3d 8fc9 683e 1587 58bd ea55 aa3e
00000020: 3acf dd3e 9c4e 6e3e 8782 9e3e 40b3 873e
00000030: 5f8e 6c3e 44df db3e 5ead 213e 80ce 943d
00000040: f2f8 2d3d 3944 9d3d 25c0 c1bd 18ac fcbc
00000050: b9c2 e43e 3d83 9ebd 1af5 acbd 1ebb 8abd
00000060: aa61 12bd 62e6 c43e c817 57be 0e72 fb3e
00000070: bf97 3b3e 32d6 d7bc 9c75 b6bc 1283 c23e
00000080: d081 a63e c1c2 043d 9d11 be3d 692b fa3c
00000090: 73a8 67be 3814 07bc 6ba6 a1bd a440 9bbc
000000a0: 4355 9d3e 90a5 903c 722d 183d e393 51be
000000b0: 069d c0be e928 b53d 0ea7 653d 8f3c d33e
000000c0: e3a0 263d 3b54 6b3e 95c0 f73d f558 ad3d
000000d0: 2131 38bd 06e3 05be 195e 623e f51a bf3d
000000e0: cee4 35bd 80dd fc3c 491a 24be 1d5b 3abd
000000f0: 5118 333e eb73 96bd 51a9 6d3d 16ac 8b39
00000100: b83d ee3d 0ff2 8f3e 1c2d 103e 1c52 e63d
00000110: 4036 ecbd 29cd 3fbe 7ef8 b03e b2db a7bc
00000120: de5e 88be 56a2 533d a14b 4b3d 9961 ee3c
00000130: 1b46 ed3e 169c d33e c0db 553c d497 053e
00000140: 08c2 c03d c540 343e 2b34 9e3d 4e25 6cbd
00000150: ec10 73bd 3fb7 82bb 64e7 843c f4d0 c23e
00000160: 7517 e13e 9e3d 173d fd3c 76bd 9b42 92bd
00000170: 20f9 9bbd b4c0 5fbd 329d cbbd c7a2 283e
00000180: 0ec9 d53e 507b 13bc 209a 0ebb 85dd f53c
00000190: cfdc a43e ec6d 9a3e 671b a43e 74c5 c73d
000001a0: bd95 9e3c 48d1 513c 5b58 c03e fd3e aa3d
000001b0: c5d7 2ebe 5e5c 933e 8b7c 883e 41e5 6a3e
000001c0: 3e06 353d 34fd 33bd c5e2 ee3d f046 2b3c
000001d0: 3d85 30bd 1d36 b03e 34ca a13c 6800 13bd
000001e0: aded 8abe ea15 c23d 8c3a 0d3e 70ee c0be
000001f0: 2c84 31be 4318 a93b 2d41 14be ae3c 903d
00000200: 5cd1 ffbe 3b47 853c 0a72 c63d 7b74 9a3d
00000210: b9a0 543e 7d4e 45bd e241 76bd c13b ec3d
00000220: 7a68 c63e a2fa 603f f07d 943f f3e8 423f
00000230: 9de3 9d3e 0af7 de3e 30bf 813e c3bf fe3d
00000240: a932 9cbd c065 023c b6cf f2bc 73c7 773d
00000250: 5593 b13e 37fd bc3a d1b7 943d d003 b73c
00000260: f672 b0bc e698 f83e b2c8 13bf cfe2 843f
00000270: 99e0 873e 7c8f 0a3e 14e5 fcbc e33b e33e
00000280: 1eea 243e c518 513e f2a6 02bc ce94 5d3e
00000290: dc3d 6abe 6552 f5bd 63d0 0f3e c8d3 0bbc
000002a0: 175a 3b3f 04a3 ccbc beaa 943e 42e6 93be
000002b0: 5073 cabe 46f8 2a3e a202 96bd 4286 703f
000002c0: b107 813e 4090 7c3d 14c5 0a3e 2053 db3d
000002d0: 772d 693d 16ff ffbc 2ef6 413d 2f4a 2d3e
000002e0: b8bf 153d 62cb 003d aab6 b2bd 2f12 a43d
000002f0: 84fa 3b3e 1c0b cf3c ef4f ab3d aebe 753c
00000300: 477a f53d 4d97 e73e 6981 623e bd89 883e
00000310: 8357 29be 5483 c7bc 082c 0e3e 9e7e 153e
00000320: 771c 62be 63e8 8f3d 89af 703e 1737 9f3d
00000330: 4e9e 823f 98f6 473f a0d4 723c 7529 0f3d
00000340: 9624 563e 0857 a83e d8a8 d7bc 056e 993c
00000350: 807b c0bb 2147 3e3d c420 3ebd 4d12 803f
00000360: c37f ce3d 3ea9 353d f61d a7bd 8072 423e
00000370: a1e2 8b3d 886c fa3c ec34 0dbe cd43 253f
00000380: 8bf5 7c3f 2ae5 7bbd 6a3a 0bbd 9298 d63d
00000390: abdb 343f 354f 813e 643a 8d3f f2c4 2f3e
000003a0: 4297 353d be89 37bd ae52 8f3d e430 70bd
000003b0: 63ac 43be 5885 8b3f 58d0 5c3f 56db fc3d
000003c0: eca4 b1bd 8758 47bd 852a df3d 3a59 40bd
000003d0: 0c7e 91bd 262e 3f3f f07e b13b 7a33 6a3e
000003e0: 8bcb 02be 12a2 de3e f6a8 543e c275 f4be
000003f0: d51d 033d 4a7b b83e 2205 10be 0b9e d23d

Q.2.bias f4 [128]
0.3658949 0.73742014 0.035452954 -0.07369275 -0.05895859 0.06482644 0.013861441 0.07320467
0.064551204 0.5507777 -0.042355202 0.015003099 -0.029134165 0.833641 0.03295346 -0.07806767
0.40445325 0.4867241 -0.074456 0.3995561 0.21765406 -0.07859469 0.5349171 0.016907101
-0.13068473 -0.0051771537 0.0745571 0.023233503 0.426626 0.4125242 0.072158165 -0.06511028
-0.0026323423 0.045325786 0.33530053 0.05021422 0.014622829 0.044963434 0.077048495 0.070089705
0.13110147 0.3623885 0.44617406 0.18880118 0.25944623 0.53544444 0.009946801 -0.03259083
0.80140406 0.32591876 -0.03665444 0.04522904 -0.075644255 -0.118910275 0.43939626 -0.063016206
0.55427414 0.51774096 0.52980936 -0.09573543 0.06461974 -0.082728796 -0.24427423 0.3556193
0.07010604 0.44940814 0.04439161 0.31865215 0.5497422 -0.023274533 0.2513105 0.011268802
-0.0018367091 0.104730725 0.478865 -0.10105639 0.0839219 -0.038048584 -0.05763373 0.5924674
-0.26022613 0.4428214 -0.021510003 0.038018726 -0.005159937 0.45878488 -0.020289227 0.5023648
0.07130983 0.64498633 0.076231435 -0.020105379 0.013497872 -0.019692048 0.024019793 0.70355743
0.22871265 0.43238217 -0.034169286 -0.2706019 -0.0015967815 0.75770915 0.4404322 0.67874277
0.5695455 -0.04629069 0.39020187 0.37849337 -0.008901329 -0.053631775 0.042085953 0.5002472
0.35978118 -0.16176806 0.081621505 -0.061181217 0.4097731 0.054849505 0.7031078 -0.061443225
0.49017406 0.037164107 -0.014861038 0.5154586 0.4450697 0.44429815 0.024403283 0.5155483
00000000: 9456 bb3e 91c7 3c3f 1e37 113d 39ec 96bd
00000010: 907e 71bd b9c3 843d 191b 633c 54ec 953d
00000020: 6c33 843d c4ff 0c3f a67c 2dbd 8fcf 753c
00000030: c6aa eebc 7f69 553f 35fa 063d f1e1 9fbd
00000040: 7f14 cf3e e733 f93e 637c 98bd 9e92 cc3e
00000050: b5e0 5e3e 41f6 a0bd 54f0 083f c380 8a3c
00000060: 38d2 05be 1da5 a9bb 65b1 983d 3054 be3c
00000070: b96e da3e 5f36 d33e a9c7 933d 8a58 85bd
00000080: 6083 2cbb 88a7 393d 83ac ab3e 6dad 4d3d
00000090: 9794 6f3c 942b 383d 9acb 9d3d 318b 8f3d
000000a0: 773f 063e fc8a b93e ed70 e43e 1955 413e
000000b0: 23d6 843e e312 093f e8f7 223c f67d 05bd
000000c0: d128 4d3f d3de a63e f722 16bd 1642 393d
000000d0: 60eb 9abd 3b87 f3bd 8cf8 e03e a40e 81bd
000000e0: e9e4 0d3f ac8a 043f 96a1 073f f010 c4bd
000000f0: 5b57 843d b76d a9bd 0623 7abe bc13 b63e
00000100: c193 8f3d d318 e63e fad3 353d 6026 a33e
00000110: e8bb 0c3f 3caa bebc c5ab 803e c8a0 383c
00000120: bbbd f0ba 107d d63d cb2d f53e a7f6 cebd
00000130: 3fdf ab3d d5d8 1bbd 5911 6cbd f2ab 173f
00000140: 5c3c 85be 7db9 e23e bf35 b0bc 86b9 1b3d
00000150: b014 a9bb dae5 ea3e 9835 a6bc fb9a 003f
00000160: e30a 923d d31d 253f 3a1f 9c3d 09b4 a4bc
00000170: 2e26 5d3c 3851 a1bc 28c5 c43c 571c 343f
00000180: a633 6a3e 3261 dd3e 18f5 0bbd 558c 8abe
00000190: 194b d1ba 3af9 413f 5480 e13e 16c2 2d3f
000001a0: bccd 113f 4e9b 3dbd 8ac8 c73e e2c9 c13e
000001b0: e1d6 11bc feac 5bbd 5262 2c3d 3310 003f
000001c0: 3d35 b83e 87a6 25be 2d29 a73d 2899 7abd
000001d0: c8cd d13e e0a9 603d dffe 333f e4ab 7bbd
000001e0: 18f8 fa3e 6439 183d b67b 73bc 18f5 033f
000001f0: 2de0 e33e 0c7b e33e 65e9 c73c f9fa 033f

Q.4.weight_mu f4 [4, 128]
-0.12982476 -0.5023821 0.016466014 0.06195499 0.0020200813 -0.06538604 -0.07553054 -0.0933487
-0.05028003 -0.40587595 -0.0011715088 0.061616756 -0.056252018 -0.45059666 0.043524377 0.061893366
-0.5980296 -0.36705843 0.019656233 -0.25850934 -0.8629146 -0.027526096 -0.34606767 -0.0660586
0.40441576 -0.056371827 -0.028182227 -0.026795607 -0.29683495 -0.24164023 0.044465102 -0.062073708
-0.026329 -0.042758934 -0.41933146 -0.030475942 0.0013654977 -0.081174895 -0.09486831 0.05673314
0.071252994 -0.12811324 -0.25483477 0.040204093 -0.44701764 -0.35641226 0.016608007 0.08135698
-0.5995467 -0.19982877 -0.005581215 0.052149303 -0.036307927 -0.04842896 -0.53504866 0.040545724
-0.37431863 -0.2973317 -0.31089935 0.046817146 -0.040256985 -0.029358745 0.27257916 -0.19759399
-0.01912272 -0.26217848 -0.026614819 -0.25452545 -0.32590234 -0.020475194 0.056309465 0.009863935
0.036773015 0.12638567 -0.3326553 -0.05229836 0.054206945 0.053827517 -0.09114336 -0.5490413
0.18927455 -0.30608585 -0.049661707 0.054954108 -0.0037420318 -0.42910057 0.023712605 -0.44818667
0.022720046 -0.22523771 0.044665586 0.0058829486 -0.06485529 -0.022821851 0.0072330204 -0.38327962
-0.0675621 -0.34994936 0.016274288 0.26939633 -0.0758155 -0.4968338 -0.30967396 -0.24172948
-0.45434618 0.0068811867 -0.2910639 -0.33396286 0.0546645 0.017081857 -0.05110305 -0.20875698
-0.16882458 0.3914373 -0.037985414 -0.013601445 -0.24187133 0.051398978 -0.95206 -0.047780953
-0.33971816 -0.0023892222 -0.019799778 -0.40930778 -0.39460725 -0.40151334 -0.0806143 -0.3657408
-0.38627002 -0.5831065 -0.011939806 -0.010850146 0.055164076 -0.058194652 -0.06639611 0.075502835
0.077217855 -0.28434482 0.04796011 0.059964053 0.008032322 -0.5218182 0.08735875 0.06212411
-0.52144194 -0.2089981 0.049597822 -0.40327662 -0.20912619 0.021302521 -0.21951774 -0.0022601858
-0.13611835 0.040808793 -0.0045500025 0.07089547 -0.46287662 -0.36365926 -0.069831476 -0.086996265
0.02040346 0.03398235 0.051102087 0.060613148 0.025872687 0.054194808 0.039781827 0.061302595
-0.25063995 -0.38545036 -0.3291081 -0.24269304 -0.53260803 -0.31488544 0.077880464 -0.014025226
-0.48842984 -0.35443255 -0.0680237 0.05811023 -0.08442854 0.03222935 0.10718676 0.04020106
-0.33907777 -0.37260365 -0.39249364 0.042940274 0.00522054 -0.06730022 -0.34153694 -0.47612488
-0.18760206 -0.35816365 -0.07595919 -0.4005888 -0.34379184 0.07123595 -0.42985559 -0.016482748
0.01499395 -0.031655896 -0.18549205 0.060777865 -0.02015283 -0.018405668 -0.057281718 -0.339078
-0.26596296 -0.42469975 0.031694565 -0.01634217 -0.03994675 -0.52222455 0.07185643 -0.18201853
0.016416565 -0.59439075 0.08181335 0.050974205 -0.019950815 0.009454384 0.02321602 -0.50067073
-0.3637823 -0.3933506 0.046109635 0.05047419 0.009309999 -0.5598216 -0.37517145 -0.49606645
-0.28770646 0.014555411 -0.3453422 -0.39538682 0.048634425 0.060334705 0.069356404 -0.3590734
-0.34995383 -0.11803303 -0.06191729 -0.03629125 -0.3729148 0.009679741 -0.2395443 -0.054592043
-0.34525245 -0.012133655 -0.016395904 -0.26207855 -0.33386588 -0.28281793 -0.018325657 -0.32696357
00000000: c8f0 04be 1d9c 00bf bce3 863c 84c4 7d3d
00000010: 5763 043b 1ee9 85bd c1af 9abd 9a2d bfbd
00000020: 6ff2 4dbd f9ce cfbe 508d 99ba da61 7c3d
00000030: 8468 66bd 9bb4 e6be 9e46 323d e683 7d3d
00000040: 7818 19bf 15ef bbbe 1c06 a13c 565b 84be
00000050: f9e7 5cbf 687e e1bc c82f b1be bb49 87bd
00000060: 950f cf3e 25e6 66bd 6ade e6bc 7682 dbbc
00000070: c0fa 97be 8970 77be 0a21 363d 0041 7ebd
00000080: eaaf d7bc fe23 2fbd 9db2 d6be afa8 f9bc
00000090: 80fa b23a 063f a6bd 514a c2bd 0261 683d
000000a0: 17ed 913d 1e30 03be b479 82be 0cad 243d
000000b0: 7fdf e4be ab7b b6be 840d 883c 7d9e a63d
000000c0: e47b 19bf ea9f 4cbe a0e2 b6bb 829a 553d
000000d0: 9fb7 14bd 725d 46bd f3f8 08bf 4613 263d
000000e0: b1a6 bfbe dc3b 98be 332e 9fbe 56c3 3f3d
000000f0: 82e4 24bd c081 f0bc 7f8f 8b3e 1456 4abe
00000100: 40a7 9cbc 423c 86be 5207 dabc 2951 82be
00000110: acdc a6be 98bb a7bc c1a4 663d 589c 213c
00000120: 4d9f 163d 3f6b 013e cc51 aabe ce36 56bd
00000130: 1a08 5e3d 3e7a 5c3d 5fa9 babd f88d 0cbf
00000140: 30d1 413e 49b7 9cbe 136a 4bbd 8f17 613d
00000150: e03c 75bb 12b3 dbbe f040 c23c b978 e5be
00000160: 641f ba3c b7a4 66be 43f3 363d c0c5 c03b
00000170: dad2 84bd e4f4 babc f902 ed3b 3a3d c4be
00000180: 005e 8abd 902c b3be a851 853c 51ee 893e
00000190: 2845 9bbd 0061 febe 968d 9ebe ef87 77be
000001a0: 10a0 e8be 947b e13b 5406 95be 2efd aabe
000001b0: e2e7 5f3d 40ef 8b3c 6f51 51bd 64c4 55be
000001c0: 5ae0 2cbe 786a c83e 9896 1bbd 98d8 5ebc
000001d0: 1ead 77be bc87 523d 34ba 73bf f6b5 43bd
000001e0: 8aef adbe 7f94 1cbb 2533 a2bc ca90 d1be
000001f0: f609 cabe 2893 cdbe 1c19 a5bd 6142 bbbe
00000200: 2fc5 c5be 7846 15bf 2d9f 43bc d0c4 31bc
00000210: baf3 613d 845d 6ebd affa 87bd 3ba1 9a3d
00000220: 6524 9e3d a595 91be d271 443d de9c 753d
00000230: 009a 033c e195 05bf 25e9 b23d da75 7e3d
00000240: 387d 05bf 9903 56be 1627 4b3d 467a cebe
00000250: 2d25 56be a082 ae3c 42c9 60be a01f 14bb
00000260: 9c62 0bbe 1f27 273d 3018 95bb a531 913d
00000270: 2afe ecbe 8c31 babe ce03 8fbd 192b b2bd
00000280: 2825 a73c 1431 0b3d 6c50 513d 7e45 783d
00000290: f5f2 d33c 60fb 5d3d 45f2 223d 6e18 7b3d
000002a0: e153 80be c059 c5be db80 a8be 8684 78be
000002b0: 0059 08bf aa38 a1be cb7f 9f3d 10ca 65bc
000002c0: 7a13 fabe 2f78 b5be 0250 8bbd fe04 6e3d
000002d0: dfe8 acbd ec02 043d bb84 db3d dea9 243d
000002e0: 9a9b adbe e8c5 bebe edf4 c8be 24e2 2f3d
000002f0: 1011 ab3b b3d4 89bd eedd aebe a4c6 f3be
00000300: c11a 40be 3a61 b7be 7e90 9bbd fa19 cdbe
00000310: 7c05 b0be 27e4 913d 0816 dcbe d406 87bc
00000320: 2fa9 753c 9da9 01bd a1f1 3dbe 36f2 783d
00000330: 8c17 a5bc 7cc7 96bc 3ca0 6abd a29b adbe
00000340: 4c2c 88be 3f72 d9be 29d2 013d 04e0 85bc
00000350: 349f 23bd 82b0 05bf 7729 933d 1163 3abe
00000360: 087c 863c fe29 18bf c28d a73d 54ca 503d
00000370: e46f a3bc 90e6 1a3c 862f be3c f52b 00bf
00000380: ac41 babe 4065 c9be 75dd 3c3d 06be 4e3d
00000390: f788 183c 7850 0fbf 7916 c0be 6cfc fdbe
000003a0: 434e 93be d279 6e3c b1d0 b0be 2470 cabe
000003b0: e434 473d 8621 773d bb0a 8e3d 78d8 b7be
000003c0: 262d b3be 4dbb f1bd fc9c 7dbd 22a6 14bd
000003d0: b0ee bebe c797 1e3c 1a4b 75be e89b 5fbd
000003e0: eec4 b0be 3dcc 46bc b450 86bc 292f 86be
000003f0: 78f0 aabe 83cd 90be b01f 96bc c567 a7be

Q.4.weight_sigma f4 [4, 128]
0.047710694 -0.015723567 0.020725451 0.020348158 0.0119740935 0.022097087 0.022097087 0.02740678
0.022097087 -0.0051201456 0.024463473 0.022097087 0.022097087 -0.007961384 0.022097087 0.022097087
0.00025651054 -0.008451614 0.022097087 0.016512677 -0.03857624 0.022097087 0.024684215 0.016828349
-0.0022852751 0.023802213 0.022097087 0.022097087 -0.009716565 -0.006343952 0.022097087 0.022097087
0.022097087 0.022097087 0.00617687 0.032211658 0.022097087 0.028102553 0.021093689 0.022097087
-0.027116794 -0.013743765 -0.011385347 -0.0041221613 0.0047664605 0.007235514 0.022097087 0.022097087
0.0036318228 -0.008367827 0.022097087 0.022097087 0.022097087 0.022097087 0.0012472484 0.022097087
-0.012121707 -0.0035221262 0.0013514886 0.022097087 0.02736575 0.022097087 0.047465626 -0.019905686
-0.045453213 0.02634687 0.022097087 0.0045581013 0.01200875 0.022097087 -0.017488562 0.022097087
0.049548574 0.029533079 -0.01443676 0.022097087 0.022097087 0.022097087 0.029614052 0.010625366
0.020044921 -0.0059286873 0.024619432 0.012796798 0.022097087 0.020782534 0.022097087 0.017716506
0.022097087 0.022711432 0.01693672 0.022097087 0.031696476 0.022097087 0.029491236 0.0043940693
-0.025235439 0.0019188944 0.018393334 0.041206665 0.026706435 0.01724543 0.0079999305 0.014137448
-0.019226562 0.019934122 -0.00018764587 -0.0071135587 0.022097087 0.022097087 0.022097087 -0.0018783562
-0.0057013393 -0.0006291308 0.022097087 0.022097087 0.0134164 0.02015939 0.020428283 0.022097087
0.0114519065 0.02857937 0.027365845 0.0073177665 -0.005926499 0.019885434 0.022097087 0.0072942385
0.021277972 0.0062592467 0.019350383 0.022097087 0.025488358 0.022097087 0.028376732 0.016792363
0.026119351 0.0036026484 0.020304047 0.014670464 0.022097087 -0.0025515687 0.022097087 0.022097087
-0.0044558626 0.0030964946 0.022097087 -0.012958246 -0.02344709 0.022097087 -0.010194187 0.022097087
-0.010796788 0.025556816 0.022097087 0.022097087 0.015924634 -0.0016840679 0.022097087 0.022097087
0.022097087 0.022097087 0.0053711766 0.02672353 0.031527508 0.028102495 0.013619233 0.029312158
0.060446456 -0.0040896437 0.0069007017 0.001638771 0.011766174 0.010729096 0.022097087 0.022097087
0.0009821363 0.0046541938 0.022097087 0.022097087 0.022097087 0.022097087 0.007876404 0.022097087
-0.004845116 0.010702268 0.007498271 0.022757115 0.022097087 0.022097087 0.02194322 0.0006751439
-0.030778328 -0.0058184457 0.022097087 -0.0046603256 0.0007686716 0.022097087 0.0057784123 0.022097087
0.039731693 0.022097087 0.009702929 0.022097087 0.022097087 0.022097087 0.025712585 -0.0014695323
0.018629266 -0.0027050104 0.023359975 0.018827502 0.022097087 -0.012573168 0.022097087 0.003607719
0.022097087 -0.0034636639 0.016091581 0.016091583 0.019869547 0.022097087 0.028102573 -0.0077296863
-0.005594101 0.008214606 0.02399445 0.10832615 0.02283267 -0.0030576217 -0.001123855 -0.0047138543
-0.00015718064 0.020638311 -0.0012020373 -0.0016832842 0.02810259 0.03958999 0.022097087 -0.01006693
0.0085674 -0.02437644 0.022097087 0.022097087 0.00574153 0.02359473 -0.0021844404 0.022097087
0.018188342 0.029667102 0.022097087 0.004692536 0.00016208802 0.0034191026 0.022097087 0.0007494845
00000000: 4a6c 433d b6ce 80bc 6cc8 a93c 2eb1 a63c
00000010: fd2e 443c f304 b53c f304 b53c 2f84 e03c
00000020: f304 b53c e5c6 a7bb 9f67 c83c f304 b53c
00000030: f304 b53c 7770 02bc f304 b53c f304 b53c
00000040: 437c 8639 a378 0abc f304 b53c 9845 873c
00000050: 1f02 1ebd f304 b53c 8d36 ca3c 9bdb 893c
00000060: 8ec4 15bb dcfc c23c f304 b53c f304 b53c
00000070: 3a32 1fbc ede0 cfbb f304 b53c f304 b53c
00000080: f304 b53c f304 b53c 5767 ca3b 5ff0 033d
00000090: f304 b53c 5337 e63c accc ac3c f304 b53c
000000a0: 0a24 debc 872d 61bc 9b89 3abc 3213 87bb
000000b0: f82f 9c3b e417 ed3b f304 b53c f304 b53c
000000c0: e003 6e3b 3619 09bc f304 b53c f304 b53c
000000d0: f304 b53c f304 b53c b67a a33a f304 b53c
000000e0: 209a 46bc 79d3 66bb 6f24 b13a f304 b53c
000000f0: 232e e03c f304 b53c 516b 423d 4011 a3bc
00000100: 262d 3abd 64d5 d73c f304 b53c 205c 953b
00000110: 59c0 443c f304 b53c 2c44 8fbc f304 b53c
00000120: 72f3 4a3d 5bef f13c 2988 6cbc f304 b53c
00000130: f304 b53c f304 b53c 2b99 f23c 0416 2e3c
00000140: 3f35 a43c 6f45 c2bb b1ae c93c a9a9 513c
00000150: f304 b53c 2240 aa3c f304 b53c 3522 913c
00000160: f304 b53c 530d ba3c e0be 8a3c f304 b53c
00000170: 2ad4 013d f304 b53c 9b97 f13c 20fc 8f3b
00000180: 8dba cebc 6983 fb3a 9ead 963c 52c8 283d
00000190: 74c7 da3c 4a46 8d3c 2412 033c c1a0 673c
000001a0: 0681 9dbc e24c a33c cec2 44b9 db18 e9bb
000001b0: f304 b53c f304 b53c f304 b53c 2d33 f6ba
000001c0: 4dd2 babb 41ec 24ba f304 b53c f304 b53c
000001d0: 76d0 5b3c 4e25 a53c 3759 a73c f304 b53c
000001e0: c7a0 3b3c 481f ea3c 562e e03c e0c9 ef3b
000001f0: 1433 c2bb c7e6 a23c f304 b53c 8204 ef3b
00000200: 244f ae3c 5e1a cd3b b284 9e3c f304 b53c
00000210: f6cc d03c f304 b53c 5276 e83c 2390 893c
00000220: 40f8 d53c 691a 6c3b ac54 a63c 635c 703c
00000230: f304 b53c 3838 27bb f304 b53c f304 b53c
00000240: 7c02 92bb 8fee 4a3b f304 b53c d34e 54bc
00000250: 1d14 c0bc f304 b53c 8505 27bc f304 b53c
00000260: 03e5 30bc 875c d13c f304 b53c f304 b53c
00000270: 6174 823c f1bb dcba f304 b53c f304 b53c
00000280: f304 b53c f304 b53c b200 b03b 4eeb da3c
00000290: fd22 013d 3437 e63c 3423 5f3c 0d20 f03c
000002a0: b496 773d 6b02 86bb 481f e23b 08cc d63a
000002b0: e9c6 403c 17c9 2f3c f304 b53c f304 b53c
000002c0: 07bb 803a 3582 983b f304 b53c f304 b53c
000002d0: f304 b53c f304 b53c 080c 013c f304 b53c
000002e0: c7c3 9ebb 9158 2f3c 0eb4 f53b 216d ba3c
000002f0: f304 b53c f304 b53c 45c2 b33c 24fc 303a
00000300: d522 fcbc a9a8 bebb f304 b53c a5b5 98bb
00000310: ae80 493a f304 b53c d658 bd3b f304 b53c
00000320: b3bd 223d f304 b53c 09f9 1e3c f304 b53c
00000330: f304 b53c f304 b53c 33a3 d23c 529d c0ba
00000340: 679c 983c 8b46 31bb 6b5d bf3c 223c 9a3c
00000350: f304 b53c b0ff 4dbc f304 b53c 7b6f 6c3b
00000360: f304 b53c a3fe 62bb 7ed2 833c 7fd2 833c
00000370: 76c5 a23c f304 b53c 5e37 e63c 4f49 fdbb
00000380: b84e b7bb 8e96 063c 0290 c43c 1ada dd3d
00000390: 940b bb3c 6162 48bb 514e 93ba ad76 9abb
000003a0: dbd0 24b9 ad11 a93c ae8d 9dba a5a1 dcba
000003b0: 6737 e63c 1d29 223d f304 b53c c4ef 24bc
000003c0: 485e 0c3c 1ab1 c7bc f304 b53c f304 b53c
000003d0: 7223 bc3b bc49 c13c d428 0fbb f304 b53c
000003e0: b8ff 943c 6c08 f33c f304 b53c d8c3 993b
000003f0: 2cf6 2939 0613 603b f304 b53c 0e79 443a

Q.4.bias_mu f4 [4]
-0.50922716 -0.3517931 -0.23402852 -0.33985433
00000000: b65c 02bf 3a1e b4be 2ca5 6fbe 6301 aebe

Q.4.bias_sigma f4 [4]
-0.08984982 -0.00868028 0.014694791 0.031139897
00000000: 2f03 b8bd bc37 0ebc 6cc2 703c 1919 ff3c

Q.4.weight_epsilon f4 [4, 128]
0.697812 0.31058282 -0.7715897 -0.8060935 0.9108173 -0.8475953 -0.9921545 -1.2363924
-0.1986863 -0.7007038 -1.1358246 -0.6482709 0.9129716 1.080072 -1.2081296 1.1399091
1.3708861 -0.47053844 0.7412315 0.952571 -0.63895506 -0.6344474 -1.0799654 -0.47440955
1.069909 0.5866676 -0.97424 1.4166232 -0.34347227 -0.87752306 -0.8916305 0.96636367
-0.65350354 1.0699857 -0.86644447 0.23460536 0.4896701 -0.7646634 -0.46856278 -0.61965954
1.1513982 -0.9470526 -0.70856607 0.6390057 1.2698424 -0.5965714 -0.82998455 0.618399
-0.990085 -0.6085068 -0.6757938 -0.8921995 0.7077743 -0.47189575 0.4828291 -0.17036973
0.86975133 1.2647872 0.40020004 -0.991008 -0.76995 -0.94210446 0.86486113 -1.0209848
0.12575668 -0.40832606 0.8889241 -0.75677365 -0.6228552 1.0642511 -0.55046403 0.27926955
0.9426297 0.34680516 0.3742279 -0.7737853 -0.7863294 1.4263372 1.1442225 -0.442425
0.8268058 1.2223687 -0.712704 -0.54136723 0.16475679 0.6112631 1.3664885 -0.6943797
-0.3127261 -1.0645225 -1.1207509 -0.6889807 -0.6816755 -0.14879462 -1.4021261 0.8753374
-1.2732344 0.46552765 0.9551515 -1.3808125 0.8357397 -0.72258353 -0.5282543 1.1563584
0.7086771 -1.0097032 -1.1736392 -0.85282576 -0.39877662 -0.8274137 -0.7093819 -1.4568053
-0.4635581 -1.0928786 -0.4305082 -1.061238 0.5437916 0.65621734 -0.05984132 1.0147142
-0.32723844 0.8851596 -0.7327477 0.36043075 0.7090909 -0.98178726 -0.6940256 0.3949619
-1.0362207 -0.46120206 1.1457773 1.197014 -1.3525244 1.2586423 1.4733065 1.8359892
0.29504058 1.0405148 1.6866504 0.96265423 -1.3557234 -1.6038603 1.7940202 -1.6927158
-2.0357065 0.6987292 -1.1006967 -1.4145267 0.94882065 0.9421269 1.6037018 0.70447767
-1.5887686 -0.87117606 1.4467043 -2.1036243 0.5100415 1.3030838 1.3240327 -1.4350083
0.9704245 -1.5888826 1.2866325 -0.3483788 -0.72713894 1.1354921 0.6957955 0.9201676
-1.7097765 1.4063321 1.05219 -0.9488959 -1.8856609 0.88588274 1.2324911 -0.9182958
1.4702334 0.90360624 1.0035247 1.3248777 -1.0510142 0.7007448 -0.7169803 0.25299168
-1.2915431 -1.8781543 -0.59427977 1.471604 1.1433425 1.3989844 -1.2842814 1.5161183
-0.18674323 0.60634655 -1.3200139 1.1237762 0.924913 -1.5803668 0.81741524 -0.41470322
-1.3997643 -0.5149906 -0.5557123 1.1490377 1.1676651 -2.1180491 -1.6991209 0.656982
-1.2277708 -1.8151648 1.0583346 0.8039069 -0.2446567 -0.9076993 -2.0291762 1.0311239
0.46438473 1.5807699 1.6642666 1.0231066 1.0122586 0.22095357 2.0820966 -1.2998382
1.890698 -0.6912885 -1.4183587 2.050447 -1.2410372 1.0730053 0.78443474 -1.7171422
-1.0523548 1.4993654 1.7428035 1.2664094 0.59216607 1.2286736 1.0534014 2.163293
0.68836373 1.6228775 0.63928604 1.5758926 -0.80750704 -0.97445434 0.08886177 -1.5068069
0.48593494 -1.3144238 1.0880986 -0.5352241 -1.0529692 1.4579116 1.0305979 -0.5865013
00000000: cfa3 323f b604 9f3e e786 45bf 255c 4ebf
00000010: 532b 693f 01fc 58bf d6fd 7dbf 1b42 9ebf
00000020: 6c74 4bbe 5361 33bf b362 91bf 15f5 25bf
00000030: 82b8 693f cd3f 8a3f fea3 9abf 8be8 913f
00000040: 3279 af3f 6aea f0be 59c1 3d3f b1db 733f
00000050: 8f92 23bf 256b 22bf 4e3c 8abf cfe5 f2be
00000060: c7f2 883f d92f 163f cb67 79bf e953 b53f
00000070: 99db afbe 5aa5 60bf e541 64bf 9c63 773f
00000080: 024c 27bf 4bf5 883f 4ecf 5dbf 633c 703e
00000090: 0ab6 fa3e fbc0 43bf 76e7 efbe 02a2 1ebf
000000a0: 0461 933f 0a72 72bf 9664 35bf e195 233f
000000b0: 328a a23f e7b8 18bf de79 54bf 664f 1e3f
000000c0: 3676 7dbf 1ac7 1bbf d300 2dbf 3067 64bf
000000d0: b230 353f 529c f1be 6035 f73e 6775 2ebe
000000e0: 06a8 5e3f 8ce4 a13f 05e7 cc3e b3b2 7dbf
000000f0: 711b 45bf c22d 71bf 8a67 5d3f a1af 82bf
00000100: 5cc6 003e 1d10 d1be 8890 633f ebbb 41bf
00000110: 7073 1fbf 6139 883f 36eb 0cbf 6bfc 8e3e
00000120: 2e50 713f 7290 b13e cd9a bf3e cb16 46bf
00000130: e24c 49bf 3892 b63f e275 923f 8885 e2be
00000140: 8ba9 533f 9476 9c3f c573 36bf 0b97 0abf
00000150: 01b6 283e bd7b 1c3f 18e9 ae3f dec2 31bf
00000160: a31d a0be 4642 88bf c474 8fbf 0a61 30bf
00000170: 4982 2ebf 9e5d 18be de78 b3bf 1d16 603f
00000180: 58f9 a2bf a459 ee3e cf84 743f 77be b0bf
00000190: 09f3 553f 3cfb 38bf ac3b 07bf 8d03 943f
000001a0: dd6b 353f f43d 81bf cf39 96bf ca52 5abf
000001b0: 732c ccbe 62d1 53bf 0d9a 35bf 9978 babf
000001c0: 7d57 edbe 72e3 8bbf 926b dcbe a6d6 87bf
000001d0: ed35 0b3f dcfd 273f 2c1c 75bd 28e2 813f
000001e0: cc8b a7be d299 623f 5a95 3bbf 618a b83e
000001f0: fb86 353f 6956 7bbf a9ab 31bf 7238 ca3e
00000200: e1a2 84bf ad22 ecbe d5a8 923f c137 993f
00000210: 851f adbf 311b a13f 4f95 bc3f b201 eb3f
00000220: 8f0f 973e 972f 853f 29e4 d73f 8270 763f
00000230: 5888 adbf 4b4b cdbf 74a2 e53f e9aa d8bf
00000240: 0449 02c0 ebdf 323f a1e3 8cbf 360f b5bf
00000250: e9e5 723f 3b2f 713f 1a46 cd3f a658 343f
00000260: c55c cbbf 6505 5fbf 9b2d b93f c8a1 06c0
00000270: 1492 023f 73cb a63f e779 a93f 5aae b7bf
00000280: bd6d 783f 8160 cbbf 60b0 a43f b55e b2be
00000290: c725 3abf ce57 913f a71f 323f 1b90 6b3f
000002a0: f5d9 dabf b102 b43f 29ae 863f d7ea 72bf
000002b0: 565d f1bf 36c9 623f 45c2 9d3f 6f15 6bbf
000002c0: 9c30 bc3f bd52 673f 7f73 803f 9895 a93f
000002d0: a287 86bf 0364 333f 058c 37bf 2088 813e
000002e0: 4951 a5bf 5c67 f0bf b822 18bf 855d bc3f
000002f0: 0c59 923f ec11 b33f 5563 a4bf 2a10 c23f
00000300: 9e39 3fbe 8739 1b3f 37f6 a8bf e6d7 8f3f
00000310: 19c7 6c3f 7649 cabf 2042 513f fb53 d4be
00000320: 7a2b b3bf 6dd6 03bf 2943 0ebf ab13 933f
00000330: 0d76 953f 1e8e 07c0 cb7c d9bf f92f 283f
00000340: 9827 9dbf 5257 e8bf 8277 873f d8cc 4d3f
00000350: 4987 7abe fb5e 68bf 06de 01c0 defb 833f
00000360: d6c3 ed3e ab56 ca3f b006 d53f 28f5 823f
00000370: b191 813f a741 623e 1241 0540 1961 a6bf
00000380: 6402 f23f 48f8 30bf c78c b5bf 863a 0340
00000390: 4fda 9ebf 3d58 893f b7d0 483f 51cb dbbf
000003a0: 90b3 86bf 35eb bf3f 2f14 df3f b419 a23f
000003b0: 3298 173f 2d45 9d3f dbd5 863f 6473 0a40
000003c0: 9b38 303f 73ba cf3f 40a8 233f d9b6 c93f
000003d0: c8b8 4ebf d775 79bf 29fd b53d 0cdf c0bf
000003e0: 77cc f83e 0a3f a8bf d146 8b3f 7204 09bf
000003f0: b2c7 86bf d99c ba3f a2ea 833f f324 16bf

Q.4.bias_epsilon f4 [4]
0.90729076 -1.3472875 1.6010578 -1.3119222
00000000: 3544 683f eb73 acbf 76ef cc3f 11ed a7bf
