model_w/Noisy_DQN/NoisyNetDQN_7999k.pth (torch, 77572 bytes, 10 tensors)

Q.0.weight f4 [128, 2]
0	0x3def2268	0.11676484
1	0xbe3e35c4	-0.18575197
2	0x3ef7efe3	0.48425207
3	0x3ebd8553	0.3701578
4	0x3e89fbd1	0.26949933
5	0x3ece6187	0.40308782
6	0x3f0dcc7b	0.5539014
7	0x3ede7a33	0.43452606
8	0xbed55501	-0.41666415
9	0x3ebf321f	0.37342927
10	0x3d79f5fb	0.0610256
11	0xbdeefb4c	-0.11669025
12	0x3eaa1c6d	0.33224812
13	0x3f1b0684	0.6055682
14	0x3ed2b7b9	0.41155794
15	0x3ec38c7f	0.38193128
16	0x3ebc9062	0.36828905
17	0x3efa351a	0.48868638
18	0x3ed85037	0.422487
19	0xbd45dc36	-0.048305713
20	0xbf2f4bec	-0.6847522
21	0x3eb4c6b9	0.35307863
22	0xbeefe20e	-0.46852154
23	0x3e6820dc	0.22668785
24	0xbf11e6b4	-0.5699265
25	0x3e9b8145	0.30372062
26	0xbeea833c	-0.4580325
27	0x3e992f5c	0.29918945
28	0x3ea79037	0.32727215
29	0xbe44f1f7	-0.19232927
30	0x3e97fbca	0.29684287
31	0xbed2d088	-0.41174722
32	0x3d9a3319	0.07529277
33	0xbf0a8576	-0.54109895
34	0xbeccfbef	-0.4003596
35	0x3e4e26d1	0.20131995
36	0xbe76e2fe	-0.24110028
37	0xbde77bd8	-0.11302918
38	0x3ed0be4c	0.40770185
39	0x3e586fd5	0.2113641
40	0xbed21e67	-0.4103882
41	0x3edf0e36	0.4356553
42	0x3d5ed7f4	0.054405168
43	0x3f2166f3	0.63047713
44	0x3b2f1f7b	0.0026721645
45	0x3eb44daa	0.35215503
46	0x3dd5794f	0.104235284
47	0x3e424b22	0.18973973
48	0x3dede492	0.11615862
49	0x3e458e28	0.1929251
50	0xbf4a051a	-0.78914034
51	0x3ee0a983	0.43879327
52	0x3cc17e25	0.02361972
53	0xbe713e69	-0.23558964
54	0x3ea5c240	0.32374763
55	0xbd408c17	-0.0470086
56	0xbf22a208	-0.6352849
57	0xbeae9432	-0.3409744
58	0xbe9c3eaa	-0.3051656
59	0x3e9ff442	0.3124104
60	0xbc9cc480	-0.019136667
61	0xbf31ed1a	-0.69502413
62	0xbf77af3e	-0.96751773
63	0x3e1433c7	0.14472876
64	0x3ccfa5f8	0.025347695
65	0x3e17a6a8	0.14809668
66	0x3e457ba3	0.19285445
67	0xbf337be3	-0.7011091
68	0xbdca9e88	-0.09893519
69	0xbe28b594	-0.16475517
70	0xbe34a98f	-0.17642806
71	0x3b8cd7dd	0.004298194
72	0xbf1e2167	-0.6176972
73	0x3ab94000	0.0014133453
74	0xbeefebe8	-0.4685967
75	0x3e9d8815	0.30767885
76	0x3ea281c8	0.3173964
77	0x3f0878a7	0.533091
78	0xbe395e75	-0.18102439
79	0x3e5e6a6f	0.21720289
80	0xbea2b27a	-0.31776792
81	0xbe22a710	-0.15884042
82	0x3f2577d9	0.64636
83	0xbe4e20a4	-0.20129639
84	0x3ed33a23	0.41255292
85	0xbe2a7b04	-0.16648489
86	0xbec6a03f	-0.38794133
87	0x3ec64d94	0.38731062
88	0x3f262637	0.6490206
89	0xbd1c8fca	-0.038223065
90	0xbf43556d	-0.76302224
91	0x3ed8f2f9	0.42372873
92	0xbed1481b	-0.40875325
93	0x3eb125b5	0.3459908
94	0x3e6486a8	0.22316992
95	0x3ed4448e	0.41458553
96	0xbdaac35f	-0.08338045
97	0x3df28982	0.11842634
98	0x3f1e4fa1	0.61840254
99	0x3c9de479	0.019273983
100	0x3e726e38	0.23674858
101	0x3ea16056	0.3151881
102	0x3f155824	0.58337617
103	0xbe2539d8	-0.16135347
104	0xbf0291c1	-0.5100365
105	0xbe6f30ba	-0.23358431
106	0xbeb188d0	-0.34674692
107	0x3eca2a83	0.3948556
108	0xbe3d3c88	-0.18480122
109	0xbe3d6d24	-0.18498665
110	0x3f0ff359	0.56230694
111	0xbeea00ca	-0.45703727
112	0x3ebefb0b	0.37300906
113	0x3d65f9fa	0.0561466
114	0xbeeb32a5	-0.45937076
115	0x3e72df0b	0.23717897
116	0xbec3008b	-0.38086352
117	0x3ea9849d	0.33108988
118	0xbf09d3fe	-0.538391
119	0x3e70bd5f	0.2350974
120	0x3ee2a5ec	0.44267213
121	0xbe3ac894	-0.18240577
122	0x3e707fdb	0.23486273
123	0xbe60ba9e	-0.21946189
124	0x3f33951c	0.701494
125	0xbf1640e5	-0.5869277
126	0xbe4a7a44	-0.19773203
127	0x3e539c5b	0.20665114
128	0x3f37b871	0.7176581
129	0x3ecfa00c	0.40551794
130	0x3de54906	0.11195569
131	0x3ee8ad63	0.45444784
132	0x3f028a34	0.5099213
133	0x3e83a1b3	0.25709304
134	0x3f2212b3	0.6330978
135	0xbedc8bd0	-0.43075418
136	0x3f238d08	0.6388707
137	0x3ef2d952	0.47431427
138	0xbeed86f4	-0.46392024
139	0x3e9d0256	0.30665845
140	0x3eae657a	0.34061795
141	0x3e18e140	0.14929676
142	0xbcf0e079	-0.029403912
143	0x3d7e32fc	0.06206034
144	0x3e37477c	0.17898363
145	0xbe52a105	-0.20569237
146	0x3da30387	0.07959657
147	0xbddac98b	-0.106829725
148	0xbc8c306e	-0.017112937
149	0x3f25f142	0.64821255
150	0xbf30c180	-0.6904526
151	0x3f158e68	0.5842042
152	0xbe3ff824	-0.18747002
153	0x3dc190c2	0.094514385
154	0xbea5fc54	-0.32419074
155	0x3e1f13f0	0.1553495
156	0x3f0bd839	0.54626805
157	0x3e8a139d	0.2696809
158	0x3f4034c0	0.7508049
159	0xbe54b371	-0.20771576
160	0x3e503910	0.20334268
161	0xbc61921b	-0.013767744
162	0xbeb44fed	-0.3521723
163	0x3f131aab	0.5746257
164	0x3f03c848	0.5147748
165	0xbef037e2	-0.46917635
166	0xbf333377	-0.70000404
167	0x3eb7ff01	0.3593674
168	0xbeec2e7e	-0.4612922
169	0xbebb3925	-0.36567035
170	0x3f3e1a82	0.742592
171	0xbe4b2a8c	-0.19840449
172	0x3f47b123	0.78004664
173	0xbe8dcb51	-0.2769418
174	0x3e778b1a	0.24174157
175	0x3e30fd63	0.1728416
176	0xbe513cd0	-0.20433354
177	0xbf018eb0	-0.5060835
178	0xbe099152	-0.13434342
179	0x3d8e74af	0.069558494
180	0x3f19ed7d	0.60128003
181	0x3eb2a0ce	0.3488831
182	0xbf313ee4	-0.6923659
183	0x3b772531	0.0037711377
184	0x3ecc4a01	0.3990021
185	0x3e2682b6	0.162608
186	0xbea395b3	-0.3195015
187	0x3e51e733	0.20498352
188	0x3f5be754	0.85899854
189	0xbf125ccd	-0.5717285
190	0xbfa27697	-1.2692441
191	0x3e1dfae3	0.15427737
192	0xbbfcf2c5	-0.00771937
193	0x3ed8548f	0.42252013
194	0x3f457da6	0.7714485
195	0xbe7bbc99	-0.24583663
196	0x3f2a56f4	0.6653893
197	0xbec1fd1f	-0.3788843
198	0x3e055f21	0.1302457
199	0xbd18780a	-0.037223853
200	0xbf2449e3	-0.6417524
201	0x3e83731e	0.25673765
202	0x3e127281	0.14301492
203	0xbe220893	-0.15823583
204	0x3f08c927	0.53431934
205	0xbebfa3f2	-0.37429768
206	0xbe1fcecc	-0.1560623
207	0x3d6f8dfd	0.05848502
208	0x3ece05a9	0.40238693
209	0xbe8241a0	-0.25440693
210	0xbe3461ba	-0.17615405
211	0x3f13ab53	0.57683295
212	0x3e8696b4	0.26286852
213	0xbef3117a	-0.4747427
214	0x3e24b81b	0.16085856
215	0xbebea4bb	-0.37235054
216	0x3ee2a2cc	0.4426483
217	0x3da17a1a	0.07884617
218	0xbe476c78	-0.19474971
219	0x3cf491d2	0.029854689
220	0x3f0d6ba6	0.55242383
221	0xbe9ce5c1	-0.30644038
222	0xbf4da931	-0.8033629
223	0x3edc379a	0.4301117
224	0xbe977b4e	-0.29586262
225	0xbf1a2cb5	-0.6022447
226	0xbeb57f27	-0.35448572
227	0x3f173e57	0.590795
228	0x3f5887df	0.8458232
229	0xbf179109	-0.5920568
230	0xbe466be2	-0.19377092
231	0x3ea2fa7a	0.31831723
232	0x3e9a7f20	0.30175114
233	0xbd606648	-0.054785043
234	0x3e6b76dd	0.22994561
235	0x3ee65234	0.4498459
236	0x3df96629	0.12177689
237	0xbe0a8db7	-0.13530622
238	0xbf029ea3	-0.5102331
239	0x3ed4d41e	0.41568083
240	0x3f2197e2	0.6312238
241	0x3ec0625b	0.3757504
242	0xbf4cdda2	-0.80025685
243	0x3e8faa8c	0.28059804
244	0x3f292ae1	0.66081053
245	0xbc36acdd	-0.011149612
246	0x3f05aa21	0.5221272
247	0xbeb3d24c	-0.3512138
248	0x3f099b3a	0.5375248
249	0xbebec05f	-0.37256142
250	0x3e463862	0.19357446
251	0xbe8e92ae	-0.27846283
252	0x3d7b6b00	0.06138134
253	0xbe3d293c	-0.18472761
254	0x3f3000a1	0.6875096
255	0x3e09d07f	0.13458441

Q.0.bias f4 [128]
0	0x3fb5bb82	1.4197848
1	0xbf5e07c7	-0.8673062
2	0xbf7bfd57	-0.9843344
3	0xbfb600ea	-1.4219029
4	0x3f8aa478	1.0831442
5	0x3f8fe7f2	1.1242659
6	0x3ed5374e	0.41643757
7	0xbe9a19bc	-0.3009776
8	0x3f2dbca5	0.67865974
9	0x3fb2daa3	1.3972973
10	0x3f7d6576	0.9898294
11	0x3f9bb430	1.2164364
12	0x3ebfcdec	0.37461793
13	0xbf9187e1	-1.1369592
14	0xbebd1d99	-0.36936644
15	0xbea4e3ad	-0.32204953
16	0x3f464ad6	0.7745794
17	0x3f49f903	0.78895587
18	0xbdfd89e0	-0.12379813
19	0xbfcf7c40	-1.6209793
20	0xbf8206cc	-1.0158324
21	0xbf355441	-0.70831686
22	0x3f9995d3	1.1998848
23	0x3fb35ba9	1.4012347
24	0xbfb7fe98	-1.4374571
25	0x3f89aad2	1.0755255
26	0x3fc996a8	1.5749102
27	0x3fb0d930	1.381628
28	0xbf34c93a	-0.7061955
29	0x3e19871f	0.14992951
30	0xbdab91f0	-0.08377445
31	0x3fb45526	1.4088485
32	0xbe3b92de	-0.18317744
33	0x3f222da5	0.633509
34	0xbd6c1960	-0.057641387
35	0x40225973	2.5367095
36	0xbde6fa40	-0.112782
37	0xbf9aaa9d	-1.2083317
38	0xbf7c3fd0	-0.9853487
39	0xbfbd7299	-1.4800597
40	0xbf170035	-0.5898469
41	0x3f430f27	0.76194996
42	0x3fb50807	1.4143075
43	0x3f962eb5	1.1733004
44	0x3f897847	1.0739831
45	0x3f890417	1.0704373
46	0xbfbb3b56	-1.4627483
47	0x3ef71658	0.48259234
48	0x3eeb9ce5	0.4601814
49	0xbf9c7514	-1.222323
50	0xbfb7a956	-1.4348552
51	0x3f8ba7ca	1.091058
52	0xbecbfe2b	-0.39842352
53	0x3f69b1c4	0.91286874
54	0xbf1e575f	-0.6185207
55	0x3f89f2f3	1.0777267
56	0xbf800fed	-1.000486
57	0xbfa0d5ab	-1.2565206
58	0x3fab8b1c	1.3401828
59	0xbd46c179	-0.048524354
60	0x3fc706e5	1.5548979
61	0x3faeea4c	1.3665252
62	0x3fafde88	1.3739786
63	0xbf90d594	-1.1315179
64	0xbfb9869a	-1.4494202
65	0x3f93ab47	1.1536645
66	0x3f6c7d66	0.9237884
67	0x3f8c97fe	1.0983884
68	0xbfc742f0	-1.5567303
69	0xbf9f1e1c	-1.2431064
70	0x3f9da489	1.2315837
71	0x3f4bbaf3	0.79582137
72	0xbf3e22c0	-0.74271774
73	0x3f88789b	1.0661806
74	0x3ea28ee3	0.3174964
75	0xbeae3320	-0.3402338
76	0x3fcab550	1.5836582
77	0x3f99c41a	1.201297
78	0xbfa30a55	-1.2737528
79	0xbed2cc9b	-0.41171727
80	0xbf9c1f58	-1.2197065
81	0xbe2214ac	-0.15828198
82	0x3fa95a35	1.3230654
83	0xbfbb30f7	-1.4624318
84	0xbebcdba1	-0.36886314
85	0xba6150ac	-0.000859509
86	0x3f1fe0cc	0.6245239
87	0xbc78bf90	-0.015182391
88	0xbdf83db8	-0.12121147
89	0x3f8f9870	1.1218395
90	0xbfb5fe6b	-1.4218267
91	0xbeb2d06d	-0.3492464
92	0x3f64a32d	0.89311486
93	0xbd35910e	-0.044327788
94	0x3f89e176	1.077193
95	0xbeacaff3	-0.3372799
96	0x3f5cec88	0.8629842
97	0x3f34904f	0.705327
98	0xbf22a410	-0.6353159
99	0x3f954bda	1.1663773
100	0xbf07c05c	-0.5302789
101	0x3fb1ae19	1.3881255
102	0x3fb51346	1.4146507
103	0x3fd586ff	1.6681823
104	0x3f567d20	0.83784676
105	0xbf08c783	-0.5342943
106	0x3f9c345a	1.2203476
107	0x3ef93e1b	0.48680195
108	0x3f9d6d0e	1.2298906
109	0x4025a164	2.5879755
110	0x3dd87bf2	0.10570516
111	0x3dad0607	0.08448415
112	0xbec5d68b	-0.38640246
113	0x3f14986c	0.5804508
114	0x3f2aac45	0.6666911
115	0x3eec894e	0.46198505
116	0x3fd251ff	1.6431273
117	0xbf8a25a8	-1.0792742
118	0x3f989467	1.1920289
119	0xbfccd00a	-1.6000988
120	0x3e928366	0.28615874
121	0xbf405759	-0.7513328
122	0x3f2b1040	0.6682167
123	0x3f11d2c4	0.5696223
124	0x3f1dc60c	0.6163032
125	0xbefa5fbc	-0.48901165
126	0xbf0c2109	-0.5473791
127	0xbf7c62cf	-0.9858827

Q.2.weight f4 [128, 128]
0	0xbd84875c	-0.0647113
1	0x3cef535d	0.029214555
2	0xbc9a4d0e	-0.01883557
3	0xbca1bbda	-0.019742895
4	0xbc49dc39	-0.012320572
5	0x3c0d7738	0.008634381
6	0xbd3cd92c	-0.04610555
7	0xbc37f682	-0.011228206
8	0x3ce92a9f	0.028462706
9	0x3d2364bd	0.039890993
10	0xbcba0021	-0.02270514
11	0x3d65d339	0.05610964
12	0xbd83a96d	-0.064288
13	0x3ca39291	0.01996735
14	0xbd7479c4	-0.059686437
15	0xbd30544e	-0.04304915
16	0xbdbade4c	-0.09124431
17	0xbbbc87a9	-0.0057534766
18	0xbdaecffd	-0.08535764
19	0x3c4d4351	0.0125282565
20	0xbcb932e6	-0.022607278
21	0xbd86656e	-0.06562315
22	0x3b35d1ae	0.0027743387
23	0xbd2a963a	-0.041647173
24	0xbcc40766	-0.02392931
25	0xbd74e49a	-0.059788324
26	0xbc37b2d8	-0.011212073
27	0x3d44c647	0.048040655
28	0xbd575d8c	-0.052579448
29	0x3d191b90	0.0373798
30	0xbd88cc04	-0.06679538
31	0xbc8c5bec	-0.017133676
32	0x3b08c003	0.00208664
33	0xbda4ac2c	-0.08040652
34	0x3caff3bc	0.021478526
35	0xbda493f2	-0.08036031
36	0x3d7c9a06	0.061670326
37	0xbda6a4d4	-0.08136907
38	0x3d3741b2	0.044740386
39	0xbdbdc865	-0.09266738
40	0xbcb6c6b8	-0.022311553
41	0xbc7e8690	-0.015535012
42	0x3d7627de	0.060096614
43	0xbdae043f	-0.08496904
44	0x3cf23e6e	0.029570784
45	0xbc5b419a	-0.01338234
46	0xbd213e27	-0.039365914
47	0x3d7830ff	0.0605936
48	0xbd4f734e	-0.050647072
49	0xbd4814c0	-0.048847914
50	0x3d8deceb	0.06929954
51	0xbc491568	-0.01227317
52	0xbd7e50bf	-0.062088724
53	0xbd8e549f	-0.06949734
54	0x3d2bc8da	0.041939594
55	0x3c7c0c60	0.01538381
56	0xbd8cb886	-0.068711326
57	0x3d1aa088	0.03775075
58	0xbd1e7e82	-0.038694866
59	0xbc33748a	-0.010953078
60	0xbd9d3efc	-0.07678029
61	0x3d505dba	0.050870635
62	0xbb6d0840	-0.0036168247
63	0xbdbaa761	-0.09113956
64	0x3d825a8b	0.06364926
65	0xbd930d3f	-0.07180261
66	0xbd4b4080	-0.04962206
67	0x3d6236fa	0.05522821
68	0xbd27534b	-0.04085092
69	0x3d298b88	0.041392833
70	0x3c1a4752	0.009416418
71	0x3cfa3b91	0.030545982
72	0x3db1a62b	0.08674272
73	0xbcb39098	-0.021919534
74	0xbbd4b587	-0.0064913663
75	0x3d8ad896	0.06779592
76	0x3d87705a	0.06613226
77	0xbcc05697	-0.02347879
78	0xbd9842ab	-0.07434591
79	0xbd29c7dd	-0.04145037
80	0xbcfbe154	-0.030747093
81	0x3c5bcc1d	0.013415364
82	0xbd198de6	-0.03748884
83	0xbd4e4ae4	-0.05036439
84	0xbd8861bc	-0.06659266
85	0xbd85f26e	-0.065403804
86	0x3d3b9c66	0.04580345
87	0x3cfa7eb7	0.030578
88	0x3bd7b730	0.006583117
89	0xbce1c172	-0.027558062
90	0x3d7cbe9c	0.061705217
91	0xbd257445	-0.040394086
92	0xbc294cb7	-0.010333232
93	0x3d4aa120	0.049470067
94	0x3ce81520	0.028330386
95	0x3b165d5c	0.002294383
96	0x3d306b5f	0.043071147
97	0x3d28bc36	0.041195117
98	0x3acbbe40	0.001554437
99	0xbdaabd52	-0.08336891
100	0xbd1ed15f	-0.03877389
101	0x3da9862f	0.082775466
102	0xbd5bc4f3	-0.053654622
103	0xbd9b5ed5	-0.07586447
104	0x3da4006f	0.08007895
105	0x3d7e4182	0.062074192
106	0xbd6ae49c	-0.057346925
107	0xbd4aeb17	-0.049540605
108	0xbd321b9d	-0.043483365
109	0x3b7d1800	0.0038619041
110	0xbc54f720	-0.012998372
111	0x3d0fe33c	0.035128817
112	0xbd5610fc	-0.05226229
113	0xbc99e3f1	-0.018785449
114	0x3a598400	0.00082975626
115	0xbd02b0f2	-0.03190703
116	0xbd1e6758	-0.038672775
117	0xbc1c7322	-0.009548934
118	0xbb697de0	-0.0035628006
119	0xbc1c8996	-0.009554287
120	0xbd2a113f	-0.041520353
121	0x3d8f645c	0.07001564
122	0x3cc44ec4	0.02396334
123	0x3d60efbe	0.054916136
124	0x3c2363c8	0.00997252
125	0xbab528c0	-0.0013821349
126	0xbdb0013b	-0.08593985
127	0x3d62f6f6	0.0554113
128	0x3d98fcb7	0.074700765
129	0xbdb5e44b	-0.08881434
130	0xbd6e93ee	-0.058246545
131	0x3d4d0331	0.05005187
132	0xbd830cbb	-0.063989125
133	0x3c466cc0	0.012110889
134	0x3cd6421b	0.026154568
135	0x3d4b5e9d	0.049650777
136	0xbcec134a	-0.028817791
137	0x3c0bb5ca	0.008527229
138	0xbdbaa537	-0.091135435
139	0xbd3bab49	-0.045817647
140	0x3d3ea8e4	0.046547785
141	0x3da4c2d2	0.080449715
142	0xbc9376bc	-0.018000953
143	0xbd0a1376	-0.033709966
144	0xbd259dd3	-0.040433716
145	0xba49db75	-0.0007700243
146	0xbcf4eb06	-0.029897224
147	0x3d54a120	0.051911473
148	0x3d2d0822	0.042244084
149	0xbd8c8fa3	-0.06863334
150	0xbce277b3	-0.027644968
151	0xbd754616	-0.059881292
152	0x3da06800	0.078323364
153	0x3d73bc61	0.059505824
154	0xbb1f86a0	-0.0024341717
155	0xbd5895fd	-0.052877415
156	0x3d301162	0.042985328
157	0xbd7f9afe	-0.06240367
158	0x3d077cac	0.03307788
159	0x3d90f63b	0.07078215
160	0x3d59cdce	0.053174786
161	0x3d1c8927	0.038216736
162	0xbd24b658	-0.04021296
163	0x3cde3cfc	0.027128689
164	0xbc2d0988	-0.010561354
165	0xbda4b6b0	-0.080426574
166	0xbdaca66c	-0.0843018
167	0x3b90a91e	0.0044146916
168	0xbce66092	-0.02812222
169	0x3ca14060	0.019684017
170	0xbcb81842	-0.022472505
171	0x3c3da3cb	0.011574696
172	0xbd271855	-0.04079469
173	0xbc859218	-0.016305014
174	0x3d90fff2	0.07080068
175	0x3c5cfb35	0.013487627
176	0x3d78a303	0.060702335
177	0xbdaa75eb	-0.08323272
178	0x3d4bd521	0.049763802
179	0x3c910705	0.017703542
180	0xbcf87546	-0.030329358
181	0x3ba52e04	0.005040886
182	0x3da34b03	0.07973292
183	0x3d14a7a3	0.036292683
184	0xbcca965d	-0.024729902
185	0x3d6ee681	0.058325294
186	0x3cc3a127	0.023880554
187	0x3d9aac96	0.075524494
188	0xbd9f0e37	-0.07766383
189	0xbbcc2986	-0.006230536
190	0xbd67f368	-0.056628615
191	0x3cab8339	0.020936595
192	0x3c016417	0.007897398
193	0xbd938211	-0.072025426
194	0xbd117144	-0.03550841
195	0xbd60e6f4	-0.054907754
196	0x3d6e8ef1	0.05824179
197	0xbcb695c5	-0.022288213
198	0x3d9595e3	0.07303979
199	0x3d566510	0.052342474
200	0xbc63e370	-0.013909206
201	0xbd8c39cd	-0.06846962
202	0xbd0bae64	-0.03410186
203	0xbd612280	-0.054964542
204	0xbd40e6e3	-0.04709519
205	0x3d9bcb3e	0.07607125
206	0xbd905f4f	-0.07049429
207	0xbc99f107	-0.018791689
208	0x3ccd9a50	0.025097996
209	0x3c7476b5	0.01492088
210	0xbc0e392c	-0.008680623
211	0xbd00c0a7	-0.031433728
212	0xbd8fd644	-0.0702329
213	0x3d0e467a	0.03473518
214	0xbcd96f60	-0.026542366
215	0x3d8135e7	0.06309109
216	0xbd9aef82	-0.07565214
217	0x3d01c8d9	0.031685684
218	0xbc344679	-0.01100313
219	0xbdb74b89	-0.08949954
220	0x3d5210c8	0.051285535
221	0xbd447ac9	-0.04796866
222	0xbd04d545	-0.032429952
223	0xbdaf1757	-0.085493736
224	0xbd994a91	-0.074849255
225	0x3c9ac218	0.01889138
226	0xbd5530cf	-0.0520485
227	0x3d84da32	0.0648693
228	0x3d0ece68	0.034864813
229	0x3daebab5	0.08531705
230	0xbcd435ee	-0.025904622
231	0x3d2eb294	0.042650774
232	0x3d1b8489	0.037968192
233	0x3da10df7	0.07863992
234	0xbdad95af	-0.084758155
235	0x3d801030	0.062530875
236	0xbdb63841	-0.08897448
237	0x3cecd1a4	0.028908558
238	0x3d6545c5	0.05597474
239	0xbd28b90a	-0.041192092
240	0x3b5c01a0	0.0033570305
241	0x3d5bd287	0.05366757
242	0xbdd3686e	-0.10322653
243	0xbd9b4e2a	-0.07583268
244	0x3cc8dd21	0.024519505
245	0x3c54b7be	0.012983261
246	0xbd16bca0	-0.03680098
247	0x3c00a5b5	0.007852008
248	0x3d9b50af	0.075837485
249	0x3d19b91c	0.03753005
250	0xbc97986c	-0.018505298
251	0xbc66453e	-0.014054595
252	0x3cc9ef7a	0.024650324
253	0xbcf6ff6e	-0.030151095
254	0x3d76b1f2	0.060228296
255	0xbc18ec0a	-0.00933362

Q.2.bias f4 [128]
0	0x3b82522e	0.0039770817
1	0xbc683282	-0.014172198
2	0x3eb47ad3	0.35249957
3	0x3c001914	0.007818479
4	0xbc971ad8	-0.018445417
5	0x3f3db6b7	0.74106926
6	0x3ee3e4bb	0.44510445
7	0xbda29581	-0.07938672
8	0xbda21030	-0.07913244
9	0xbed61bf0	-0.4181819
10	0x3d035199	0.03206024
11	0x3d174f8b	0.036941092
12	0x3bbd8f79	0.0057849255
13	0x3ea8f23a	0.32997304
14	0xbd36ec0f	-0.044658717
15	0x3ecfe160	0.40601635
16	0x3eaf0f0d	0.3419117
17	0x3eae0504	0.33988202
18	0xbe15536b	-0.14582603
19	0x3ed403cd	0.4140915
20	0x3e966a78	0.29378104
21	0x3e50e4db	0.20399801
22	0xbd225d9e	-0.03964006
23	0xbe0ec562	-0.13942483
24	0x3cea8cdc	0.02863162
25	0x3ca1c400	0.01974678
26	0x3f07351f	0.5281543
27	0x3bf6b6f1	0.0075291325
28	0x3da26b12	0.07930578
29	0xbd95220f	-0.07281887
30	0x3c70f498	0.014706753
31	0x3db7170e	0.08939944
32	0x3e18f11d	0.14935727
33	0x3d080079	0.033203576
34	0x3cd41d22	0.025892798
35	0xbda3dbda	-0.08000918
36	0x3ef4d993	0.47822246
37	0xbc11796c	-0.008879047
38	0x3d281038	0.041031092
39	0x3fcb6815	1.5891138
40	0x3ef87ab1	0.48531106
41	0x3d2df5f3	0.042470884
42	0x3d31ca70	0.04340595
43	0x3e955185	0.29163757
44	0xbbc268a0	-0.0059328824
45	0x3ec47791	0.38372472
46	0x3eaf35e3	0.342208
47	0xbd60c8b1	-0.054878894
48	0x3eb0ad73	0.3450733
49	0x3e3c830b	0.18409364
50	0xbe1ffc03	-0.15623479
51	0xbc92ef27	-0.017936302
52	0x3d0501e1	0.032472495
53	0x3d4a1c6d	0.049343515
54	0x3c14fedd	0.009093967
55	0x3d045ec6	0.032316945
56	0xbda86471	-0.08222283
57	0xbce5c496	-0.028047841
58	0x3e997d0b	0.29978213
59	0x3c66f0cb	0.014095495
60	0x3ed51b66	0.41622466
61	0x3f0623f2	0.523986
62	0x3f2afaf3	0.6678917
63	0x3d645b24	0.05575098
64	0x3d620ad2	0.0551861
65	0xbd1e3964	-0.03862895
66	0xbd45fe44	-0.04833819
67	0xbcb08f17	-0.021552606
68	0x3f34d263	0.70633525
69	0xbd05d666	-0.03267517
70	0x3e4e120f	0.20124076
71	0xbd17f0d0	-0.03709489
72	0x3d9fc36b	0.07800945
73	0x3f1d8a39	0.61539036
74	0x3cb2a154	0.021805443
75	0x3e67b714	0.22628433
76	0xbca781e0	-0.020447671
77	0xbe87f1e2	-0.2655173
78	0xbdb52741	-0.08845378
79	0x3e5138c1	0.20431806
80	0xbe1eaba1	-0.15495159
81	0x3d3b5e5b	0.04574428
82	0x3d8daa26	0.06917219
83	0x3ecb255d	0.39676943
84	0x3dccd2c7	0.1000114
85	0x3ec9595b	0.39325985
86	0x3e865df4	0.26243556
87	0xbe820b56	-0.25399274
88	0x3b12dcae	0.0022409367
89	0x3e2d6a1f	0.16935013
90	0x3f0aeed3	0.54270667
91	0x3d9e800d	0.077392675
92	0xbcfd7ae7	-0.030942393
93	0x3f0f6648	0.56015444
94	0xbd6be77b	-0.057593804
95	0xbd2985ba	-0.041387297
96	0x3de278ef	0.110582225
97	0x3d4fe289	0.05075315
98	0xbde707b6	-0.112807676
99	0x3cfdfe0a	0.031004924
100	0xbdd28ce0	-0.10280776
101	0x3e953138	0.29139113
102	0x3d9cd30b	0.07657441
103	0xbd944455	-0.07239596
104	0xbe5063ce	-0.20350572
105	0xbe0fc275	-0.14039023
106	0xbdf00da4	-0.11721352
107	0x3f7abe27	0.979464
108	0x3b175720	0.0023092702
109	0x3cf84c13	0.030309713
110	0x3ca8b93c	0.02059614
111	0x3fd43149	1.6577541
112	0x3d7a5721	0.06111825
113	0x3d4b788a	0.049675502
114	0xbe90d9d1	-0.2829118
115	0xbeb5a3fa	-0.35476667
116	0x3d77a990	0.06046444
117	0xbe6b14bb	-0.22957127
118	0xbd739c3d	-0.059475172
119	0x3d1c5e06	0.038175605
120	0x3eeb160f	0.45915267
121	0x3ee7a962	0.45246416
122	0x3cf82ce2	0.03029484
123	0x3d6112ba	0.0549495
124	0x3ceefbe5	0.029172847
125	0xbd183f7c	-0.03716992
126	0x3e925972	0.28583866
127	0x3c42fb87	0.011900789

Q.4.weight_mu f4 [4, 128]
0	0xbb75f502	-0.003753007
1	0x3cd8c4f2	0.026461098
2	0xbe349cef	-0.1763799
3	0xbd604542	-0.05475355
4	0xbb219420	-0.002465494
5	0xbd5396eb	-0.0516576
6	0xbe4931c7	-0.19647895
7	0x3d9122b7	0.070866995
8	0xbda53d33	-0.080683134
9	0xbd29f6b2	-0.041495033
10	0x3d6bf183	0.05760337
11	0xbdab9937	-0.08378833
12	0xbd7c7ae2	-0.061640628
13	0xbe1ca6b4	-0.15297967
14	0x3d9f0610	0.07764828
15	0xbe1e6f2f	-0.154721
16	0xbe1b6da7	-0.15178548
17	0xbe7245ac	-0.2365939
18	0x3e7d3fa6	0.24731311
19	0xbe6e3780	-0.23263359
20	0xbe4c86e6	-0.19973335
21	0x3dfa24f5	0.1221408
22	0x3c786680	0.015161157
23	0xbd3e268f	-0.04642349
24	0xbd95515e	-0.0729091
25	0x3d822235	0.06354181
26	0x3e868036	0.26269692
27	0x3d8157bb	0.063155614
28	0x3d8f5820	0.069992304
29	0xbd9c63d7	-0.076362304
30	0x3c73ccc2	0.014880361
31	0xbe450866	-0.19241485
32	0x3b4f3dea	0.0031622597
33	0x3cd27293	0.025689399
34	0x3d60ed09	0.054913554
35	0xbd906b36	-0.07051699
36	0x3e727095	0.23675759
37	0x3c986cdd	0.018606598
38	0x3c3e653e	0.011620818
39	0xbfb20b3e	-1.3909681
40	0x3d8fd7ea	0.07023604
41	0xbd196a96	-0.037455164
42	0xbd13430b	-0.03595261
43	0xbe26903b	-0.16265957
44	0xbd150529	-0.036381874
45	0xbe462f06	-0.19353876
46	0xbe639494	-0.22224647
47	0xbd26a2cd	-0.040682603
48	0xbe5bec0d	-0.21476765
49	0x3d3dc214	0.046327665
50	0x3e234584	0.15944487
51	0x3d609107	0.05482581
52	0xbda26a48	-0.07930428
53	0xbc3c9ac2	-0.0115115065
54	0xbcfc13ce	-0.030771162
55	0xbd521c79	-0.051296685
56	0x3d4c1a8b	0.04983
57	0x3d03265e	0.03201901
58	0xbe881109	-0.26575497
59	0x3cfe00d8	0.031006262
60	0xbe551078	-0.20807064
61	0x3e8cf908	0.27533746
62	0x3f1b64a5	0.60700446
63	0xbd9492d8	-0.07254571
64	0xbd564eab	-0.052321117
65	0xbc3b7aef	-0.011442884
66	0xbe1f2f19	-0.1554531
67	0x3d4f6146	0.050629877
68	0x3f28d0a2	0.6594335
69	0xba467500	-0.0007570535
70	0xbe90286a	-0.28155833
71	0x3cdcdaac	0.02695974
72	0x3d35c7f2	0.044380136
73	0x3f4ebd40	0.8075752
74	0x3cf2b338	0.029626474
75	0xbe6473ae	-0.22309753
76	0x3d96efd5	0.07369963
77	0x3f12065f	0.5704097
78	0xbb439446	-0.0029843017
79	0xbe726036	-0.23669514
80	0xbe29fd2c	-0.16600484
81	0x3d7c4049	0.061584745
82	0xbbeaf410	-0.007170208
83	0xbe36a583	-0.17836575
84	0x3e2726c7	0.16323386
85	0xbe5ab1ca	-0.21356884
86	0xbe52492a	-0.20535722
87	0x3ef0dfc4	0.4704572
88	0xbbe60dc6	-0.007020685
89	0x3dd5fc84	0.10448554
90	0xbecbc84f	-0.3980126
91	0x3e9d3fe2	0.307128
92	0xbd9a7991	-0.07542718
93	0x3e9b07d8	0.30279422
94	0x3d05ac06	0.032634757
95	0xbd6e4f4b	-0.05818109
96	0x3ddf114f	0.10891973
97	0x3c71c58a	0.01475657
98	0xbe00d5e2	-0.1258159
99	0x3d5878ed	0.0528497
100	0x3d849e1c	0.064754695
101	0xbe827fab	-0.25488028
102	0x3cdf4cf7	0.02725838
103	0xbce9a6f6	-0.028521996
104	0xbc2db372	-0.010601865
105	0xbd902e25	-0.07040051
106	0xbda5429e	-0.08069347
107	0xbf8f593f	-1.1199111
108	0xbd8af3f6	-0.06784813
109	0x3d97b842	0.07408191
110	0x3d02e348	0.031955034
111	0xbfaa5685	-1.3307654
112	0x3dd4393a	0.103624776
113	0xbe4d7c48	-0.20066941
114	0xbe8a7653	-0.270434
115	0xbd2e35d6	-0.04253181
116	0xbd753d54	-0.05987294
117	0xbc422c2c	-0.011851352
118	0xbd810663	-0.06300046
119	0xbd0ff9ad	-0.03515022
120	0x3c4de27b	0.012566204
121	0xbe69b75f	-0.22823857
122	0x3d11018a	0.03540186
123	0xbcd4cfe8	-0.025978044
124	0x3da3c007	0.07995611
125	0x3cf7b71d	0.030238682
126	0xbe458f70	-0.19292998
127	0x3d992a31	0.074787505
128	0x3d843747	0.06455856
129	0x3be4133c	0.0069603007
130	0xbea4cfd5	-0.32189813
131	0xbd8d1c0c	-0.06890115
132	0x3d994805	0.0748444
133	0xbf997089	-1.1987468
134	0xbe94ef5d	-0.2908887
135	0xbd9c4955	-0.076311745
136	0xbd9f401d	-0.077759005
137	0xbc0467ca	-0.008081386
138	0x3cc330e0	0.023827016
139	0xbc770738	-0.015077405
140	0x3c991d4c	0.018690728
141	0xbe5dbdb5	-0.21654399
142	0x3d7329cb	0.05936603
143	0xbe6aa903	-0.22916035
144	0xbe691668	-0.22762454
145	0xbe53a7bf	-0.20669459
146	0x3f0a15b4	0.53939366
147	0xbe76461e	-0.24050185
148	0xbe563919	-0.20920219
149	0xbecde0c5	-0.40210548
150	0xbd7ee2f6	-0.062228166
151	0xbc8137aa	-0.015773613
152	0x3d7bea16	0.06150254
153	0x3cdc0860	0.026859462
154	0x3f3c06ea	0.7344805
155	0xbc5bcb00	-0.013415098
156	0xbecfd266	-0.4059021
157	0x3c6a9945	0.014318769
158	0xbc8efe40	-0.01745522
159	0xbe14b0b0	-0.14520526
160	0xbe306a63	-0.17228083
161	0xbc5bef20	-0.013423711
162	0x3d199952	0.037499733
163	0x3d83e835	0.06440774
164	0xbea17e13	-0.315415
165	0x3d1c6137	0.03817865
166	0x3da23fb7	0.07922309
167	0xbf83793a	-1.027137
168	0xbecba88e	-0.39777035
169	0x3d9ff13f	0.07809686
170	0xbdb12be6	-0.08650951
171	0xbe476d65	-0.19475324
172	0xbd830d7b	-0.063990556
173	0x3e1c68fd	0.15274425
174	0xbe9b12e2	-0.30287844
175	0xbdaed2ed	-0.08536325
176	0xbe9cde55	-0.30638376
177	0xbeba178c	-0.3634609
178	0x3ecec06b	0.40381178
179	0xbaded140	-0.0016999617
180	0x3d91d3af	0.071204536
181	0xbda6732b	-0.08127435
182	0xbd1c2a80	-0.03812647
183	0xbdaad8ff	-0.0834217
184	0x3aaacc23	0.0013030808
185	0xbd82c51a	-0.063852504
186	0xbe8171a2	-0.25282007
187	0xbc8e5a74	-0.017377116
188	0xbea23888	-0.31683755
189	0xbf1640d9	-0.586927
190	0x3f4a94d2	0.7913333
191	0xbd8018b9	-0.062547155
192	0x3d8c9b09	0.06865508
193	0x3ca198e8	0.019726232
194	0xbd66302b	-0.05619828
195	0xbd9e8260	-0.07739711
196	0x3e835be4	0.25656044
197	0x3bff6be4	0.007794844
198	0x3f8cd666	1.1002929
199	0x3d725d4a	0.059171
200	0xbd09f27b	-0.033678513
201	0x3f1ded86	0.61690557
202	0xba297580	-0.0006464347
203	0xbe1baa33	-0.15201645
204	0xba76d800	-0.0009416342
205	0x3dc19065	0.09451369
206	0xbd89762f	-0.06711995
207	0xbe2335c8	-0.15938485
208	0x3e8185a8	0.25297284
209	0x3d52092e	0.051278286
210	0x3d782c36	0.060589038
211	0xbe989b26	-0.2980587
212	0xbeb57bb1	-0.35445932
213	0xbe8e9e0b	-0.27854952
214	0xbe2e30ea	-0.17010847
215	0x3e381a2e	0.17978737
216	0x3d2b94f2	0.041890092
217	0xbef0e1fd	-0.47047415
218	0xbe79c9da	-0.24393407
219	0xbed19fe9	-0.40942314
220	0x3d4168fb	0.047219258
221	0xbe53b14a	-0.20673099
222	0xbca74b60	-0.020421684
223	0x3cac6f10	0.021049052
224	0xbe9a7c26	-0.30172843
225	0x3d811fd4	0.06304899
226	0x3dc14ce8	0.09438497
227	0x3d7bcc8e	0.061474375
228	0x3d82be26	0.06383924
229	0xbe453a5d	-0.19260545
230	0x3db88c8a	0.09011181
231	0xbc8d2701	-0.017230513
232	0x3f02a712	0.5103618
233	0x3e20dfaa	0.15710321
234	0xbc7bcd6d	-0.015368802
235	0xbf45599f	-0.77089876
236	0x3c885b18	0.016645
237	0xbdfe0a8c	-0.124043554
238	0x3d82aabb	0.063802205
239	0xbfa56d9f	-1.2924079
240	0xbe133487	-0.14375506
241	0xbd822c76	-0.063561365
242	0x3e282051	0.16418578
243	0x3e104dd0	0.14092183
244	0x3d6f2fc6	0.05839517
245	0x3e0db3f7	0.13838182
246	0x3d3e5a66	0.04647293
247	0xbd18680b	-0.037208598
248	0x3f8c813b	1.0976938
249	0xbe7195b6	-0.23592266
250	0xbd680e43	-0.056654226
251	0x3d79087a	0.0607991
252	0xbc3f6532	-0.011681842
253	0xbc047818	-0.008085273
254	0xbe29706f	-0.16546796
255	0xbbee4410	-0.0072712973

Q.4.weight_sigma f4 [4, 128]
0	0x3cb99f79	0.02265905
1	0x3c41917c	0.011814471
2	0x3c8aa76e	0.01692554
3	0x3c9aff76	0.018920641
4	0x3cb504f3	0.022097087
5	0x3b892d8b	0.0041863373
6	0x3b8794b0	0.004137598
7	0x3cb504f3	0.022097087
8	0x3cb504f3	0.022097087
9	0xbbb762ed	-0.0055965097
10	0x3d05a2a9	0.032625828
11	0x3cd95533	0.026529884
12	0x3cb504f3	0.022097087
13	0xbbb13af9	-0.0054086414
14	0x3cc02e29	0.02345951
15	0x3bac2dcc	0.005254483
16	0xbba9fac6	-0.005187365
17	0x3b68f77f	0.003554791
18	0xbd54a51a	-0.051915266
19	0x3bc930b6	0.00613984
20	0xbb3f105b	-0.0029154036
21	0xbd4c6142	-0.04989744
22	0x3cb504f3	0.022097087
23	0xbc0462b3	-0.008080172
24	0x3cb504f3	0.022097087
25	0x3cb504f3	0.022097087
26	0x3c9decd6	0.019277971
27	0x3cb504f3	0.022097087
28	0xbcbdab14	-0.023152865
29	0x3cd4cbb1	0.025976034
30	0x3d02072f	0.031745132
31	0x3c5ee6d2	0.013604837
32	0xbcacdc5c	-0.02110117
33	0x3cb6030e	0.022218253
34	0x3ccd4ba3	0.02506048
35	0x3cb504f3	0.022097087
36	0x3c22aca2	0.009928854
37	0x3cf1c0d8	0.0295109
38	0x3cc6cfb1	0.024268957
39	0xb9655ca3	-0.00021873652
40	0x3a44bfa8	0.00075053656
41	0x3cf3880c	0.029727958
42	0x3cb504f3	0.022097087
43	0x3b992412	0.0046734894
44	0x3cb504f3	0.022097087
45	0xbd1e0a41	-0.038583998
46	0xbc11d538	-0.008900933
47	0x3ce63766	0.028102588
48	0xbb21ca40	-0.00246872
49	0x3dca61a8	0.09881908
50	0x3d05f04f	0.03269988
51	0x3c84e020	0.016220152
52	0x3c7e116f	0.015507086
53	0x3cc69b7a	0.024244059
54	0x3c84d728	0.016215876
55	0x3cb504f3	0.022097087
56	0x3c8abb71	0.016935082
57	0x3cb504f3	0.022097087
58	0xbb4f682d	-0.0031647787
59	0x3c987ddc	0.018614702
60	0xbb08676b	-0.0020813595
61	0x3b939748	0.004504118
62	0x3bbe29c4	0.0058033187
63	0x3cd21c31	0.025648208
64	0x3cb504f3	0.022097087
65	0x3cbc432a	0.022981245
66	0x3b0b95ba	0.002129896
67	0x3cb504f3	0.022097087
68	0xbbb940e5	-0.005653488
69	0x3cb504f3	0.022097087
70	0xbd319267	-0.04335251
71	0x3cb504f3	0.022097087
72	0x3cb504f3	0.022097087
73	0x3af2dd64	0.0018529114
74	0x3cb504f3	0.022097087
75	0x3c2834b1	0.010266469
76	0x3cb504f3	0.022097087
77	0x3cff458f	0.031161098
78	0x3c69e303	0.014275315
79	0x3c7d72cc	0.015469264
80	0x3d078f31	0.033095542
81	0x3ce935bc	0.028468005
82	0x3cb504f3	0.022097087
83	0xbc01d28c	-0.007923733
84	0xbbff6e74	-0.0077951495
85	0xbc4fc23c	-0.012680586
86	0xbb8e6f93	-0.004346797
87	0x3c315616	0.010823747
88	0x3ceb950a	0.02875759
89	0x3d224008	0.039611846
90	0xb8bc6960	-8.984166e-05
91	0x3c81fa49	0.015866416
92	0x3cd3ee0b	0.025870344
93	0x3cbde070	0.02317831
94	0x3cb504f3	0.022097087
95	0x3cb504f3	0.022097087
96	0x3d3f6114	0.04672344
97	0x3d2e1766	0.042502783
98	0xbcf293ce	-0.029611494
99	0x3c783b85	0.015150909
100	0x3c7fdd86	0.01561678
101	0x3c059e98	0.0081554875
102	0x3ca23fc0	0.019805789
103	0x3cb504f3	0.022097087
104	0xbc5aab0a	-0.013346443
105	0x3b34fce5	0.0027616557
106	0xbb8ca600	-0.0042922497
107	0xbc248a9b	-0.010042812
108	0x3cb504f3	0.022097087
109	0x3d67fcc3	0.056637537
110	0x3cb504f3	0.022097087
111	0xbcb1727e	-0.02166104
112	0xbb9ddfb7	-0.0048179287
113	0x3b957b9f	0.004561856
114	0x3c222c48	0.009898253
115	0xbc13ad46	-0.00901348
116	0x3cb94ab7	0.022618635
117	0x3c8c6c52	0.017141495
118	0x3cb45369	0.02201243
119	0x3cb504f3	0.022097087
120	0x3c94822d	0.018128479
121	0x3a034e34	0.00050089066
122	0x3ca7e37b	0.020494213
123	0x3cb504f3	0.022097087
124	0x3cb504f3	0.022097087
125	0x3ceaa270	0.02864191
126	0xb9d1be8e	-0.0004000556
127	0x3cb504f3	0.022097087
128	0x3cb504f3	0.022097087
129	0x3cf13deb	0.02944847
130	0xbc145853	-0.009054261
131	0x3cb504f3	0.022097087
132	0x3cb504f3	0.022097087
133	0x3cc4a06c	0.024002276
134	0x3a32fe8e	0.0006828093
135	0x3cb504f3	0.022097087
136	0x3cb504f3	0.022097087
137	0x3844a405	4.6882797e-05
138	0x3cb504f3	0.022097087
139	0x3cb504f3	0.022097087
140	0x3d29639f	0.04135477
141	0x3bfb2d2d	0.0076652975
142	0x3cc83f35	0.024444202
143	0xbb773bea	-0.003772492
144	0xba4af429	-0.0007742071
145	0x3a2d0d91	0.0006601448
146	0xba88afdf	-0.001042839
147	0xbc048b1c	-0.008089807
148	0xbb897b42	-0.0041956017
149	0x3ca27b69	0.019834237
150	0x3cb504f3	0.022097087
151	0x3d03bfe7	0.032165434
152	0x3cb504f3	0.022097087
153	0x3cb504f3	0.022097087
154	0xbc0a3f75	-0.008437981
155	0x3cb504f3	0.022097087
156	0x3a4b67a8	0.00077592814
157	0x3b409282	0.00293842
158	0x3cb504f3	0.022097087
159	0x3c3658c8	0.011129566
160	0x3aa306a6	0.0012437894
161	0x3cb504f3	0.022097087
162	0x3cb504f3	0.022097087
163	0x3cb504f3	0.022097087
164	0x3c3ed93b	0.0116484715
165	0x3c9b763b	0.018977275
166	0x3cb504f3	0.022097087
167	0x3c0c2fa9	0.008556285
168	0xbb83dadf	-0.004023894
169	0x3cb504f3	0.022097087
170	0x3cb504f3	0.022097087
171	0xb81a4370	-3.6779267e-05
172	0x3cb504f3	0.022097087
173	0x3b90b76e	0.004416398
174	0x3b90b839	0.0044164923
175	0x3cb504f3	0.022097087
176	0x3c37cd83	0.011218431
177	0xbc3ef0f4	-0.011654127
178	0xbc70c664	-0.0146957375
179	0x3cb504f3	0.022097087
180	0x3cb504f3	0.022097087
181	0x3cdeee2f	0.027213184
182	0x3cb504f3	0.022097087
183	0x3cb504f3	0.022097087
184	0x3c6c83a9	0.014435687
185	0x3cb504f3	0.022097087
186	0xbb0f8a1a	-0.0021902383
187	0x3cb504f3	0.022097087
188	0xbb7d8791	-0.003868554
189	0xb99ec6b6	-0.0003028416
190	0xbc234fd5	-0.009967764
191	0x3ce6ba0d	0.028164888
192	0x3cb504f3	0.022097087
193	0x3cb504f3	0.022097087
194	0x3b930168	0.0044862516
195	0x3ce25ad4	0.0276312
196	0xbcbf90ab	-0.023384413
197	0x3ce9416f	0.028473584
198	0x3ca46964	0.020069785
199	0x3cb504f3	0.022097087
200	0x3cb504f3	0.022097087
201	0x3c25659d	0.010095027
202	0x3cb504f3	0.022097087
203	0x395eb0d0	0.00021237438
204	0x3cb504f3	0.022097087
205	0xbd259688	-0.04042676
206	0x3cb504f3	0.022097087
207	0xbc3cc50f	-0.011521592
208	0xbd4a1a6b	-0.0493416
209	0x3cced07b	0.025245896
210	0x3cb504f3	0.022097087
211	0x3c0d68c0	0.008630931
212	0xbd2bb093	-0.04191644
213	0x3bab62aa	0.0052302675
214	0x3a49df5a	0.00077008235
215	0xbbc121e3	-0.005893932
216	0x3cb504f3	0.022097087
217	0xbb11c168	-0.0022240523
218	0x3c370ff1	0.011173234
219	0x3c4915e6	0.012273287
220	0x3b69699b	0.0035615924
221	0x3b898e9d	0.004197909
222	0x3cb504f3	0.022097087
223	0x3cb504f3	0.022097087
224	0x3bb1c82e	0.0054254746
225	0x3d2e2710	0.04251772
226	0xbbb039f7	-0.0053780037
227	0x3cb504f3	0.022097087
228	0x3b4093b6	0.0029384918
229	0x3c17e0b2	0.00926988
230	0x3c8b1bc5	0.016981015
231	0x3d28fbed	0.04125588
232	0x3d53bada	0.051691867
233	0xbc8c26ef	-0.017108409
234	0x3b6a97c5	0.0035796028
235	0xbc55eaae	-0.01305644
236	0x3cb504f3	0.022097087
237	0x3aeb3399	0.0017944454
238	0x3d28fbc0	0.041255713
239	0xbc18c3ee	-0.009324057
240	0x39cc2668	0.00038938527
241	0x3c5c6bdf	0.013453453
242	0x3c14ccc6	0.009082025
243	0xbaf160b0	-0.0018415656
244	0x3cb504f3	0.022097087
245	0x3c34eb1b	0.011042382
246	0x3b1f7649	0.0024331978
247	0x3cb504f3	0.022097087
248	0xbc8ddc33	-0.017316913
249	0x3c4e1572	0.012578355
250	0x3cb504f3	0.022097087
251	0x3cb504f3	0.022097087
252	0x3cdf82ef	0.027284114
253	0x3cb504f3	0.022097087
254	0x3c7b360b	0.015332709
255	0x3cb504f3	0.022097087

Q.4.bias_mu f4 [4]
0	0xbd4defa8	-0.050277382
1	0xbe36af9c	-0.17840427
2	0xbf0d7923	-0.55262965
3	0xbe12fd42	-0.14354423

Q.4.bias_sigma f4 [4]
0	0x3c638ebc	0.013889011
1	0x3d233ca6	0.03985276
2	0x3bec6bbc	0.0072149914
3	0x3d08db39	0.033412192

Q.4.weight_epsilon f4 [4, 128]
0	0xbf085f6d	-0.5327061
1	0x3f9dcf2d	1.232885
2	0x3f80e4de	1.0069845
3	0x3ec20421	0.37893775
4	0x3f49c7f1	0.7882071
5	0x3f2b3713	0.6688091
6	0x3f016d06	0.5055698
7	0x3f123a2b	0.5712001
8	0xbead4a27	-0.33845636
9	0x3f00c666	0.5030273
10	0xbea8d839	-0.32977465
11	0xbf6fe14d	-0.93703157
12	0x3f5ca1f2	0.8618461
13	0x3e12874a	0.14309421
14	0xbf8a5280	-1.0806427
15	0x3eb31996	0.34980458
16	0xbf4a0757	-0.7891745
17	0x3f3aeaef	0.7301473
18	0x3fa68d99	1.3011962
19	0x3f75b38e	0.95977104
20	0x3ec94c90	0.39316225
21	0xbf478cfe	-0.7794951
22	0x3f6aa26f	0.91654104
23	0x3f255fab	0.645991
24	0xbee83327	-0.45351526
25	0x3e87124e	0.26381153
26	0xbf269aea	-0.6508013
27	0xbd8ea764	-0.06965521
28	0x3f3c7e4c	0.73630214
29	0xbeb88fbf	-0.3604717
30	0x3eb6c25e	0.35695165
31	0x3f64e403	0.8941042
32	0x3e07c1b0	0.1325748
33	0x3eeedf19	0.46654585
34	0xbf3dc4a5	-0.7412818
35	0xbf809732	-1.0046141
36	0x3f39f6b1	0.72642046
37	0x3f286c6e	0.6579045
38	0xbf92e540	-1.1476212
39	0x3f41f7cd	0.7576874
40	0xbe6bc841	-0.2302561
41	0xbf7c996a	-0.9867159
42	0x3f5e19ca	0.867581
43	0xbe42d4b1	-0.19026448
44	0x3f624292	0.8838283
45	0x3de84b21	0.11342455
46	0x3f2e51c0	0.6809349
47	0x3f8a93bc	1.0826335
48	0xbf476775	-0.7789224
49	0x3efcb047	0.4935324
50	0xbe7323a4	-0.23744065
51	0x3f5cf9e4	0.863188
52	0xbf66280e	-0.8990487
53	0x3f5a02cf	0.85160536
54	0xbf362605	-0.71151763
55	0x3f4ebfe9	0.8076158
56	0xbf594608	-0.84872484
57	0xbf77d697	-0.96811813
58	0xbf35c9ea	-0.7101122
59	0x3e74c101	0.2390175
60	0xbf384604	-0.71981835
61	0x3f546b01	0.82975775
62	0x3e801c86	0.25021762
63	0xbf6aba99	-0.91690975
64	0xbf803d0e	-1.0018632
65	0xbf15a1c6	-0.5844997
66	0x3ef959e5	0.48701397
67	0xbf51f4dc	-0.8201425
68	0xbf1588a9	-0.5841165
69	0x3f264595	0.64949924
70	0xbf82b624	-1.0211835
71	0xbf67243e	-0.90289676
72	0xbed98a75	-0.42488447
73	0x3ed47d0f	0.41501662
74	0x3efe4194	0.49659407
75	0x3de00050	0.109375596
76	0x3ee01dfc	0.43772876
77	0x3f823110	1.0171223
78	0x3eff0694	0.49809706
79	0x3ededab2	0.43526226
80	0x3f9e26b2	1.2355559
81	0x3ea19dd9	0.3156574
82	0x3f1c2f0c	0.6100929
83	0xbeba3270	-0.36366606
84	0x3f38f132	0.72243035
85	0x3e275c22	0.1634374
86	0xbf6ec5ac	-0.93270373
87	0xbf59464e	-0.848729
88	0xbe8c3869	-0.27386788
89	0x3f71fd2d	0.9452694
90	0x3f03883f	0.5137977
91	0xbea7605c	-0.32690704
92	0xbe608bbe	-0.21928307
93	0x3f135f17	0.5756697
94	0xbf5274e2	-0.822096
95	0x3ea34c7d	0.31894293
96	0xbe5c5da6	-0.21520099
97	0x3eead107	0.458626
98	0x3f5a043c	0.8516271
99	0x3f21f9a9	0.63271576
100	0x3ec20e1f	0.379014
101	0xbdee9cbd	-0.11650989
102	0x3f7fa4ff	0.9986114
103	0x3f769c02	0.963318
104	0xbfa6cf2f	-1.3031977
105	0x3ecb4702	0.39702612
106	0xbf51af8e	-0.819085
107	0xbf10f8a2	-0.56629384
108	0x3eb81d6d	0.3595995
109	0xbf370236	-0.7148775
110	0x3f1fcc34	0.62420964
111	0xbe49f82b	-0.19723575
112	0x3f0bbaa0	0.5458164
113	0x3f3c446d	0.7354191
114	0xbebc7c22	-0.36813456
115	0xbf085680	-0.5325699
116	0xbe22d413	-0.15901212
117	0x3ea5637d	0.32302466
118	0x3efe98c4	0.49725926
119	0xbf3e207d	-0.74268323
120	0xbf1485c5	-0.58016616
121	0x3f597a0d	0.8495186
122	0xbf1d05e4	-0.61337113
123	0x3f335d50	0.7006426
124	0xbf1f7597	-0.622888
125	0xbf90715f	-1.1284598
126	0x3f4a7835	0.7908967
127	0x3f440357	0.76567596
128	0x3ed28a8e	0.41121334
129	0xbf73a2e8	-0.9517045
130	0xbf46febd	-0.7773245
131	0xbe95c477	-0.29251453
132	0xbf1bc2ec	-0.608443
133	0xbf042aa7	-0.5162758
134	0xbec7d0f2	-0.390266
135	0xbee1c155	-0.44092813
136	0x3e85c49b	0.2612656
137	0xbec6cfb3	-0.38830337
138	0x3e825634	0.25456393
139	0x3f392bdd	0.72332555
140	0xbf2a5046	-0.6652874
141	0xbde23865	-0.11045913
142	0x3f558d10	0.8341837
143	0xbe8a40ce	-0.27002567
144	0x3f1bf3dd	0.6091898
145	0xbf1049b6	-0.56362474
146	0xbf80915d	-1.0044361
147	0xbf3daa3c	-0.7408788
148	0xbe9b63af	-0.3034949
149	0x3f1a0a30	0.60171795
150	0xbf351f42	-0.7075082
151	0xbeff5098	-0.49866176
152	0x3eb33e20	0.35008335
153	0xbe508844	-0.20364481
154	0x3f009ba5	0.50237495
155	0x3d5c3d0a	0.05376915
156	0xbf118115	-0.5683759
157	0x3e8e7817	0.27825996
158	0xbe8d13f0	-0.27554274
159	0xbf30b030	-0.6901884
160	0xbdd19708	-0.10233885
161	0xbeb8648c	-0.3601421
162	0x3f127d00	0.57221985
163	0x3f4686d3	0.77549475
164	0xbf0f8d2c	-0.56074786
165	0xbf0202fe	-0.50785816
166	0x3f62c975	0.8858865
167	0xbf15baf3	-0.58488387
168	0x3e360212	0.17774227
169	0x3f42fd5c	0.76167846
170	0xbf2b7266	-0.66971433
171	0x3e166576	0.14687142
172	0xbf2ea857	-0.68225616
173	0xbdb350a3	-0.087556146
174	0xbf069016	-0.5256361
175	0xbf55f1c6	-0.8357204
176	0x3f19ed36	0.6012758
177	0xbec30f02	-0.38097388
178	0x3e3bafea	0.18328825
179	0xbf2a942a	-0.6663233
180	0x3f31aa55	0.6940053
181	0xbf284a33	-0.6573822
182	0x3f0c9b3f	0.54924387
183	0xbf1f98cc	-0.62342525
184	0x3f27b87a	0.65515864
185	0x3f3f5083	0.74732226
186	0x3f0c5426	0.548159
187	0xbe3cef01	-0.18450548
188	0x3f0e3f2d	0.5556515
189	0xbf23f8f1	-0.6405173
190	0xbe45c96f	-0.19315122
191	0x3f3531e9	0.7077928
192	0x3f45fba8	0.7733712
193	0x3ee702f9	0.45119455
194	0xbec07b7c	-0.3759421
195	0x3f221283	0.63309497
196	0x3ee6dc35	0.4508988
197	0xbf0059c6	-0.50136983
198	0x3f49cd0f	0.7882852
199	0x3f326d00	0.6969757
200	0x3ea7ed4c	0.3279823
201	0xbea406e1	-0.32036498
202	0xbec444ca	-0.38333732
203	0xbdace9f6	-0.08443062
204	0xbead00de	-0.33789724
205	0xbf48ff99	-0.7851501
206	0xbec4dcdc	-0.38449752
207	0xbeac074f	-0.33599326
208	0xbf742a07	-0.9537663
209	0xbe7983ac	-0.24366635
210	0xbef12076	-0.47095078
211	0x3e8fbb4b	0.2807258
212	0xbf0ec351	-0.5576678
213	0xbe0130cc	-0.12616271
214	0x3f3850eb	0.7199847
215	0x3f27b8b1	0.6551619
216	0x3e587b3e	0.21140763
217	0xbf3acc9c	-0.7296846
218	0xbecb116e	-0.39661735
219	0x3e81340f	0.2523503
220	0x3e2d5598	0.16927183
221	0xbee38591	-0.4443784
222	0x3f227557	0.63460296
223	0xbe7c1c85	-0.24620254
224	0x3e2a1b8d	0.16612072
225	0xbeb5433a	-0.35402852
226	0xbf284b4d	-0.657399
227	0xbefa116a	-0.4884141
228	0xbe95cc2e	-0.2925734
229	0x3db83152	0.08993782
230	0xbf455726	-0.770861
231	0xbf3e5dad	-0.7436169
232	0x3f80c3fe	1.0059812
233	0xbe9cea9f	-0.30647752
234	0x3f21dd04	0.6322787
235	0x3edfd0ee	0.43714088
236	0xbe8e1fd8	-0.2775867
237	0x3f0d4539	0.5518375
238	0xbef6b4c7	-0.48184797
239	0x3e1be826	0.15225276
240	0xbed7b90b	-0.42133364
241	0xbf115468	-0.5676942
242	0x3e917f69	0.2841752
243	0x3ed27cc7	0.41110823
244	0x3dfb629e	0.12274669
245	0xbe7f567d	-0.24935336
246	0xbec48817	-0.38385078
247	0x3f12c3e6	0.5733017
248	0x3ee54c83	0.44784936
249	0xbf27e0a2	-0.6557714
250	0x3ef26c26	0.47348136
251	0xbf0a7516	-0.5408491
252	0x3ef62f0e	0.48082775
253	0x3f5f0019	0.87109524
254	0xbf1c4afc	-0.6105192
255	0xbf174f16	-0.5910505

Q.4.bias_epsilon f4 [4]
0	0xbf479e69	-0.7797609
1	0x3f1a17a2	0.6019231
2	0x3ea9024d	0.33009568
3	0xbf4d911f	-0.8029956
