model_w/Noisy_DQN/NoisyNetDQN_54999k.pth (torch, 77586 bytes, 10 tensors)

Q.0.weight f4 [128, 2]
000000 2f 4c 26 3f c7 4f 99 bc 5b 0e a1 be 5d bb 84 3e
       0.64959997 -0.018714799 -0.31456265 0.25924197
000010 1c d9 75 bf 90 62 6b 3d ff a0 8e 3f e8 41 94 3d
       -0.9603441 0.057467043 1.1142882 0.07239133
000020 d4 7a 4c 3e 1d 6c 73 3d 00 a5 2e bb 3c 78 a3 be
       0.1996873 0.059429277 -0.002664864 -0.3192767
000030 04 f7 40 be b2 1c b9 be 11 7b c1 be c7 e1 44 3e
       -0.18844229 -0.36154705 -0.37789205 0.19226752
000040 6b b3 fb 3e 63 b0 ce 3e de 0b f8 3e c6 5d 5d bd
       0.49160323 0.40368947 0.48446554 -0.054044507
000050 ea 49 f8 3e 9f c4 d2 be 30 a2 46 3d 08 6c 8b be
       0.48493892 -0.41165635 0.048494518 -0.2723086
000060 b1 b9 b7 be 5a f6 58 be 38 98 9c bc fc aa 70 3e
       -0.3588386 -0.21187726 -0.019115552 0.23502725
000070 d2 34 56 3f e3 1c 11 bd b7 b5 87 be 39 6f 05 bf
       0.8367435 -0.03542794 -0.26505825 -0.5212284
000080 22 38 89 be d0 41 2a 3d 7e 6c 54 bf 6a ac e9 ba
       -0.26800638 0.04156667 -0.82978046 -0.0017827873
000090 ae f2 55 3f 31 fe ab bc b2 85 cd be fc 67 ee bc
       0.83573425 -0.020995231 -0.40141064 -0.029102318
0000a0 94 bc 73 3e 9e ef 81 bc ed 80 00 bf 3d fb 43 3e
       0.23802406 -0.015861329 -0.50196725 0.19138809
0000b0 70 a8 73 3d b0 48 b5 be b8 32 24 3e 98 b3 1d bf
       0.059486806 -0.3540702 0.16034973 -0.61602163
0000c0 64 f5 96 bf 63 e5 56 3c 81 5a 48 bf 72 36 8e 3d
       -1.1793637 0.0131162135 -0.782631 0.06943978
0000d0 bc 8a 3e bf 25 a8 80 bc 20 be 91 bc 40 1d 6d bc
       -0.7443044 -0.015705178 -0.017790854 -0.014472306
0000e0 14 06 61 3f 17 78 00 bc 88 88 44 3f eb df 91 be
       0.878999 -0.007841132 0.7677083 -0.28491148
0000f0 17 48 69 be 29 4e 91 3d 0c 52 88 3f 27 29 c1 bc
       -0.22781406 0.07094986 1.0650039 -0.023579193
000100 e6 17 7a be e0 65 d9 bc 16 90 3b 3f 16 6f 26 bf
       -0.24423179 -0.026537836 0.7326673 -0.65013254
000110 d4 35 b8 bf c1 12 e7 3c e9 df d4 3d e1 55 a3 bd
       -1.4391427 0.028207185 0.1039427 -0.079753645
000120 fa 6f 96 bf 76 5b dd 3c 00 cb 33 bc 38 a1 14 bf
       -1.1752923 0.027021151 -0.010973692 -0.580585
000130 e3 33 98 bb ee 10 53 bc b6 e1 7e 3f 36 b7 ca bc
       -0.0046448573 -0.012882454 0.9956316 -0.024745565
000140 0e 05 86 3e 0a 0b d9 3d 4f 89 17 3f 7c 95 9f bc
       0.2617573 0.10597809 0.5919389 -0.01948046
000150 3c c0 74 3f 72 06 9f be a7 0b 77 3f cc 70 4a be
       0.95605826 -0.31059605 0.96502155 -0.19769591
000160 73 77 1b be 2d ab c7 3e ad f7 b8 3e 24 28 bd bc
       -0.15182285 0.38997784 0.36126462 -0.02309043
000170 12 e5 23 bf 79 67 8c 3e 3f 94 8d be 60 88 97 3e
       -0.6402141 0.27422693 -0.27652165 0.29596233
000180 63 12 a4 bf 63 84 06 3d 9d 77 c5 bf d8 ca 05 3c
       -1.2818111 0.032841098 -1.5427128 0.0081660375
000190 22 16 a1 3c 9a b4 af 3e 79 76 4d bf 34 62 87 bc
       0.019663874 0.34317476 -0.802589 -0.01652632
0001a0 20 03 a3 3c d8 a2 dc bd 6c 69 59 bf 9e 39 c3 3c
       0.019898951 -0.107732475 -0.84926486 0.023831185
0001b0 c9 26 28 3f 7b da 9d bc cf 31 83 3f a7 5c 56 be
       0.6568418 -0.019269219 1.0249575 -0.20933782
0001c0 72 be b9 bf 3b 70 a9 bb eb 24 da be 1c bc 36 be
       -1.4511244 -0.0051708496 -0.4260629 -0.17845196
0001d0 a7 c9 04 3f 2a 0e 22 bf ac 6d c9 3d b5 a4 8c 3e
       0.518702 -0.6330286 0.098353714 0.27469411
0001e0 ec 3f 45 bf 7d cc 8b 3d 9a a2 23 bf a0 9b be bc
       -0.7705066 0.068261124 -0.63919985 -0.023267567
0001f0 55 2f fb be be 3a 88 3e 92 03 b5 bf ce 29 a4 3c
       -0.4905955 0.26607317 -1.4141715 0.020039465
000200 79 17 de 3d eb 70 87 3e 44 e8 c5 bf 6b c4 c1 3d
       0.10844321 0.26453337 -1.5461507 0.09461292
000210 6a ef c4 3e b9 c4 99 3d 48 d7 12 3f ef 41 42 3d
       0.38463908 0.07508225 0.57359743 0.04742616
000220 74 4f 56 bc 87 a4 11 3e 57 c0 98 be 4a 95 b5 be
       -0.013080467 0.14222918 -0.29834244 -0.3546546
000230 18 b0 80 3e 73 04 83 be 0e 4c a5 bf 5d 4a c8 3c
       0.2513435 -0.25589332 -1.2913835 0.024449522
000240 27 30 dd 3e 79 a7 b0 3e 03 c7 f3 bd f2 7b 4b 3d
       0.432008 0.34502771 -0.11903193 0.04967875
000250 f0 ce b4 3e f2 b8 80 bc 60 a6 ab 3f 47 b4 c0 3c
       0.3531413 -0.015713189 1.3410149 0.023523463
000260 e8 1b 6c 3e 5c 36 ac 3d 3c c1 b1 3e 03 b9 1f 3d
       0.2305752 0.08408806 0.3471774 0.0389948
000270 b8 85 a2 3d 0b dc 34 bf 95 b2 15 be cf 86 87 3e
       0.07935661 -0.7064826 -0.14618905 0.26470038
000280 f8 9f 2e bf f8 41 f0 bd 36 57 ae 3f 49 11 da 3e
       -0.6821284 -0.117313325 1.3620365 0.42591313
000290 d0 e2 8a 3f 5a 8a be bc bb 68 8f 3f f4 e9 b4 bc
       1.0850468 -0.02325933 1.1203836 -0.022084214
0002a0 e4 24 5e 3e 28 d3 18 be 22 fb 9f 3e 74 14 75 be
       0.2169376 -0.149243 0.31246287 -0.23933583
0002b0 d4 f3 2b be a8 94 37 be d7 08 6e bf 18 d0 6a bc
       -0.16792232 -0.17927802 -0.9298224 -0.01433184
0002c0 6c 63 b5 be 80 2c 96 3e 13 ed 36 3e b7 d2 79 bc
       -0.35427415 0.29330826 0.17863874 -0.015247992
0002d0 22 1c 65 3e d8 55 52 bd a6 88 6f bd 7b 38 0c bc
       0.22374013 -0.0513514 -0.058479927 -0.008558388
0002e0 42 29 57 3f b0 a9 c4 bc 3e 22 85 3f 29 53 f7 3d
       0.8404733 -0.024006695 1.0401075 0.120764084
0002f0 e6 b3 59 3f 88 d1 a4 bc 3b 28 62 3f d2 59 4b bc
       0.8504013 -0.020119444 0.88342637 -0.012411552
000300 30 57 22 bf a4 5a a0 be 77 34 fd 3e 97 ac 50 3e
       -0.6341429 -0.31319153 0.4945409 0.20378338
000310 21 d8 66 3c 00 d9 e4 3e 5f 0a 79 3f 2d e5 02 3e
       0.014089615 0.44696808 0.9728145 0.12782736
000320 b6 2d 1c bf fa d6 84 3c 8a 91 2b 3e 0f 55 7e 3c
       -0.6100725 0.01621579 0.16754737 0.015523209
000330 7e ec 50 bf d2 4c ad bc a7 27 a6 bf 74 d0 4d 3e
       -0.8161086 -0.021154795 -1.2980851 0.2009905
000340 09 91 3a bf 4b 1b 64 3a 52 9a 01 c0 62 b3 14 3e
       -0.72877556 0.0008701577 -2.025044 0.14521554
000350 e4 17 81 bf ce ee b4 bc 48 79 86 bf af 37 63 3d
       -1.0085416 -0.022086527 -1.0505762 0.055473026
000360 83 7c 8a 3f 4d 10 8c be b5 77 c8 be 67 64 0b 3e
       1.0819248 -0.27356187 -0.3915383 0.13612519
000370 02 d7 76 bf 37 c3 e4 bc 26 d1 ed 3e 00 6b 15 bc
       -0.96421826 -0.027925117 0.4644863 -0.009119749
000380 80 8b d4 3c af d8 12 bf 8b 7e 48 bf 4d ab 8e bc
       0.025945425 -0.5736188 -0.7831809 -0.017415667
000390 5c 29 3e 3f ad e3 41 3e 0a 53 51 3f 7b d9 ba 3e
       0.7428186 0.18934508 0.8176733 0.3649405
0003a0 20 e5 23 3d 4c 02 07 be d3 92 52 bf ec 32 9c bc
       0.040013433 -0.1318447 -0.82255286 -0.01906725
0003b0 c4 60 f7 3e 2b e1 8e be ff e0 9d be 18 fb 97 bd
       0.48316014 -0.27906165 -0.3083572 -0.07420939
0003c0 6d 5c 79 bf 88 dc ac 3d ec 58 d3 bd 23 a3 a0 3c
       -0.97406656 0.084405005 -0.10319695 0.01960904
0003d0 c0 49 96 bf 5d 30 2f 3e 93 f5 30 bf 36 c4 5e bc
       -1.1741257 0.17108293 -0.69124717 -0.013596585
0003e0 ab 43 b9 bf c5 44 5b 3d 1b f6 7c 3f 22 16 51 be
       -1.4473776 0.05353238 0.9881303 -0.20418599
0003f0 d6 c4 4d 3f 08 84 44 be 19 e3 7f 3e ad c7 bf 3d
       0.8037847 -0.19190991 0.24988975 0.09364257

Q.0.bias f4 [128]
000000 c6 19 c0 3f 60 4e 80 3f d9 24 80 3f a3 78 97 bf
       1.5007865 1.0023918 1.0011245 -1.183369
000010 8b 83 b3 3f 9f ab bf be 35 df c3 be 44 c4 cd bf
       1.4024519 -0.37435624 -0.3825623 -1.607552
000020 56 5b 94 3f da 85 06 3f 46 86 09 bf f5 a6 c3 be
       1.1590374 0.5254799 -0.5372051 -0.38213316
000030 ec cf a0 be d4 f3 bd bf 65 e6 19 bd 4b e2 b1 be
       -0.31408632 -1.4840035 -0.037573237 -0.3474296
000040 17 09 7f bf cb 3a 55 be 48 8a bf 3f d1 ed ea 3e
       -0.99623245 -0.20823209 1.4964075 0.45884565
000050 5b 55 8a 3f 0b 35 0e 3f 60 55 a3 bd 44 e3 42 be
       1.0807298 0.5554969 -0.07975268 -0.19032007
000060 4b 6e 18 bf 5b ea c5 bf bc b2 65 3f 90 52 27 be
       -0.59543294 -1.5462145 0.8972585 -0.16340089
000070 df a3 47 bf 79 8d 8c 3f 08 88 7e 3f 6f 83 42 be
       -0.7798442 1.0980674 0.9942632 -0.1899545
000080 90 0d 60 bd 51 e0 86 3e dd 93 c4 3f 1a a6 4f 3f
       -0.054700434 0.26343015 1.5357624 0.81112826
000090 26 be 88 bf b0 09 7a bd 12 ff be 3f 11 04 0e be
       -1.0683029 -0.061044395 1.4921591 -0.13868739
0000a0 79 17 b4 bf 38 15 82 3f d2 62 95 3e e6 20 2c bc
       -1.4069663 1.0162725 0.29176956 -0.0105058905
0000b0 4d cd ad 3f 43 1b 67 3f ed 5e 91 3f c0 8b cb bf
       1.3578278 0.90275973 1.1357094 -1.5902023
0000c0 f7 b0 b3 3f 03 7e bf be 3b 24 b9 bf 55 f2 89 3f
       1.403838 -0.37400827 -1.4464182 1.0777079
0000d0 53 59 03 bf 04 bd 73 bf a2 b9 b3 3f f9 1d 17 3f
       -0.5130817 -0.9521029 1.4041026 0.5903011
0000e0 91 37 59 3d 31 67 2d bf 92 90 0e bf d2 fa a2 3f
       0.053031508 -0.6773558 -0.55689347 1.2732794
0000f0 bf ed 4c 3f 3d 7c 98 3f ad c3 eb bf 7b 15 69 bf
       0.8005027 1.1912915 -1.841909 -0.910484
000100 4e 9c 1e 3f 75 fb 81 3f 2e ec a9 bf 7b 5a 90 bf
       0.6195725 1.0154864 -1.3275201 -1.1277612
000110 e4 5c 71 3f ce 43 9c be 61 82 f7 be a3 6a 7a bf
       0.94282365 -0.3052048 -0.4834166 -0.97818965
000120 78 0c ac 3f 53 3d b9 bf c2 59 83 3f ed 60 7e bf
       1.3441305 -1.447184 1.0261767 -0.99366647
000130 ac 7a bd bf 40 bd 6f 3f a4 3e e0 be 96 92 91 3f
       -1.4803061 0.9364815 -0.4379779 1.137286
000140 7a f3 7b be 2b 5a c5 bf e3 d7 c6 be b3 34 ac be
       -0.24604598 -1.5418142 -0.38836583 -0.33633956
000150 f6 55 e9 be b7 cd 04 bf 75 30 08 bf 06 0e 95 3f
       -0.45573395 -0.51876396 -0.5319894 1.1644905
000160 6f 54 b1 bf ae 15 af 3f 5e b3 05 3f b8 a2 87 3f
       -1.3853892 1.3678491 0.5222682 1.0596533
000170 8a b4 64 3f c0 8e 97 bf ed 55 91 3f 4f 4b e5 be
       0.8933798 -1.1840439 1.1354347 -0.44784018
000180 f8 56 17 be f1 c2 a3 bf de 3e e3 bf 40 69 b3 bf
       -0.1477927 -1.2793866 -1.775356 -1.4016495
000190 60 24 39 bf 6d 57 4c bf 36 0e 97 3f ce 89 33 3f
       -0.7232113 -0.798209 1.1801212 0.7013215
0001a0 98 2a ab 3f 04 67 a5 3f 70 66 a9 3f 2b 79 ce bf
       1.3372374 1.2922063 1.3234386 -1.6130728
0001b0 e0 b2 a9 3d ae e5 84 3f f3 eb a0 3f 43 1b 0b bf
       0.08286071 1.0382593 1.2572006 -0.54338473
0001c0 be 72 9b be 89 e9 8a 3f 58 52 b8 bf 84 a6 c2 bf
       -0.3036098 1.0852519 -1.4400129 -1.5207067
0001d0 7a 39 67 be 7f d7 88 3f b8 ec 85 3e 04 98 19 be
       -0.2258052 1.0690764 0.26157165 -0.14999396
0001e0 b3 0f 89 3f 63 ef 9b 3f 15 47 a9 3f 9b b7 67 3f
       1.0707916 1.218243 1.3224818 0.90514535
0001f0 72 b8 d2 bf 32 70 87 bc 84 90 07 3f c0 be a6 bf
       -1.6462538 -0.016532991 0.5295489 -1.3026962

Q.2.weight f4 [128, 128]
000000 9b 54 5c 3d fb 0f 90 bc a5 a4 9c 3c 92 60 57 3c
       0.053791624 -0.017585745 0.019121477 0.013145583
000010 6d 20 97 bd 16 2a 4f 3d d2 44 3c 3d dd 8b b9 bc
       -0.073792316 0.050577246 0.04596407 -0.0226497
000020 a8 a4 96 bd f4 ad 4e bc 30 88 ac bb 38 ce 53 bd
       -0.073556244 -0.012614716 -0.0052652583 -0.051710337
000030 90 7c dc 3b 40 0f 8d 3d 74 2d 6c bd c0 82 81 3c
       0.006728716 0.06887674 -0.057660535 0.015809417
000040 71 d9 11 bd 58 cc 57 bd c3 0b 87 bd 25 60 d7 bc
       -0.03560776 -0.05268511 -0.0659404 -0.026290962
000050 1f 62 77 bd 34 b8 a9 bd 42 a6 fc bc f6 92 52 3d
       -0.06039631 -0.08287087 -0.030840997 0.051409684
000060 57 3f 65 3d 09 40 89 bd 70 85 be 3c 39 0e 49 bd
       0.05596861 -0.06701667 0.023256987 -0.04908583
000070 b7 5f a7 bd 8f 9d a4 bd 04 3f b0 bd d4 ff 53 3d
       -0.08172553 -0.080378644 -0.08605769 0.05175765
000080 60 19 6d 3c 0e 82 78 3d 7e 40 85 bc a4 b8 56 3d
       0.014471382 0.060670905 -0.016266104 0.05242218
000090 0a 36 bf 3c f0 c6 fa bb e6 50 68 3d 28 e2 54 bb
       0.023341198 -0.0076531097 0.056717776 -0.0032483432
0000a0 d3 b9 b2 bd 00 15 f4 3b 08 ab 23 bc c0 f4 b0 bc
       -0.087268494 0.0074487925 -0.0099895075 -0.02160108
0000b0 18 b3 88 3d 00 d2 be 3a 2e 90 90 3d bd 2b 44 3d
       0.066747844 0.0014558434 0.0705875 0.047893275
0000c0 47 3c c5 3d a3 8a 36 3d 20 27 a1 bd 2f 9d 7b bd
       0.096306376 0.044565808 -0.078687906 -0.0614292
0000d0 e6 09 56 3d 52 31 1e bd c6 1e 87 bd c8 d2 41 bc
       0.052255534 -0.038621254 -0.065976664 -0.011830039
0000e0 2d 28 5c bc a8 9e 62 3c 1e 70 77 3d 95 a1 2d bd
       -0.013437313 0.013831772 0.060409658 -0.042390425
0000f0 3d 6c 9f 3d c0 29 ca bc ae a7 91 3d 7e 59 bc bb
       0.07784317 -0.024678111 0.071120605 -0.005747973
000100 dc 36 a1 bd 26 cb 88 bd 45 d5 08 3d 60 54 96 bd
       -0.07871792 -0.066793725 0.033406515 -0.07340312
000110 6c fd b2 3c 7c 31 a3 bc 30 6c 61 bc 50 d5 0c bd
       0.021849357 -0.019921057 -0.013758704 -0.03438312
000120 82 f0 52 3c 3d d5 8c bc b0 cc 54 bd 77 a3 0c bc
       0.012874724 -0.017191524 -0.051953018 -0.008583895
000130 32 8c 36 3d 42 7d 90 bd 1f d7 98 3d 23 53 21 bd
       0.044567294 -0.07055141 0.07462906 -0.039385926
000140 5c a4 80 bd ff 16 6b bd ab ed c5 3c 82 ed 7a 3d
       -0.06281349 -0.057394978 0.02416118 0.06126166
000150 c0 e0 53 bb 20 9f 33 bb d7 17 6a bd 8a 12 50 bd
       -0.0032330006 -0.0027408078 -0.05715164 -0.05079893
000160 7e 95 84 3d 14 00 a0 bd 75 40 c0 bc 37 2d c2 3d
       0.06473826 -0.07812515 -0.023468236 0.0948128
000170 96 20 4a 3d d1 d9 1b bc ec df 9e bc 16 7d 6c 3c
       0.049347483 -0.009512381 -0.019393884 0.01443412
000180 a0 9e 58 3b 09 d0 24 bd 80 36 50 3d f8 78 69 bd
       0.0033053532 -0.04023746 0.050833225 -0.05700013
000190 92 43 ae bd 59 82 a9 3d d0 3e b5 bb ef 8a 9c 3c
       -0.08508982 0.08276815 -0.0055311695 0.019109217
0001a0 39 4e 4e bd 66 22 67 3d 28 43 a8 bc 01 29 8b 3d
       -0.050367568 0.05642929 -0.020539835 0.0679493
0001b0 a8 d6 9c bd 58 b4 78 bc c0 22 80 3b 88 31 a8 bd
       -0.0765813 -0.015179716 0.0039103925 -0.08212572
0001c0 7d 09 20 bd 1e 8b 6d 3d 08 fd 5d 3d 6d 66 48 3d
       -0.03907155 0.057994 0.054196388 0.048925806
0001d0 ea c5 55 3d 20 be 4c 3c 74 90 93 bd 86 b7 56 3d
       0.0521907 0.012496501 -0.072052866 0.052421115
0001e0 fb c3 7b 3b 5e df a1 bd 92 77 67 3d 64 63 6c bd
       0.0038416374 -0.07903932 0.056510516 -0.057711974
0001f0 cf cb 2d bc d2 45 2e 3d 48 80 95 3c e3 92 3c bc
       -0.010607674 0.042547055 0.018249646 -0.01150963
000200 15 b2 4f 3f ef 19 ce bc 9d 50 3b bd e1 83 97 be
       0.81131107 -0.02515885 -0.045731176 -0.29592803
000210 ae 38 02 3d 5d 6f a0 bd c7 c4 86 3d b5 14 00 be
       0.031792335 -0.07833741 0.06580501 -0.12507899
000220 d3 ee 29 be 6f ef a2 be 79 34 a2 3d a6 96 4f 3d
       -0.1659501 -0.31823298 0.079201646 0.05068078
000230 88 f6 99 bc 04 10 2d be 55 0e 49 3e 2a e1 39 3d
       -0.018794313 -0.1690064 0.19634373 0.04538075
000240 be 82 a1 be bc 8a 47 bd 75 c5 8e 3f a0 40 1d bd
       -0.3154506 -0.04871629 1.1154009 -0.03839171
000250 ea da 21 3f b9 b4 cb bd 99 5d 73 bd 30 c1 11 3c
       0.6322466 -0.099465795 -0.059415434 0.008896157
000260 a7 db 80 3a 49 eb 14 be 47 b8 96 be 5f ea 8c 3d
       0.0009831086 -0.14542879 -0.29437467 0.0688064
000270 04 99 45 bd 75 4b 82 3d 3d 13 00 3d d9 04 e2 3c
       -0.04824163 0.063620485 0.031268347 0.027590202
000280 7a 78 14 3d 65 e1 f4 bd 98 da 21 3f 4b 27 08 3c
       0.036247708 -0.11957053 0.6322417 0.008310149
000290 c2 30 0e be 74 c2 d2 3c 24 8e 5a 3f c3 fc 0f 3d
       -0.13885787 0.025727488 0.8537314 0.03515316
0002a0 ec 5c 60 be 24 d8 28 3f 15 d7 b4 3d 3c 38 0c 3f
       -0.21910447 0.65954804 0.08830086 0.54773307
0002b0 2a d9 72 bd d5 09 1a 3f 3d 72 8c bd fc f1 69 be
       -0.059289135 0.6017125 -0.06857727 -0.22846216
0002c0 8f 8e 5d 3e 28 78 f6 bd 20 9b 18 be 12 60 a5 be
       0.21636413 -0.12034637 -0.14902925 -0.32299858
0002d0 e6 e5 a0 bd aa 13 7b 3d 96 bb 89 3f f0 67 b7 3e
       -0.0785635 0.06129805 1.0760372 0.35821486
0002e0 9f b8 55 bc aa cc 62 3d fa c6 69 bd 92 e0 a6 3c
       -0.013044505 0.055370964 -0.057074524 0.020370755
0002f0 b7 f5 b5 3c 31 3c 16 3e e5 e2 11 be 8f 0d 15 bd
       0.022211893 0.14671399 -0.1424671 -0.036389884
000300 0e 46 2b bd 22 81 01 bd 0d 54 73 be 12 22 b4 be
       -0.041814856 -0.03161729 -0.23762532 -0.35182244
000310 db 17 c5 bd 66 8c 2c 3d 00 97 ce 3a 5e 57 dc bd
       -0.09623691 0.042126082 0.0015761554 -0.107588515
000320 24 37 2f bc d9 ec f4 bd 78 b8 53 3f 11 1f 99 be
       -0.010694299 -0.119592376 0.8270335 -0.29906514
000330 ec 40 a5 be 74 ec 6f bd de 9a 31 3d 79 26 3f bd
       -0.32276094 -0.05857511 0.043360583 -0.04666755
000340 55 97 37 bd ae 95 11 be e3 2a 8e 3e 49 63 63 3e
       -0.044822056 -0.14217255 0.27767095 0.22205843
000350 47 5c 9a 3d f3 e7 af bd 10 b1 cf 3b f8 0b b8 be
       0.07537132 -0.08589163 0.006338246 -0.3594663
000360 26 ae 15 bd 33 3e 95 3f 2a 84 9e bc d5 09 74 3f
       -0.036543034 1.1659607 -0.01935013 0.953275
000370 81 a5 a5 3e 61 8a 12 be b7 d5 3d 3f 6c 69 3e 3d
       0.32352832 -0.143106 0.7415423 0.046487257
000380 ed 1f a5 3d 92 9e 94 bd 89 12 c8 bd 4f 1c d8 bd
       0.0806273 -0.072568074 -0.0976916 -0.105522744
000390 37 35 1e 3d be d4 fd 3b 4c 0b b0 bd 40 64 f9 bc
       0.03862497 0.007746308 -0.08595905 -0.03044331
0003a0 15 e4 f4 3e 39 da d0 3d 56 40 bf 3d b9 c8 10 be
       0.47830263 0.10197873 0.09338443 -0.1413907
0003b0 7d 6f 39 bc 8e 2f 6d bd 13 2f 10 bf 68 44 2c bc
       -0.011318085 -0.05790668 -0.5632183 -0.010514356
0003c0 12 e4 24 3d 4d 6a 95 3c 10 b9 3f be f3 ba 0a be
       0.040256567 0.018239165 -0.1872294 -0.13547878
0003d0 a4 58 ae bc 51 d5 4a be b8 5a be 3d e0 34 63 bb
       -0.021282502 -0.19807936 0.09294647 -0.0034668967
0003e0 79 ac 97 bd 53 e9 9e 3d 1c 2a 1d bb 0f 24 c9 be
       -0.074059434 0.07759347 -0.0023981398 -0.39285323
0003f0 9d 55 ce bd b8 18 02 3f 66 58 af 3e d2 ac f9 bd
       -0.10074923 0.5081897 0.3424713 -0.12191166

Q.2.bias f4 [128]
000000 91 b5 28 bc 24 a1 30 3f 3a 89 32 3f 90 fd 49 3c
       -0.010297195 0.6899588 0.6974064 0.01232852
000010 ef 30 cb 3c 22 85 4a 3f a3 84 3b 3f 90 73 42 3d
       0.024803607 0.79109395 0.7324926 0.04747349
000020 e3 b5 35 3f 6c 9d e8 3c e6 9e 2c 3f 50 54 d8 bc
       0.7098066 0.028395377 0.6742996 -0.02640739
000030 50 2c f0 bc 49 e8 6d 3f 48 d4 18 be e0 37 b0 be
       -0.029318005 0.92932564 -0.14924729 -0.3441763
000040 e4 2b 32 3f 99 83 4b 3f 29 fc 93 3d 51 16 33 3f
       0.6959822 0.7949768 0.0722583 0.6995593
000050 4b 50 99 3d 0f 3a ba be 9c 26 29 3f 7b 16 f9 bc
       0.07486018 -0.3637242 0.6607454 -0.030406227
000060 cd 40 13 3f 3b cc 0a 3d 64 9d 58 3f bf 48 0e be
       0.57520753 0.033886176 0.8461516 -0.13894938
000070 83 ba 4a 3d a1 2e 8d 3d 6e 9f 3c 3e 9c 05 49 3f
       0.049494278 0.068936594 0.18420193 0.78524184
000080 e7 63 73 bd 37 2b 88 bd 18 a1 46 3f f2 ba 4a bd
       -0.059421446 -0.066488676 0.7758956 -0.04949469
000090 6a 65 00 be d1 a1 09 3f 46 c3 2f 3f e1 88 22 bd
       -0.12538686 0.5376254 0.6865734 -0.03968132
0000a0 00 ea 22 3e 2f b9 89 3d 77 59 22 3f 13 fc 90 bd
       0.15909576 0.06724774 0.6341776 -0.07079329
0000b0 ca 49 52 3f b4 8b 2a 3f c2 ea 22 3f 52 70 42 3f
       0.82143843 0.6661942 0.6363946 0.7595264
0000c0 2f 4f 37 3f 00 c0 40 3e 07 a6 1d 3f e2 af 63 bd
       0.716052 0.18823242 0.6158146 -0.055587657
0000d0 ae a0 71 3d ed 0d 24 3f 48 1d 32 3f a0 52 ac bb
       0.058991127 0.6408375 0.6957593 -0.005258873
0000e0 ba ab b2 bd 95 d0 f2 bc 55 12 30 3f 7e 7e 4d bd
       -0.087241605 -0.029640475 0.6877797 -0.05016946
0000f0 17 a1 49 3f c0 fd 1d 3f 78 3d 75 bd 48 15 60 3c
       0.7876143 0.61715317 -0.059873074 0.013676949
000100 f4 65 25 3f 52 d6 86 be 07 ce 26 3f 64 8d ce 3d
       0.64608693 -0.26335388 0.6515812 0.10085562
000110 87 08 ac bd 9f 78 3e 3f a7 43 be bd 68 f0 8f bd
       -0.08400064 0.74402803 -0.092902474 -0.07028276
000120 c0 ec a0 bc 68 23 64 3f ba 59 29 3f 8c 62 41 3f
       -0.019644141 0.89116526 0.66152537 0.75540996
000130 fd 0f 47 3f ff 78 17 3f 1f 81 21 3f fe 5d 13 3f
       0.7775877 0.59169 0.6308765 0.57565296
000140 ec e4 3c 3c 5a 2b 68 3f 58 fc 2a 3f f0 7d 38 3f
       0.011529189 0.9069115 0.66791296 0.72067165
000150 1a 58 10 3d 75 f6 b1 bd 29 40 80 3d f6 44 d3 bd
       0.03524027 -0.08689586 0.062622376 -0.10315888
000160 47 d5 e4 bd 4c 8c 05 be 37 2d a6 bc b5 7b 10 3d
       -0.11173492 -0.130418 -0.020285232 0.035274226
000170 7e 5a 25 3d 0f 56 77 3f 9c d0 da be 0c 32 5e 3d
       0.040369503 0.9661569 -0.4273728 0.054246947
000180 b3 14 1f 3f bd 37 3a 3f d8 0c a4 3f 7f ce 91 3d
       0.6214096 0.727413 1.281642 0.07119464
000190 49 e8 43 3f 75 f7 cd bd 9b fb 14 3f 19 a0 fe bb
       0.76526314 -0.10056964 0.5819642 -0.00777055
0001a0 5d 42 29 bd 56 4d 16 3e 3e 8d 4e 3d 1d 4d 9f be
       -0.041323055 0.14677939 0.050427668 -0.3111352
0001b0 e7 5d 26 bd 9b ab 2d 3f 7e 26 ba bc 48 6d 40 3f
       -0.040616896 0.67839974 -0.022723433 0.7516675
0001c0 49 29 19 3f d4 19 10 bd 4e 35 2f 3f c5 3a 4d 3f
       0.5982862 -0.03518088 0.6844071 0.801678
0001d0 42 16 38 3f 4f 00 32 3f 8a 56 23 bd 18 c9 37 3f
       0.7190896 0.6953172 -0.039877452 0.7179122
0001e0 f0 44 98 3b f4 26 b8 3c 10 b1 9c bc 14 3c 27 3e
       0.00464689 0.022479512 -0.019127399 0.16331512
0001f0 d9 52 49 bd c0 e5 30 3f 94 a3 37 3f 60 8b 11 3d
       -0.049151275 0.6910057 0.71733975 0.03553331

Q.4.weight_mu f4 [4, 128]
000000 ad 2f f6 bc 65 4d d1 3e 06 98 ad 3e 1d 8c 39 3c
       -0.03005203 0.4087936 0.33905047 0.0113249095
000010 80 12 6a bc 01 ee 5d 3e b2 01 87 3e be 7b 6a bd
       -0.014286637 0.21672823 0.2636848 -0.057246916
000020 e5 3b 87 3e 3c 75 86 bd 79 8f 86 3e 86 ed 04 3d
       0.26412883 -0.065653294 0.26281336 0.032453083
000030 dc 2e 3d bc 3a 1f c7 3e 22 79 87 3e d6 2e 10 bf
       -0.011546817 0.3889101 0.26459605 -0.56321466
000040 e2 46 56 3e ec c9 12 3f 64 73 91 bd 0b 70 4a 3e
       0.20925477 0.5733936 -0.07102087 0.19769304
000050 0e 0c a4 bd 9b ad c0 be 6e c9 41 3f be 0a bc bc
       -0.08010112 -0.3763245 0.7569798 -0.022954341
000060 6c 11 6d 3e 00 24 50 bd cc 1d 8e 3e 1b cd a2 3d
       0.23151177 -0.050815582 0.27757108 0.07949277
000070 60 8e 07 3d 72 24 7b bd 6c 29 c2 3d 38 35 b5 3e
       0.033094764 -0.061314054 0.09480557 0.35392165
000080 de 49 ec 3d 33 81 5a bd 69 39 bc 3e 2b 66 85 bc
       0.115375265 -0.05334587 0.3676255 -0.016284069
000090 35 ca 33 be b3 06 3f 3f 3a 37 a1 3e 57 ae ca ba
       -0.17557605 0.746196 0.31487447 -0.0015463334
0000a0 44 e8 b6 bc 08 82 ae bc 6b 64 0d 3e fc 4b a6 bd
       -0.02232755 -0.021302238 0.13807838 -0.081199616
0000b0 55 60 a6 3e 76 cd 4b 3e 0d be ca 3e 23 ed b3 3e
       0.3249537 0.19902596 0.39598122 0.35141858
0000c0 c3 27 ae 3e 3e 7f e7 bc 52 38 89 3e ba 3f 6c bd
       0.3401471 -0.028258916 0.2680078 -0.057677962
0000d0 e4 23 34 bd ec c1 8b 3e 5a d9 bf 3e f6 63 33 3d
       -0.04397954 0.27296388 0.37470514 0.043796502
0000e0 80 d4 36 3b fe 89 4a 3d fb 42 cd 3e 46 bb 99 bc
       0.0027897656 0.049448006 0.40090165 -0.018766057
0000f0 44 26 23 3e b2 70 d0 3e f6 74 63 bc ec 1a 84 bd
       0.15932566 0.4071098 -0.013882866 -0.064504474
000100 67 83 da 3e 64 81 cd be 9f 61 11 3f 0b cf cc 3c
       0.42678377 -0.4013778 0.5678958 0.02500107
000110 49 3c 2e bd cf 50 a4 3e ad b4 9d bc b6 24 9a bd
       -0.04253796 0.32092902 -0.019251192 -0.07526533
000120 fd 16 98 3d 37 a7 0c 3f d1 98 aa 3e e1 b7 a2 3e
       0.0742626 0.5494265 0.33319715 0.31780913
000130 78 33 a6 3e d8 d0 ac 3e c2 e4 7f 3e 62 99 a0 3e
       0.32461143 0.33753085 0.24989608 0.31367022
000140 0f 97 65 3c b9 7c ad 3e bf 50 e9 3e 95 b9 69 3e
       0.014013066 0.33884218 0.45569417 0.228247
000150 8d 25 ff 3c 49 f5 40 bd 1b a5 2d 3d 78 c0 24 3d
       0.031145835 -0.047108922 0.042393785 0.040222615
000160 01 04 a3 3d 73 bb 0d be f1 9f e4 3c b9 02 e2 bd
       0.07959748 -0.13841037 0.027908297 -0.110356756
000170 27 83 77 bd 23 1c f8 3e 91 f9 dc be 39 df 4e bd
       -0.06042781 0.48458967 -0.43159154 -0.05050585
000180 4b b4 a8 3e 0c a9 79 3e de 38 49 3f 9d 69 b2 3d
       0.32950053 0.24380893 0.786024 0.087115504
000190 f3 06 55 3e df 1c 1d bd 1c d2 f6 3e 30 d0 6d bd
       0.20803432 -0.03835761 0.48207176 -0.05805987
0001a0 08 0d d8 3c 05 ab 79 3c 16 5c 16 bd 2b 29 1e bd
       0.026373401 0.015238528 -0.036708914 -0.03861348
0001b0 90 d7 88 bd 4e 79 89 3e 02 d0 da bb c8 59 cb 3e
       -0.0668174 0.2685036 -0.0066776285 0.39716935
0001c0 b5 92 c6 3e 3a fc 8e 3d 75 77 c1 3e 32 6c d9 3e
       0.38783804 0.06981702 0.3778645 0.4246536
0001d0 3c 51 91 3e 85 43 03 3f 97 86 c4 3c 40 0c 9e 3e
       0.2838229 0.512749 0.023989959 0.3086872
0001e0 40 ca 6a bd c0 ef 19 bb 67 5b b7 bc e2 e9 f8 3d
       -0.057321787 -0.002348885 -0.022382451 0.121539846
0001f0 72 e3 66 3d 0b 14 92 3e 3d 12 ba 3e f8 c0 f6 3c
       0.056369253 0.28530917 0.3634204 0.030121312
000200 27 1c 8b 3d 72 eb 92 be ca 53 4f 3f 30 5b eb be
       0.06792479 -0.28695256 0.80987227 -0.45968008
000210 79 f1 ee be 7d bb 40 be c6 3b 39 3f 76 83 ea bc
       -0.46668604 -0.18821521 0.7235683 -0.028627139
000220 85 33 bb be 8c e7 d8 3c de b8 9d be 80 82 5f 3b
       -0.36562744 0.026477598 -0.30805105 0.0034104884
000230 84 3e 7b bd d7 b4 a7 be 45 2f 8c be fa 55 3b 3d
       -0.061338916 -0.32755157 -0.27379814 0.04573629
000240 fc 55 bb be 8c 24 44 3f 4e 9b 23 3d d4 7f 59 be
       -0.36589038 0.76618266 0.039943032 -0.21240169
000250 b3 02 a5 3c e2 53 e7 3c a8 97 2a 3e e2 cf 47 3d
       0.020142889 0.02823824 0.16659415 0.048782237
000260 40 78 a9 bd 4c aa 0d bd e8 09 4a 3f 54 f7 c1 bc
       -0.08274889 -0.034586236 0.78921366 -0.023677506
000270 7b 5b 4c bb 0b 67 13 3d a1 3c e4 be ee 5b 4a 3f
       -0.0031182456 0.03598694 -0.44577506 0.79046524
000280 d3 19 6b bd 4a be 0b bd fb 38 98 be ab 78 70 3d
       -0.057397675 -0.03411702 -0.29730973 0.058708828
000290 38 92 c4 be f6 db 35 bd 8e ec 78 be 44 f3 f9 be
       -0.38392806 -0.044399224 -0.24308988 -0.4881841
0002a0 3a 3c c5 be 06 bb 71 3d ed 4a 58 be 60 b4 46 bb
       -0.38522512 0.05901625 -0.21122332 -0.0030319914
0002b0 53 c3 b6 be a7 c1 4b be 23 f2 ab be 97 75 4e 3f
       -0.35695896 -0.19898091 -0.33583173 0.8064818
0002c0 d1 51 56 be 14 8b fb be 32 4c a0 be e7 fa 9a 3d
       -0.20929648 -0.49129546 -0.31308132 0.07567387
0002d0 4d bb 83 3d 13 7d 1e be d4 ce 32 3f d1 a3 aa 3d
       0.06432209 -0.154774 0.69846845 0.08332027
0002e0 e0 90 1c bc 9e 8f f8 3b fb d3 4a 3f 4a 1c 5d 3d
       -0.009556025 0.00758548 0.79229707 0.053982057
0002f0 e8 8d 9c be 49 94 28 3f 1a 31 5a 3d 91 be b4 bd
       -0.30577016 0.65851265 0.053269483 -0.0882541
000300 87 e6 b0 be 00 53 8d 3c ab 69 38 3e 36 47 f2 be
       -0.34550878 0.017251492 0.18009059 -0.47319955
000310 00 3b 4c bb bf 3c e6 be 0f 08 96 3d d7 a2 ff 3c
       -0.0031163096 -0.4496822 0.07325756 0.031205578
000320 99 89 88 3d fc 88 00 3f ac c6 19 be 3c 81 74 be
       0.0666687 0.5020902 -0.15017194 -0.23877424
000330 0a 4c 49 3e f6 2d 46 3f fe ab e2 be da 10 a2 be
       0.19657913 0.7741388 -0.44271845 -0.31653482
000340 3e d1 58 3d d7 d5 51 3f 64 cf d1 be 03 77 24 be
       0.052933924 0.8196692 -0.4097854 -0.16061024
000350 71 16 44 3d c0 bc 70 bb 77 77 ef be db 04 73 3c
       0.047872964 -0.0036733598 -0.46770832 0.014832701
000360 6c 92 f4 3c c8 47 d6 be dd 2f 4a 3d b1 51 ef bb
       0.029854976 -0.4185164 0.049362052 -0.0073034395
000370 6a af c3 be 66 6f 84 be 11 76 34 bc 56 ab 97 bd
       -0.38219768 -0.2586624 -0.011014477 -0.074057266
000380 e6 c0 c5 be 50 ea 6c be ba 91 47 be 80 cf fe 3b
       -0.38623732 -0.23136258 -0.19489184 0.007776201
000390 44 fc 54 be ca 0a ea be 7f 8b 0c bf c9 ba 95 3d
       -0.20799357 -0.45711356 -0.54900354 0.07311017
0003a0 e7 83 90 3d c7 ca 05 bf c7 45 aa 3d 00 95 90 be
       0.070564084 -0.5226254 0.0831409 -0.28238678
0003b0 c7 65 a5 3d 9c f2 5d be 9e f3 4e 3d d2 8d 1a 3f
       0.08076053 -0.2167458 0.0505253 0.6037265
0003c0 d7 b3 38 3f 19 3e 8a bd ae 3d 3d 3f 40 ad 93 be
       0.72149414 -0.067501254 0.7392224 -0.28843117
0003d0 ec 63 8d be d6 6f ad be 03 94 74 3d d6 cc 1a be
       -0.27615297 -0.33874387 0.059711467 -0.15117201
0003e0 4a b0 0b 3d 56 a1 3e 3d a3 ba 8c bd c1 d0 ec be
       0.03410367 0.04654058 -0.06871536 -0.46253017
0003f0 92 c9 8a bd b6 b0 59 be 9f 5f 15 be 88 3e 2b bc
       -0.06776728 -0.21258816 -0.14587258 -0.01045192

Q.4.weight_sigma f4 [4, 128]
000000 62 ab fd 3c 5a 12 8c 3c 2d 63 9c 3b 88 4a 0a bc
       0.03096551 0.017098594 0.004772565 -0.008440621
000010 89 69 70 3d a7 53 4b 3b 82 7c 10 bc 08 37 e6 3c
       0.058694396 0.0031025202 -0.0088187475 0.028102413
000020 6f af 0c 3b f3 04 b5 3c 25 07 7b bc f3 04 b5 3c
       0.0021466871 0.022097087 -0.015321528 0.022097087
000030 45 d7 b2 3c 8e b7 43 bc 8b c4 dc bb 43 dc c9 3c
       0.021831164 -0.011945618 -0.006737297 0.024641162
000040 34 f5 c5 bb 82 82 4c bb f3 04 b5 3c 07 0c f6 ba
       -0.0060411934 -0.0031205718 0.022097087 -0.0018771895
000050 41 4f 84 3c 7d 57 8c bd 02 4b cf bc f2 be 7f 3c
       0.016151072 -0.068526246 -0.025304321 0.01560949
000060 96 5a 32 bd 56 f7 12 3d 78 5f cc bb 9d d5 10 3d
       -0.04354342 0.03588041 -0.0062369667 0.035359967
000070 67 16 3d 3c ca 14 66 3c 1d c8 b5 bd ac 3a ad 3a
       0.011540986 0.014043042 -0.08876059 0.0013216338
000080 41 99 1b bc a4 1e 62 3c 4b 8f 01 bc ba 8e e2 3c
       -0.009496988 0.013801251 -0.007907699 0.027655948
000090 b8 d3 13 bd 32 85 1a bc be ef 7f 3c c6 c3 fa bc
       -0.036090583 -0.00943117 0.015621124 -0.03061093
0000a0 5b 4f d9 bd f3 04 b5 3c af a7 df 3c 8f d2 cb 3c
       -0.10610839 0.022097087 0.027301637 0.024880676
0000b0 ca f7 60 3c 44 b2 2b bc b9 d6 8f bc 95 e7 ba bb
       0.0137309525 -0.010479514 -0.017558442 -0.0057038763
0000c0 97 ea 5b 3b 09 77 04 3d 15 2b 84 bc f3 04 b5 3c
       0.0033556574 0.032340083 -0.016133824 0.022097087
0000d0 f3 04 b5 3c d9 16 d1 bc 05 aa 6e 3c f3 04 b5 3c
       0.022097087 -0.02552359 0.014566903 0.022097087
0000e0 f3 04 b5 3c c7 0d 7c bd b8 29 01 3c 45 56 9a 3c
       0.022097087 -0.061536577 0.007883482 0.018839965
0000f0 6e 76 e5 3c 13 2d db bc bb 62 ac 3c f3 04 b5 3c
       0.028010573 -0.026754891 0.021043172 0.022097087
000100 71 a6 ad bc d6 5c 75 bd 78 78 88 3c 92 8a 28 3d
       -0.02119753 -0.05990299 0.016659006 0.041147776
000110 f3 04 b5 3c 5e ea c4 bc f0 62 07 3e 6d 73 5f 3c
       0.022097087 -0.024037536 0.13221335 0.0136383595
000120 f3 04 b5 3c 24 12 8b 3b 27 c2 23 3d a2 cb db bb
       0.022097087 0.004244106 0.03998008 -0.0067076245
000130 d7 c2 36 b9 26 62 b0 bc 80 9c 0d 3c 49 c7 d1 bb
       -0.00017429456 -0.021531176 0.00864327 -0.0064019305
000140 74 3b d9 3c 7f 00 98 bb b5 a0 75 3d b7 ce c6 3a
       0.026517607 -0.004638731 0.059967715 0.0015167807
000150 9e a0 d3 3c f3 04 b5 3c 1c 96 47 bd 1c 4f 1a 3d
       0.025833424 0.022097087 -0.04872714 0.0376731
000160 f3 04 b5 3c 7c cb e7 bb 92 63 ca 3c 5d 4b 51 bd
       0.022097087 -0.007073818 0.024705682 -0.051097263
000170 6c 25 02 3e 7a 80 94 bc 1c 8d 35 3d c9 35 e6 3c
       0.12709588 -0.018127669 0.044324026 0.028101819
000180 e2 87 38 bd d2 4e f6 3b 50 7b 3e bb f3 04 b5 3c
       -0.045051463 0.0075167203 -0.00290652 0.022097087
000190 2e ac fb bc c8 56 59 3d aa b4 1e bc 2e 2d 82 3c
       -0.03072175 0.053061277 -0.009686628 0.015890684
0001a0 f3 04 b5 3c 9d 2c 86 bc f3 04 b5 3c 9c 59 f5 3c
       0.022097087 -0.016378695 0.022097087 0.029949956
0001b0 f3 04 b5 3c 5b c9 8f ba 09 92 96 3c ea 47 e9 bb
       0.022097087 -0.0010970043 0.018380182 -0.0071191685
0001c0 09 09 e7 bc ce 71 dd 3c 55 56 04 bb f9 c5 e9 bc
       -0.02820255 0.027031805 -0.002019306 -0.028536784
0001d0 be f5 8c bb 9e 79 d3 3c 89 6a 53 3c 04 6e ad 3c
       -0.0043017557 0.025814828 0.012903818 0.021170624
0001e0 f3 04 b5 3c f3 04 b5 3c 58 37 e6 3c b6 9a 3d 3d
       0.022097087 0.022097087 0.028102562 0.046290122
0001f0 f3 04 b5 3c 13 e0 c8 3c 12 8b 0d bc f3 04 b5 3c
       0.022097087 0.02452091 -0.008639114 0.022097087
000200 f3 04 b5 3c cd 06 d9 bd 2d e5 09 3d 2b 33 40 bd
       0.022097087 -0.10597 0.033665825 -0.046923798
000210 bb 9e 00 3d 74 88 a9 3b be 8d 80 3d 93 d2 83 3c
       0.031401377 0.005173737 0.06277035 0.01609162
000220 1f 24 83 3c f3 04 b5 3c 9e 8d e0 3d f3 04 b5 3c
       0.016008435 0.022097087 0.10964511 0.022097087
000230 df 6e a0 3c 12 08 98 3c e7 f7 87 bc f7 7d 2d bd
       0.019584117 0.018558536 -0.016597701 -0.042356458
000240 94 0b 84 3b 94 b7 f0 3c f3 04 b5 3c fe 57 3f bd
       0.0040297005 0.029384412 0.022097087 -0.046714775
000250 e2 65 f7 3c 42 8b 51 3c 15 2e 11 bd f3 04 b5 3c
       0.030199949 0.012789549 -0.035444338 0.022097087
000260 64 75 e8 bc 7b 1b eb 3d 8d 43 74 3c f3 04 b5 3c
       -0.028376289 0.11479851 0.0149086835 0.022097087
000270 ef e8 7b 3c 13 90 04 3d 61 dc 0c bd c8 e3 09 3d
       0.01537536 0.032363962 -0.034389857 0.033664495
000280 f3 04 b5 3c f3 04 b5 3c 23 1f c0 3d a5 01 c0 3c
       0.022097087 0.022097087 0.09380939 0.023438284
000290 f1 79 72 bd c3 78 0b bc a3 44 c1 bc 3e 9e 9d 3c
       -0.059198324 -0.008512679 -0.023592299 0.019240495
0002a0 b0 23 38 3a f3 04 b5 3c 85 8d 56 bc f3 04 b5 3c
       0.0007024361 0.022097087 -0.013095264 0.022097087
0002b0 59 df ed bb 46 2e ba 3c 33 65 9e bc c9 92 32 3c
       -0.007259291 0.022727143 -0.019335365 0.010899254
0002c0 9d 62 c4 bc 13 9b cf bd d5 19 a8 bc f3 04 b5 3c
       -0.023972804 -0.10137 -0.02052013 0.022097087
0002d0 f3 04 b5 3c 7d 9a 7b bd e8 a8 fb 3c f3 04 b5 3c
       0.022097087 -0.06142663 0.03072019 0.022097087
0002e0 f3 04 b5 3c 6d 63 75 3d d1 aa cb 3c 93 5a 8e 3c
       0.022097087 0.059909273 0.024861725 0.017377174
0002f0 0c d5 19 3d 8b 0f aa 3c f3 04 b5 3c f3 04 b5 3c
       0.037556693 0.020759365 0.022097087 0.022097087
000300 14 43 85 bd 79 c2 31 3d 98 b0 b0 3d df e0 c4 bc
       -0.06506935 0.043398354 0.086274326 -0.024033008
000310 f3 04 b5 3c de ef 8e 3d a4 ee 4a bd 20 3b eb 3c
       0.022097087 0.06979345 -0.04954399 0.028714716
000320 f3 04 b5 3c a0 24 95 3c cf 5d 94 3b 9f ae 47 3c
       0.022097087 0.01820594 0.0045277844 0.012187629
000330 62 b9 00 bd 46 18 21 3c 1a 9c 78 bd 4d 82 e1 3c
       -0.031426795 0.009832447 -0.060695745 0.027527953
000340 f3 04 b5 3c c6 e0 e8 bb f8 e4 87 3d 7e de b5 bc
       0.022097087 -0.007106873 0.06635469 -0.02220082
000350 22 aa 77 3c f3 04 b5 3c 21 b4 cb bc 9c 19 c1 3c
       0.015116246 0.022097087 -0.024866166 0.023571782
000360 f3 04 b5 3c ae 79 ff 3d aa 3a d7 3c d2 89 59 3d
       0.022097087 0.124743804 0.02627309 0.05310995
000370 d8 7c 8a 3b 99 ac 6a 3e 6e 58 16 3d d2 d2 83 3c
       0.0042263083 0.22917403 0.036705427 0.016091738
000380 62 39 93 bd eb 9c 43 3c 0a 56 a3 bd f3 04 b5 3c
       -0.07188679 0.011939268 -0.07975395 0.022097087
000390 80 07 b2 3a 5e f3 1e bc 0f 43 98 3d f3 04 b5 3c
       0.0013582557 -0.009701578 0.074346654 0.022097087
0003a0 f3 04 b5 3c 40 40 7e 3d f3 04 b5 3c 4c 35 da bc
       0.022097087 0.062072992 0.022097087 -0.026636742
0003b0 f3 04 b5 3c a2 77 1f 3d f3 04 b5 3c af 57 b0 bb
       0.022097087 0.03893245 0.022097087 -0.0053815464
0003c0 42 73 0a 3c 3f 72 77 3c 0e 24 20 39 f7 02 54 3c
       0.008450331 0.015102922 0.0001527222 0.01294016
0003d0 17 25 42 bd 46 92 99 3d 2e 40 d5 3c 6b 05 f6 3c
       -0.047398653 0.074986026 0.02603158 0.03003188
0003e0 f3 04 b5 3c f3 04 b5 3c f3 04 b5 3c b7 68 2a 3d
       0.022097087 0.022097087 0.022097087 0.04160377
0003f0 f3 04 b5 3c 85 9e 1b ba 2f 75 12 be f3 04 b5 3c
       0.022097087 -0.0005936402 -0.14302514 0.022097087

Q.4.bias_mu f4 [4]
000000 cb 5c 63 3e 38 0a 8f bc fb 7d 5c 3d 43 62 4b 3f
       0.22203366 -0.017460927 0.05383108 0.7944681

Q.4.bias_sigma f4 [4]
000000 90 40 e7 3a f9 f5 da bc ac 3b 80 3e 6b 50 65 3c
       0.0017643142 -0.026728617 0.25045526 0.013996224

Q.4.weight_epsilon f4 [4, 128]
000000 d7 60 db bf 3b 50 fb be 31 fa 7d bf 74 ad 47 3f
       -1.7138928 -0.49084648 -0.99209887 0.77999043
000010 60 5f a1 bf 64 62 2f 3f ac 3a 42 bf 04 34 5f bf
       -1.2607231 0.6850951 -0.75870776 -0.87188745
000020 01 6e ea be f3 dd 51 bf 3d 45 3f 3f 71 58 b7 3f
       -0.4578705 -0.8197929 0.74715024 1.4323865
000030 ce b0 9e 3f b4 ac a9 bf 7d e4 43 3f d3 db 99 be
       1.2397707 -1.325583 0.7652052 -0.30050525
000040 46 1f 3f bf c2 60 b4 3f b7 8b 05 3f 33 98 5c bf
       -0.74657094 1.4092028 0.5216631 -0.8616974
000050 9d 91 e1 be b5 6e 47 bf c1 e9 b3 bf fc f5 c7 3e
       -0.44056407 -0.779033 -1.4055711 0.3905486
000060 cf 52 4e 3f b6 ed 57 bf c5 7f 93 3f be c7 88 3e
       0.80595106 -0.84347093 1.1523367 0.2671489
000070 60 99 85 3f 68 1a d5 3e fd 51 86 3f 77 93 90 3f
       1.0437431 0.4162171 1.0493771 1.1295003
000080 ec d5 7c bf 16 05 77 bf 51 5e f2 be ed f0 ea bf
       -0.9876392 -0.96492136 -0.47337583 -1.8354775
000090 90 3f 65 3f 6e 91 c8 3f e0 ee 83 bf 95 b6 c0 bf
       0.89550114 1.5669382 -1.0307274 -1.505572
0000a0 d9 32 90 bf 6d 04 06 3f 6d c2 85 bf 5b 4a 2c 3f
       -1.1265517 0.52350503 -1.0449959 0.6730096
0000b0 ec 05 25 3f cd b6 10 3f a5 f8 4a bf a3 55 84 3f
       0.6446216 0.5652893 -0.7928565 1.0338634
0000c0 65 fa 90 bf 6f ad 70 be 76 d6 02 bf dc c3 98 3f
       -1.1326414 -0.2350366 -0.5110849 1.1934772
0000d0 bf 90 f0 bf 28 06 7d 3f 77 ba 06 bf df 9a 8a bf
       -1.8794173 0.9883752 -0.5262827 -1.0828513
0000e0 bc be b4 3e 81 3f 5a 3f c1 9e 44 bf aa b8 c2 bf
       0.3530177 0.8525315 -0.7680474 -1.5212605
0000f0 b6 33 96 3f c0 5e be 3f 68 f2 67 3f ac 7d 4a bf
       1.1734531 1.4872665 0.9060426 -0.7909801
000100 84 4d c8 bf 54 fd 17 bf 33 bd d2 3e d5 79 35 3f
       -1.5648656 -0.59370923 0.41159973 0.70889026
000110 e2 6e 1b bf c4 86 9b bf cc 7e 44 3f 48 0a 8a 3f
       -0.6071607 -1.2150502 0.76755977 1.0784388
000120 91 bf d8 3e 47 e6 f2 bf fc e2 ae bf 17 30 11 3f
       0.42333654 -1.8976525 -1.366302 0.56714004
000130 40 ab 6d 3f 87 32 a8 3f 5b 51 85 bf 89 9a bf 3f
       0.9283943 1.314042 -1.0415453 1.4969035
000140 eb 7c 94 bf fb 6d 31 bf 60 b5 0a 3f 6f a5 64 bf
       -1.1600622 -0.6930844 0.54183006 -0.8931493
000150 64 bc 83 3f 06 0d e8 be 39 fa 97 bf de 88 2a bd
       1.0291867 -0.45322436 -1.1873237 -0.041634433
000160 46 22 37 bf 32 03 cf be de 94 41 3f c3 2e 48 3f
       -0.7153667 -0.40432125 0.7561778 0.7819635
000170 46 3e 69 3f 3f 83 ed bf de 95 88 3f 24 5d a6 bf
       0.91110647 -1.8555678 1.0670736 -1.2997174
000180 30 f0 85 3f 91 16 1d bf 88 2d d6 3e 72 f2 06 3f
       1.0463924 -0.6136256 0.41831613 0.5271369
000190 92 03 9f 3f 62 95 a2 bf c8 de 47 bf 9f 04 0a 3f
       1.2422965 -1.2701838 -0.7807431 0.539133
0001a0 26 8d 9e 3f f3 9f 8b be 1f 07 86 bf e6 03 a8 3f
       1.2386825 -0.2727047 -1.0470923 1.312619
0001b0 99 6d 92 bf 4b 16 30 3f 3b f1 65 bf 1b 06 8c 3f
       -1.1439697 0.68784016 -0.89821213 1.0939363
0001c0 0e 1c be bf 91 42 73 3f 20 c8 8f bf 16 3d e0 3e
       -1.4852312 0.9502345 -1.1232948 0.43796605
0001d0 c5 09 d0 bf 03 25 06 3f 0b 6b ab be 2d d6 24 3f
       -1.6252981 0.52400225 -0.33480105 0.64389306
0001e0 a9 c6 02 3f c5 1d 12 3f e7 36 cc bf a3 d4 28 3f
       0.5108438 0.57076675 -1.5954255 0.6594946
0001f0 10 94 87 3e e3 43 ad bf ff 74 8d 3e 6e c2 c5 3e
       0.2648015 -1.3536342 0.27628323 0.386249
000200 c8 ca fe bf f4 f0 11 bf fa 7c 93 bf 3f e9 67 3f
       -1.9905634 -0.5700829 -1.1522515 0.9059028
000210 32 6c bb bf 41 b2 4b 3f 50 95 61 bf 03 9e 81 bf
       -1.4642394 0.7956887 -0.8811846 -1.0126346
000220 fa 22 08 bf d4 be 73 bf 9b 25 5e 3f 4e f1 d4 3f
       -0.5317837 -0.95213056 0.8677613 1.663614
000230 cb 4e b8 3f 9c 10 c5 bf de 83 63 3f 21 b2 b2 be
       1.4399046 -1.5395694 0.8887309 -0.34901527
000240 83 f9 5d bf fc 7e d1 3f 93 1a 1b 3f 33 1a 80 bf
       -0.8670885 1.6366878 0.60587424 -1.0007995
000250 b1 fd 02 bf 5f a0 67 bf c5 f4 d0 bf 7d 3d e8 3e
       -0.5116835 -0.9047908 -1.6324698 0.45359412
000260 40 a1 6f 3f 17 c9 7a bf 42 4f ab 3f 45 dc 9e 3e
       0.9360542 -0.9796309 1.3383563 0.31027427
000270 71 2a 9b 3f 06 81 f7 3e db 00 9c 3f 28 ea a7 3f
       1.2122327 0.48340625 1.2187761 1.3118334
000280 41 d3 92 bf aa 72 8f bf 2b bf 0c bf 01 6f 08 c0
       -1.147072 -1.1206868 -0.549792 -2.1317751
000290 b1 20 85 3f 07 f2 e8 3f 17 3b 99 bf 92 d2 df bf
       1.0400602 1.8198861 -1.1971158 -1.7486136
0002a0 f1 79 a7 bf c6 a6 1b 3f 1e 5a 9b bf 5d 1a 48 3f
       -1.3084089 0.6080135 -1.2136877 0.7816523
0002b0 9a a9 3f 3f 32 13 28 3f 8e bc 6b bf 71 b2 99 3f
       0.74868166 0.6565429 -0.92084587 1.2007581
0002c0 b4 61 a8 bf ca c3 8b be 69 f5 17 bf f8 6c b1 3f
       -1.3154817 -0.27297813 -0.5935884 1.386138
0002d0 21 b3 0b c0 44 ef 92 3f 32 7a 1c bf ce fa a0 bf
       -2.1828082 1.1479268 -0.61123955 -1.257654
0002e0 22 ec d1 3e bd 7a 7d 3f 33 5c 64 bf a4 27 e2 bf
       0.41000468 0.9901541 -0.89203185 -1.7668347
0002f0 e7 72 ae 3f e9 19 dd 3f e0 b1 86 3f bb 2d 6b bf
       1.3628815 1.7273532 1.0523033 -0.91866654
000300 26 a3 e8 bf 64 86 30 bf 1e c2 f4 3e 6f c5 52 3f
       -1.8174789 -0.68955064 0.4780435 0.8233251
000310 40 86 34 bf fe a1 b4 bf 16 37 64 3f df 52 a0 3f
       -0.7051735 -1.4111936 0.89146554 1.252529
000320 d2 bc fb 3e 20 0e 0d c0 48 1e cb bf 10 a0 28 3f
       0.49167496 -2.2039871 -1.5868616 0.65869236
000330 88 04 8a 3f 63 59 c3 3f cb d6 9a bf ac 88 de 3f
       1.0782633 1.5261654 -1.20968 1.7385459
000340 46 75 ac bf 5d 12 4e bf 97 19 21 3f 30 c7 84 bf
       -1.3473289 -0.8049677 0.6292967 -1.0373287
000350 75 00 99 3f 55 c1 06 bf c8 82 b0 bf 51 10 46 bd
       1.1953264 -0.5263875 -1.3789911 -0.048355404
000360 64 b2 54 bf 1c 6e f0 be be d4 60 3f 6f 7f 68 3f
       -0.830847 -0.46959007 0.8782462 0.9081945
000370 99 72 87 3f 4d ed 09 c0 57 a2 9e 3f 3a 38 c1 bf
       1.0581847 -2.1551087 1.2393292 -1.5095284
000380 44 8f 9b 3f 54 72 36 bf 90 c0 f8 3e 37 bb 1c 3f
       1.2153096 -0.712682 0.48584414 0.6122317
000390 eb ae b8 3f 3e d4 bc bf 8a 22 68 bf 4d 4c 20 3f
       1.4428381 -1.4752271 -0.906777 0.62616426
0003a0 61 25 b8 3f 08 2a a2 be e7 a9 9b bf 3b 23 c3 3f
       1.4386407 -0.31672692 -1.2161225 1.5245126
0003b0 d4 10 aa bf 33 83 4c 3f de 87 85 bf ad a0 a2 3f
       -1.3286386 0.79887694 -1.0432088 1.2705284
0003c0 73 cc dc bf b7 43 8d 3f ff fd a6 bf f1 37 02 3f
       -1.7249893 1.103629 -1.3046263 0.5086661
0003d0 12 9f f1 bf 9e cc 1b 3f 01 17 c7 be 26 72 3f 3f
       -1.887667 0.60859096 -0.38884738 0.7478355
0003e0 0f e3 17 3f 1d b4 29 3f 30 2e ed bf aa 15 44 3f
       0.5933084 0.66290456 -1.852972 0.76595557
0003f0 eb 76 9d 3e 2d 3c c9 bf cb 4a a4 3e f6 ae e5 3e
       0.3075479 -1.5721489 0.32088313 0.44860047

Q.4.bias_epsilon f4 [4]
000000 74 db 8a 3f d0 45 a1 3f 8b b8 77 3f 03 f9 33 bf
       1.0848222 1.259943 0.96765965 -0.70301837
