model_w/DDQA_1/model_0.pth (torch, 71880 bytes, 6 tensors)

fc1.weight f4 [128, 2]
0.40499383 -0.53236586 0.015168369 0.24182326 -0.12594193 -0.704114 -0.24518812 0.05440128
0.6739196 -0.15413433 0.044219792 -0.19184226 -0.53346384 -0.50900686 0.14101517 0.5765632
-0.10302222 -0.37849244 0.0051449537 0.15096259 0.36732334 -0.12776732 -0.24361417 -0.5105901
-0.48904717 0.5099066 -0.42644754 0.34092814 -0.41120303 -0.039662898 -0.48633534 -0.23200214
0.64089245 0.4957413 -0.69689965 0.14087903 0.49712926 0.39184827 0.018987 0.014733434
0.490233 0.09962636 -0.10413194 -0.389141 0.26838195 -0.1577797 0.22669786 0.44711572
0.01882422 0.29416662 -0.23734659 0.22441435 -0.07710159 0.583121 -0.5293587 0.2035535
0.30380994 0.21233773 0.2731191 0.6023957 -0.2932049 0.65152925 -0.20769048 0.32915205
-0.20885676 0.40182918 0.58636874 0.14697295 -0.42747787 0.17143983 -0.1979034 -0.3354584
-0.009129345 0.6212695 -0.100872636 -0.27312347 0.23233408 0.26836205 -0.48464686 0.25457853
-0.1318683 -0.15518713 0.25860757 -0.33524403 0.22786456 0.35576993 0.6914583 -0.69491696
-0.04847908 0.17006463 -0.5234456 -0.6655594 -0.23012406 -0.4790526 0.008655727 0.33469516
-0.24618042 -0.15005922 -0.065243006 -0.40998018 0.15761477 -0.48267928 -0.6052708 -0.15292877
0.4137892 -0.075708866 -0.07117844 -0.0015901327 0.27949852 -0.21450976 -0.088526785 -0.2110833
0.40418142 0.48292512 -0.6644369 0.53934044 0.61332875 0.2664668 0.40727788 0.15073806
-0.049206078 0.17853189 -0.35375223 0.08390719 -0.69578207 -0.28535026 0.49843115 -0.28141207
0.48543555 -0.14903116 -0.34756044 -0.30579418 0.6590299 0.15295511 0.45942086 0.5379049
0.40541083 -0.15645945 -0.6626733 -0.22702146 0.25603855 0.40521175 0.3005256 0.2989772
0.6099312 0.6165977 0.25105405 -0.2425766 -0.25257358 0.09297705 0.46845704 0.20150018
0.6990209 -0.22963947 0.6031671 0.043017864 -0.6733881 0.6043971 0.5418437 0.54362625
-0.07245618 -0.41080102 -0.3488477 -0.5468331 0.3930902 0.24651986 0.13330013 0.12118906
-0.5905989 0.49764603 -0.62936187 -0.39111692 -0.52757335 -0.1950649 -0.66009694 -0.11466253
-0.5598536 0.37814635 0.60102683 -0.53453684 -0.5199295 0.56729096 0.21235931 -0.68901306
0.46700865 0.08776009 -0.36486578 -0.5497521 -0.29170677 0.1609084 -0.13988149 -0.17198491
0.5140446 -0.1703924 0.5270509 0.0338704 0.43926054 0.5374542 -0.612041 -0.22583807
-0.18430316 -0.4451288 -0.32252488 -0.65137565 -0.5161894 0.29204488 0.014627993 -0.6156632
-0.19850165 -0.37818393 0.29841942 0.02623111 -0.2958353 0.033382475 0.38787812 -0.30718175
0.25642258 -0.075876534 0.62816685 -0.06238973 0.3033231 -0.322922 -0.33191493 -0.24155065
-0.15581572 0.250678 0.2538225 -0.6936093 -0.51173985 0.61731476 -0.31998375 0.21030962
0.360308 0.51963335 0.16594851 0.1980837 -0.31362835 0.5667369 -0.3558337 -0.006532252
-0.57776946 0.09288609 0.36043602 -0.6337531 -0.2746372 0.68497115 -0.2843679 0.16704303
0.03711039 0.56299525 -0.106101036 0.20217127 0.3256269 -0.059884965 0.40064043 -0.2578051
00000000: 5a5b cf3e 2149 08bf c084 783c 84a0 773e
00000010: ecf6 00be d140 34bf 9812 7bbe e0d3 5e3d
00000020: ff85 2c3f 64d5 1dbe d01f 353d 4c72 44be
00000030: 1691 08bf 464e 02bf 4866 103e a599 133f
00000040: 50fd d2bd c3c9 c1be 0097 a83b f095 1a3e
00000050: ce11 bc3e 70d5 02be fe75 79be 08b6 02bf
00000060: 6464 fabe 3d89 023f 5557 dabe 228e ae3e
00000070: 3489 d2be 9075 22bd f200 f9be f891 6dbe
00000080: 8711 243f ced1 fd3e 0468 32bf 9842 103e
00000090: ba87 fe3e 56a0 c83e a08a 9b3c 8064 713c
000000a0: d2ff fa3e e808 cc3d 2043 d5bd 7d3d c7be
000000b0: 5c69 893e 0091 21be 7c23 683e 5aec e43e
000000c0: 4035 9a3c 029d 963e fc0a 73be e0cc 653e
000000d0: 70e7 9dbd 6b47 153f 0d84 07bf 5470 503e
000000e0: fa8c 9b3e 106f 593e 44d6 8b3e 9b36 1a3f
000000f0: f41e 96be 9fca 263f d0ac 54be 9e86 a83e
00000100: 8cde 55be 8ebc cd3e 431c 163f 1480 163e
00000110: 61de dabe ec8d 2f3e 30a7 4abe 34c1 abbe
00000120: 4093 15bc 850b 1f3f 5096 cebd d7d6 8bbe
00000130: fce8 6d3e c066 893e a223 f8be 1e58 823e
00000140: 7c08 07be 60e9 1ebe 3668 843e 1ba5 abbe
00000150: 5455 693e 7a27 b63e 6903 313f 14e6 31bf
00000160: 0092 46bd 6c25 2e3e 8800 06bf 1a62 2abf
00000170: a4a5 6bbe 6246 f5be c0d0 0d3c 2a5d ab3e
00000180: b816 7cbe 20a9 19be 209e 85bd ece8 d1be
00000190: c465 213e bd21 f7be 07f3 1abf 5c99 1cbe
000001a0: 2edc d33e 400d 9bbd 00c6 91bd 006c d0ba
000001b0: 6e1a 8f3e 72a8 5bbe 884d b5bd 3826 58be
000001c0: def0 ce3e f641 f73e 8918 2abf 3712 0a3f
000001d0: 1d03 1d3f 566e 883e ba86 d03e 145b 1a3e
000001e0: 508c 49bd 10d1 363e 031f b5be 88d7 ab3d
000001f0: c61e 32bf 6e19 92be 5e32 ff3e 3e15 90be
00000200: 028b f83e a09b 18be 71f3 b1be 0e91 9cbe
00000210: 2fb6 283f 44a0 1c3e 3639 eb3e 23b4 093f
00000220: 0292 cf3e e836 20be f5a4 29bf 5078 68be
00000230: 7c17 833e ea77 cf3e 7ede 993e 8a13 993e
00000240: 7324 1c3f 59d9 1d3f 288a 803e 0066 78be
00000250: 5351 81be c06a be3d 9ad9 ef3e 1056 4e3e
00000260: 09f3 323f 9c26 6bbe 2969 1a3f 8033 303d
00000270: 2a63 2cbf c5b9 1a3f 45b6 0a3f 172b 0b3f
00000280: e863 94bd 8354 d2be 2a9c b2be 41fd 0bbf
00000290: 1e43 c93e b46f 7c3e d47f 083e f831 f83d
000002a0: 7d31 17bf 76cb fe3e dc1d 21bf 7a40 c8be
000002b0: 0c0f 07bf 18bf 47be 1dfc 28bf 30d4 eabd
000002c0: 9152 0fbf 669c c13e e5dc 193f 68d7 08bf
000002d0: 1a1a 05bf fb39 113f b874 593e 2963 30bf
000002e0: c21b ef3e 90bb b33d b0cf babe 8ebc 0cbf
000002f0: 975a 95be 2cc5 243e 183d 0fbe d01c 30be
00000300: 6d98 033f 587b 2ebe cfec 063f b0bb 0a3d
00000310: c2e6 e03e 9996 093f b8ae 1cbf 1842 67be
00000320: f8b9 3cbe ece7 e3be fb21 a5be 8ec0 26bf
00000330: fd24 04bf e886 953e 40aa 6f3c 1a9c 1dbf
00000340: 0444 4bbe 53a1 c1be 6eca 983e a0e2 d63c
00000350: b977 97be 10bc 083d f697 c63e ed46 9dbe
00000360: d249 833e 2865 9bbd 8bcf 203f 608c 7fbd
00000370: 2a4d 9b3e 0856 a5be c1f0 a9be 0e59 77be
00000380: 288e 1fbe de58 803e 06f5 813e 6190 31bf
00000390: 6201 03bf 5708 1e3f e9d4 a3be 685b 573e
000003a0: 4a7a b83e b106 053f 68ee 293e 74d6 4a3e
000003b0: e593 a0be ab15 113f d62f b6be 800c d6bb
000003c0: b3e8 13bf 103b be3d 128b b83e a53d 22bf
000003d0: 3f9d 8cbe 455a 2f3f ab98 91be 540d 2b3e
000003e0: 1001 183d 7520 103f 804b d9bd fc05 4f3e
000003f0: 92b8 a63e f049 75bd be20 cd3e 08ff 83be

fc1.bias f4 [128]
-0.65589887 0.627654 -0.59506357 0.55890316 0.082157195 0.047314107 0.561542 -0.53661394
0.10098493 0.0069149733 0.62610763 0.118869424 0.012597024 0.19340843 -0.5653722 0.17399186
0.6454646 0.06963611 -0.14976555 -0.30053157 0.5798542 -0.05636835 -0.035698235 -0.3107316
-0.1910283 -0.24655104 -0.34565026 -0.49005866 0.19838166 0.21758461 -0.33770922 0.3861485
0.36756903 -0.14014411 0.07308227 -0.05325347 -0.2458997 -0.5591489 0.5771343 -0.5518428
0.3013293 -0.43562907 0.08389336 0.20423913 -0.5360389 -0.6016926 0.016460776 -0.5555455
-0.08797449 0.10232699 0.5382636 0.032060027 0.4076169 0.49623853 0.092372656 0.46878487
-0.54380584 0.5727574 -0.21461874 -0.21856368 0.056350827 0.54513127 -0.034276605 -0.62308776
-0.29510084 -0.4951747 0.6115739 -0.3118367 0.6496206 -0.3065502 -0.13200378 0.6938756
-0.6401603 -0.6801748 -0.50804865 -0.68136895 -0.62616694 -0.6751056 0.6770156 -0.51704276
0.60597724 0.21462387 0.29590744 -0.18047178 -0.46851853 -0.19841892 0.18892491 -0.37654695
0.14296061 -0.5635575 -0.47853523 -0.053165317 -0.12506717 0.5272582 0.61063224 0.1571902
-0.18422073 0.5614622 0.38497669 0.6688358 -0.63865256 -0.52204895 -0.3826418 0.17284054
-0.1623382 -0.25386184 0.62063915 -0.35912746 -0.11647165 0.12565774 -0.15250415 -0.5296174
0.6749738 0.02790457 0.35099226 -0.0072095394 0.18738174 -0.6563845 0.5677598 -0.45685616
-0.49195898 0.36393827 -0.60085976 -0.21927732 0.0708158 0.15651906 0.37174004 -0.030554533
00000000: fde8 27bf efad 203f 1656 18bf 4714 0f3f
00000010: 0842 a83d 70cc 413d 37c1 0f3f 885f 09bf
00000020: 30d1 ce3d 0097 e23b 9748 203f d071 f33d
00000030: c063 4e3c dc0c 463e 3cbc 10bf ec2a 323e
00000040: 2b3d 253f 609d 8e3d 245c 19be 46df 99be
00000050: 5371 143f 80e2 66bd 5038 12bd 3618 9fbe
00000060: ec9c 43be e077 7cbe 12f9 b0be f8e8 fabe
00000070: 9024 4b3e 80ce 5e3e 39e8 acbe 42b5 c53e
00000080: 0232 bc3e f081 0fbe 28ac 953d 5020 5abd
00000090: 22cd 7bbe 6224 0fbf 13bf 133f 9245 0dbf
000000a0: d647 9a3e c60a dfbe 48d0 ab3d 1024 513e
000000b0: d839 09bf 8708 1abf c0d8 863c 3b38 0ebf
000000c0: f82b b4bd d090 d13d a5cb 093f 6051 033d
000000d0: 2ab3 d03e fa12 fe3e e02d bd3d 9204 f03e
000000e0: dc36 0bbf 3ba0 123f 04c5 5bbe 28cf 5fbe
000000f0: 20d0 663d b98d 0b3f a065 0cbd ae82 1fbf
00000100: 7517 97be 8a87 fdbe 1b90 1c3f 0fa9 9fbe
00000110: 894d 263f 26f4 9cbe 002c 07be d5a1 313f
00000120: 8ce1 23bf f01f 2ebf 7a0f 02bf 326e 2ebf
00000130: 7a4c 20bf b8d3 2cbf e550 2d3f ea5c 04bf
00000140: 5321 1b3f 5cc6 5b3e 2e81 973e 98cd 38be
00000150: a9e1 efbe 542e 4bbe 8875 413e c3ca c0be
00000160: 4464 123e 4e45 10bf 9202 f5be e0c3 59bd
00000170: 9c11 00be 65fa 063f 6552 1c3f 78f6 203e
00000180: 5ca4 3cbe fdbb 0f3f aa1b c53e d338 2b3f
00000190: bc7e 23bf 00a5 05bf a0e9 c3be 1cfd 303e
000001a0: fc3b 26be 2efa 81be 35e2 1e3f 8edf b7be
000001b0: b088 eebd 6cac 003e 0c2a 1cbe 0295 07bf
000001c0: 15cb 2c3f 2098 e43c 42b5 b33e 003e ecbb
000001d0: 00e1 3f3e d108 28bf b558 113f 0de9 e9be
000001e0: 0ce2 fbbe 1e56 ba3e f2d1 19bf 3c8a 60be
000001f0: e007 913d 8846 203e b654 be3e 804d fabc

fc2.weight f4 [128, 128]
0.021392234 0.0507961 -0.027145278 -0.08759685 0.0032985508 0.021260157 0.043160267 0.033678062
0.024085544 0.05577465 -0.086123176 -0.018248565 -0.0019171312 0.08783417 -0.0359595 -0.08611564
0.055014573 -0.041923344 -0.07542643 -0.02083359 -0.07411958 0.019367762 0.07039974 -0.0633007
-0.0631233 -0.038491443 -0.058896143 0.040640183 0.06911389 -0.07680813 -0.03020063 0.030961446
0.029928543 0.01737938 -0.023107976 -0.039041035 -0.08192241 0.060156472 0.0432268 -0.0025498942
-0.08094298 -0.030445576 0.0068202466 0.052360736 0.022064433 0.048846714 0.06478403 0.0045075417
-0.026392978 -0.08689265 -0.010582328 0.064643525 -0.049540363 0.04533247 -0.02375523 -0.08213704
-0.08643843 -0.011729956 -0.03915482 -0.07274082 -0.0815056 -0.067811646 0.06665502 0.046848364
0.025838114 0.039188705 0.0114059895 0.041298993 -0.016615301 0.011910997 -0.08097942 -0.03531593
0.046036832 0.087963544 -0.08707529 0.06366322 -0.018289305 -0.062769726 0.041186698 -0.06690591
-0.06631151 -0.05841142 0.036761172 -0.055334967 0.030556485 0.039665528 0.024164319 -0.042248305
-0.056423523 0.0063475296 0.0058315247 -0.045512915 0.0078109056 -0.05948227 0.011933364 -0.0439271
-0.024109028 -0.036259778 -0.055370916 -0.072466634 0.03697682 -0.028461512 0.08670295 0.055196144
-0.011713229 0.047082476 0.024329819 0.08110707 -0.0109090805 0.082636856 -0.06342565 0.070817225
-0.058760367 0.074758925 -0.0038771704 0.01968705 -0.0017765537 -0.05183744 0.05207152 0.0063366443
-0.07748465 0.08200202 0.087639414 0.024580494 0.07423247 -0.07615164 -0.009079725 0.005529642
0.0588902 -0.07972434 -0.027889896 0.0248546 0.0145031735 0.08805048 -0.07517584 -0.03876903
-0.02093722 -0.062338084 0.05679392 -0.07204327 -0.02952883 -0.056773562 -0.08811049 0.004510574
-0.008611172 -0.013281845 0.0028585568 0.067351334 0.010111302 0.05667969 0.060541593 -0.06324048
0.07512566 0.04781661 0.058635734 -0.032466274 0.05870656 0.04236012 0.044537492 0.038101025
0.08499283 0.015678689 -0.07030346 -0.036369126 0.013217293 -0.031994566 0.014221251 0.06266973
-0.04311454 0.04005944 -0.00016463548 0.06436474 0.062396444 -0.06405934 -0.08370096 -0.017701477
-0.003022939 0.053066663 0.055537663 0.06274714 -0.0067964196 -0.01646141 -0.026880637 -0.029459793
0.0707699 0.044304647 -0.057833165 -0.0347368 0.040603302 -0.008052543 -0.03600584 -0.079986975
-0.07931301 0.047069035 0.042261057 -0.027803402 0.045341037 0.033405937 -0.074714296 -0.07367834
-0.076307185 0.047247536 -0.08166113 -0.0179369 -0.018828407 0.06667756 0.0030574724 -0.048132952
-0.076042384 -0.050729115 -0.07970666 0.055765964 -0.07378116 0.0020745024 0.070701174 -0.04212077
0.0034875795 0.03047631 -0.024871483 0.079369806 -0.0039005652 -0.046645403 -0.06928541 0.043683775
0.021621384 -0.02721088 -0.043102413 -0.021676525 -0.031193882 0.030896947 0.06544436 -0.074579656
0.046043538 0.023723304 -0.0028725043 0.02478008 -0.04142147 -0.03111178 -0.027914733 -0.0023184642
-0.085338116 0.051458515 0.0683488 0.0874371 0.050318442 -0.074417554 0.035118848 -0.04563824
-0.08365126 -0.012581572 0.052794106 0.04083983 -0.062101044 -0.017949328 -0.070392124 0.066950224
00000000: c43e af3c 920f 503d c65f debc fa65 b3bd
00000010: 802c 583b c829 ae3c d2c8 303d 02f2 093d
00000020: 0c4f c53c f673 643d 5961 b0bd 047e 95bc
00000030: 4048 fbba 67e2 b33d 454a 13bd 665d b0bd
00000040: f656 613d d0b7 2bbd 2c79 9abd 34ab aabc
00000050: 02cc 97bd 24a9 9e3c bd2d 903d cca3 81bd
00000060: ca46 81bd 34a9 1dbd 153d 71bd 5276 263d
00000070: 958b 8d3d 954d 9dbd 5067 f7bc dca2 fd3c
00000080: b42c f53c 345f 8e3c f04c bdbc 7ee9 1fbd
00000090: f0c6 a7bd a266 763d 960e 313d 201c 27bb
000000a0: 6fc5 a5bd 0069 f9bc 607c df3b 3678 563d
000000b0: 78c0 b43c 7e13 483d 7dad 843d 00b4 933b
000000c0: 1636 d8bc c6f4 b1bd 8061 2dbc d363 843d
000000d0: d6ea 4abd 8aae 393d 549a c2bc 7737 a8bd
000000e0: a206 b1bd 002f 40bc ce60 20bd 24f9 94bd
000000f0: 68ec a6bd d5e0 8abd 6d82 883d 12e4 3f3d
00000100: 74aa d33c 5684 203d 30e0 3a3c 2229 293d
00000110: d01c 88bc 5826 433c 8ad8 a5bd 70a7 10bd
00000120: 1e91 3c3d 3b26 b43d 8854 b2bd dd61 823d
00000130: 74d3 95bc 6a8d 80bd 62b3 283d f705 89bd
00000140: 54ce 87bd d040 6fbd e292 163d eba6 62bd
00000150: 9851 fa3c 5278 223d 40f4 c53c 8f0c 2dbd
00000160: 5a1c 67bd f0fe cf3b 6016 bf3b c06b 3abd
00000170: a0f2 ff3b aea3 73bd 2884 433c e7ec 33bd
00000180: 4c80 c5bc 2285 14bd 9dcc 62bd 6369 94bd
00000190: 0275 173d 1e28 e9bc 5191 b13d 5a15 623d
000001a0: d8e8 3fbc 8ed9 403d 544f c73c 771b a63d
000001b0: 00bc 32bc 833d a93d 4fe5 81bd 9f08 913d
000001c0: b6ae 70bd 351b 993d 2018 7ebb bc46 a13c
000001d0: 40db e8ba 7f53 54bd f248 553d a0a3 cf3b
000001e0: 46b0 9ebd adf0 a73d 4b7c b33d 085d c93c
000001f0: 3107 983d 64f5 9bbd 20c3 14bc 0032 b53b
00000200: da36 713d 8446 a3bd 5a79 e4bc e09b cb3c
00000210: b89e 6d3c cf53 b43d caf5 99bd 46cc 1ebd
00000220: 8884 abbc 3856 7fbd bea0 683d 6c8b 93bd
00000230: 72e6 f1bc 658b 68bd 4673 b4bd 70cd 933b
00000240: e015 0dbc 189c 59bc a056 3b3b 7fef 893d
00000250: e0a9 253c f628 683d 76fa 773d 3a84 81bd
00000260: 7bdb 993d 5adb 433d 062c 703d 5bfb 04bd
00000270: 4a76 703d ce81 2d3d f26c 363d d20f 1c3d
00000280: b910 ae3d 9870 803c 43fb 8fbd cbf7 14bd
00000290: 588d 583c bc0c 03bd 4000 693c fd58 803d
000002a0: df98 30bd 5e15 243d 00a2 2cb9 a9d1 833d
000002b0: 6a93 7f3d 8b31 83bd 696b abbd b002 91bc
000002c0: 801c 46bb 6e5c 593d 767b 633d 9381 803d
000002d0: 80b4 debb 14da 86bc c834 dcbc aa55 f1bc
000002e0: cfef 903d ca78 353d 78e2 6cbd 2d48 0ebd
000002f0: a64f 263d d0ee 03bc dc7a 13bd 36d0 a3bd
00000300: dc6e a2bd 76cb 403d ee19 2d3d f6c3 e3bc
00000310: 86b7 393d aad4 083d cf03 99bd abe4 96bd
00000320: f146 9cbd a286 413d f33d a7bd 68f0 92bc
00000330: 083e 9abc 3f8e 883d e05f 483b 0f27 45bd
00000340: 1cbc 9bbd 55c9 4fbd 3f3d a3bd da6a 643d
00000350: 941a 97bd 60f4 073b c7cb 903d d486 2cbd
00000360: e08f 643b 74a9 f93c 48bf cbbc a38c a23d
00000370: a0a0 7fbb 400f 3fbd 82e5 8dbd c2ed 323d
00000380: 541f b13c 5ae9 debc 288c 30bd f892 b1bc
00000390: 508a ffbc 981b fd3c b107 863d 38bd 98bd
000003a0: 2698 3c3d 6057 c23c a040 3cbb 98ff ca3c
000003b0: 8fa9 29bd 22de febc 70ad e4bc 60f1 17bb
000003c0: c0c5 aebd 2ac6 523d 75fa 8b3d 3912 b33d
000003d0: b61a 4e3d 3b68 98bd c8d8 0f3d 2aef 3abd
000003e0: 5a51 abbd f022 4ebc a23e 583d aa47 273d
000003f0: aa5d 7ebd 780a 93bc bf29 90bd 331d 893d

fc2.bias f4 [128]
-0.012757942 -0.06641914 -0.061549023 -0.077205025 -0.04021867 -0.04912191 -0.024069093 0.015591212
0.0631159 0.018904105 0.0040055737 0.08459743 0.0134037435 0.08034266 0.029368348 -0.028400116
0.0636613 0.002836734 0.02118598 0.0035603642 -0.026721153 0.05124799 0.051354133 0.026319772
0.0827586 -0.0033180714 0.0061132237 0.07963409 -0.020793729 0.04018513 0.06563077 0.059445836
-0.088096194 0.03513115 -0.046690352 -0.08629861 -0.053144246 -0.003671147 0.078712784 -0.041140698
-0.05815008 0.036081664 0.004581839 -0.007849142 0.040072016 -0.073738776 0.037338056 0.009468861
-0.046362553 0.054878034 -0.068762206 0.038487338 -0.06569112 0.0345918 -0.02031169 0.01611352
-0.013789922 0.069073744 -0.06438906 -0.02886369 0.013411999 -0.057216432 0.017760321 -0.020690814
0.046060704 0.08463552 -0.0059160143 -0.041569214 -0.032975726 0.014363468 0.08418334 0.05170303
-0.062380064 0.004070282 0.087876625 0.06624051 0.07608815 -0.0014913157 0.043042548 0.07505029
-0.083381236 -0.037858997 0.038777895 0.081533976 0.06436174 0.06667716 -0.043314863 0.07049986
-0.08824411 -0.025301114 -0.05749484 -0.02373194 -0.0529869 -0.0064331964 0.0771829 0.06955039
-0.06022083 0.05755707 -0.08488377 0.0070744976 0.034440257 0.041465618 0.01802367 -0.059663657
-0.03036696 -0.071310245 -0.05423645 -0.07513994 0.015390456 -0.030889519 -0.0006216541 -0.007674806
0.005682558 0.002684772 0.014978781 0.03456468 -0.014505595 0.018250331 -0.08781144 -0.01626391
0.051153295 -0.08635932 -0.0750491 0.08194562 0.08213601 -0.079715446 -0.048514213 -0.004009627
00000000: b006 51bc c206 88bd d41a 7cbd ab1d 9ebd
00000010: 55bc 24bd 0e34 49bd 8c2c c5bc 4872 7f3c
00000020: e942 813d c8dc 9a3c 3041 833b 6b41 ad3d
00000030: 609b 5b3c b18a a43d e495 f03c 5ca7 e8bc
00000040: db60 823d 80e8 393b 388e ad3c 0055 693b
00000050: 52e6 dabc 6ae9 513d b658 523d 909c d73c
00000060: 577d a93d 0074 59bb 7051 c83b 3317 a33d
00000070: 9c57 aabc 2a99 243d 6d69 863d 7a7d 733d
00000080: c76b b4bd aee5 0f3d 623e 3fbd 53bd b0bd
00000090: c8ad 59bd a097 70bb 2b34 a13d 2683 28bd
000000a0: c72e 6ebd 5eca 133d 4023 963b b099 00bc
000000b0: 8e22 243d 5b04 97bd caef 183d 4823 1b3c
000000c0: a9e6 3dbd cac7 603d 33d3 8cbd e6a4 1d3d
000000d0: 1189 86bd 22b0 0d3d b464 a6bc 8000 843c
000000e0: 20ef 61bc 8976 8d3d 69de 83bd 8c73 ecbc
000000f0: 00be 5b3c c75b 6abd 187e 913c c87f a9bc
00000100: 26aa 3c3d 6355 ad3d 20db c1bb 7b44 2abd
00000110: 8e11 07bd c054 6b3c 5168 ac3d 8ec6 533d
00000120: 3d82 7fbd 0060 853b a9f8 b33d 1ba9 873d
00000130: 1bd4 9b3d 4078 c3ba 624d 303d f7b3 993d
00000140: c8c3 aabd 0912 1bbd 92d5 1e3d 49fb a63d
00000150: 17d0 833d 098e 883d ed6a 31bd 3b62 903d
00000160: 54b9 b4bd 4844 cfbc b67f 6bbd 7c69 c2bc
00000170: cb08 59bd 90cd d2bb 1112 9e3d 6f70 8e3d
00000180: 1eaa 76bd f6c0 6b3d 8bd7 adbd 30d1 e73b
00000190: 3a11 0d3d dad7 293d 60a6 933c e161 74bd
000001a0: 22c4 f8bc 1b0b 92bd 0a27 5ebd f8e2 99bd
000001b0: 4028 7c3c 040c fdbc 80f6 22ba f07c fbbb
000001c0: c034 ba3b 00f3 2f3b 9069 753c b293 0d3d
000001d0: e0a8 6dbc b881 953c 7cd6 b3bd e43b 85bc
000001e0: 1e86 513d 28dd b0bd 58b3 99bd 1bd3 a73d
000001f0: ed36 a83d da41 a3bd d7b6 46bd 3063 83bb

fc3.weight f4 [4, 128]
0.06654971 0.035177782 0.07422372 0.06635443 -0.027541775 -0.050995756 -0.07851706 -0.018043488
0.08531997 0.023366824 -0.04688779 -0.06419782 0.02760318 0.018987 0.054703973 0.06191107
0.033155344 0.054291375 -0.066250905 0.037445076 0.03340412 -0.029808402 -0.04891637 0.05759535
-0.07825591 0.04603196 0.033585243 0.02575916 -0.064052574 0.08252745 0.07186379 -0.08052272
-0.025656387 -0.078516714 0.05602648 -0.027781032 0.0833843 -0.052876476 0.0024831966 -0.03627011
-0.028225966 0.0015341565 0.065367974 -0.0764855 0.038627706 -0.046778258 -0.008190967 0.039581425
0.045558162 -0.07939583 -0.0044039115 0.068971194 0.036904164 0.0237898 -0.08242461 0.05963456
-0.086005904 0.027128167 0.06292837 -0.07000432 0.056467257 0.063714884 -0.05492496 0.07545147
0.016890697 -0.042829122 -0.07575014 -0.07635954 -0.06480506 -0.07785045 -0.059939455 -0.084264256
-0.07091789 -0.047467835 -0.011610359 -0.062841184 0.081711404 -0.079810135 -0.042155247 0.0057321414
-0.02129928 -0.023365833 -0.05283553 -0.08394946 0.034537412 -0.012173541 0.037620597 0.08026349
0.021154001 -0.07953087 -0.05807764 -0.05970199 -0.08269416 0.00701531 -0.03549324 0.03302802
0.0339635 0.013196558 -0.050575998 -0.06968922 -0.04361869 0.014990032 -0.040264253 -0.03441761
-0.084408484 -0.0864238 -0.039671056 -0.012350924 0.069265 -0.072357275 0.05658198 -0.05835118
0.06184665 0.020591713 -0.08797504 -0.011343032 -0.0473698 0.04993575 0.044777073 -0.053989533
-0.08341033 -0.05700279 -0.024520248 0.0058393404 -0.0052091926 0.037544645 -0.08782458 0.08104981
0.0828575 -0.0014231652 0.075357325 0.05287925 0.05003371 -0.08196189 0.062057726 0.023579031
-0.08819224 -0.0713493 0.06483138 -0.087941274 -0.043469258 -0.064053774 -0.032138046 -0.06971573
-0.05900661 -0.086076275 -0.077779196 -0.07241168 0.071808256 0.03870789 0.081451274 0.031230107
0.06498856 -0.060816005 -0.0640385 -0.021660611 -0.025757052 -0.083905 0.07095105 0.028070703
-0.03786222 0.0243707 0.014161222 0.047600098 0.043185227 -0.0027225688 0.05881732 -0.02538015
-0.07649756 0.0037485957 -0.037291996 -0.024405725 0.031411164 0.06064818 -0.061117228 -0.054266363
-0.08400927 0.084745266 -0.08735518 -0.06985586 0.04692938 -0.08601097 -0.086975254 0.05253505
0.04690527 -0.04852202 -0.07940733 0.076037906 0.06089803 0.035306066 -0.05835386 0.0030794293
0.046308212 0.06835189 -0.05882291 -0.053376593 0.00090540946 0.04523056 -0.032903466 -0.019715935
-0.0364501 -0.018310241 -0.081241295 -0.062483165 0.08480004 -0.022226147 -0.032158792 -0.056410614
0.019557409 -0.08355762 0.034760088 -0.08591794 0.054994352 0.04921975 -0.03509847 0.06068849
-0.078009516 0.0031307861 -0.03148439 -0.07716895 -0.04993648 0.015582174 0.054048754 0.006534897
-0.08454389 -0.033282753 -0.008503914 -0.06514469 -0.017058402 -0.034466524 0.0028720722 -0.055075426
0.014899746 -0.029446084 0.01525601 0.067490555 0.024331361 0.08516211 -0.040459298 -0.011425145
0.07699322 0.04677204 -0.023580179 0.0054264367 0.025573924 -0.062026232 0.006711222 0.04015837
-0.017327495 -0.024723932 0.08623 -0.035423763 0.008088857 0.0010346919 -0.06263253 -0.06434558
00000000: 374b 883d 9416 103d 9b02 983d d5e4 873d
00000010: 4a9f e1bc ede0 50bd 8dcd a0bd f0cf 93bc
00000020: 3dbc ae3d c86b bf3c 690d 40bd 267a 83bd
00000030: 1020 e23c a08a 9b3c 4611 603d 7696 7d3d
00000040: e6cd 073d a260 5e3d 8eae 87bd 0260 193d
00000050: c2d2 083d c030 f4bc 885c 48bd 1ae9 6b3d
00000060: a244 a0bd 028c 3c3d ae90 093d e004 d33c
00000070: ff2d 83bd 2704 a93d 532d 933d 19e9 a4bd
00000080: 582d d2bc 5fcd a0bd 067c 653d 0c95 e3bc
00000090: 63c5 aa3d 0195 58bd 20bd 223b f88f 14bd
000000a0: 243a e7bc c015 c93a a5df 853d 6ea4 9cbd
000000b0: 1638 1e3d 8f9a 3fbd 6833 06bc 2220 223d
000000c0: 329b 3a3d 489a a2bd b04e 90bb c540 8d3d
000000d0: d228 173d d4e2 c23c 3cce a8bd 5e43 743d
000000e0: dd23 b0bd e43b de3c 97e0 803d 6d5e 8fbd
000000f0: 364a 673d f37c 823d fff8 60bd 4d86 9a3d
00000100: 5c5e 8a3c 976d 2fbd e422 9bbd 6462 9cbd
00000110: 84b8 84bd 0f70 9fbd 1383 75bd bd92 acbd
00000120: 663d 91bd a26d 42bd 6039 3ebc e1b2 80bd
00000130: 4f58 a73d 7f73 a3bd fbaa 2cbd b0d4 bb3b
00000140: d47b aebc b469 bfbc 126a 58bd b2ed abbd
00000150: 1a77 0d3d 8873 47bc 0e18 1a3d 2f61 a43d
00000160: 284b ad3c 15e1 a2bd d2e2 6dbd 138a 74bd
00000170: 8e5b a9bd b0e0 e53b 5c61 11bd 6448 073d
00000180: 501d 0b3d 6036 583c c728 4fbd 39b9 8ebd
00000190: 83a9 32bd c098 753c 21ec 24bd 7bf9 0cbd
000001a0: 5bde acbd f6fe b0bd 1e7e 22bd 885b 4abc
000001b0: cfda 8d3d 0d30 94bd 82c2 673d a601 6fbd
000001c0: ea52 7d3d f4af a83c 422c b4bd 20d8 39bc
000001d0: d606 42bd 6e89 4c3d 2a68 373d 2124 5dbd
000001e0: 09d3 aabd c27b 69bd b0de c8bc f057 bf3b
000001f0: e0b1 aabb 6ac8 193d 60dd b3bd 71fd a53d
00000200: 31b1 a93d 8089 baba f154 9a3d ea97 583d
00000210: 26f0 4c3d a3db a7bd 3e30 7e3d d028 c13c
00000220: 229e b4bd 951f 92bd 51c6 843d 8e1a b4bd
00000230: d20c 32bd a02e 83bd 2fa3 03bd 1fc7 8ebd
00000240: eab0 71bd c248 b0bd b34a 9fbd 934c 94bd
00000250: 3510 933d 2a8c 1e3d edcf a63d 48d6 ff3c
00000260: b918 853d 341a 79bd 9e26 83bd 9871 b1bc
00000270: 7400 d3bc 62d6 abbd c94e 913d 88f4 e53c
00000280: 6a15 1bbd 10a5 c73c 7804 683c 52f8 423d
00000290: fee2 303d 206d 32bb 6eea 703d 08ea cfbc
000002a0: c1aa 9cbd 00ab 753b 7ebf 18bd 84ee c7bc
000002b0: fea8 003d 3a6a 783d 0f56 7abd 6846 5ebd
000002c0: 0d0d acbd ed8e ad3d 46e7 b2bd 9710 8fbd
000002d0: 0639 403d 8526 b0bd 1520 b2bd fe2e 573d
000002e0: be1f 403d 07bf 46bd 4fa0 a2bd c3b9 9b3d
000002f0: 3670 793d 189d 103d 7504 6fbd 40d0 493b
00000300: aead 3d3d 13fc 8b3d 4bf0 70bd 6aa1 5abd
00000310: 0059 6d3a ae43 393d c9c5 06bd 5083 a1bc
00000320: b34c 15bd 5cff 95bc d661 a6bd 59ee 7fbd
00000330: a5ab ad3d 9c13 b6bc f0b8 03bd d10e 67bd
00000340: dc36 a03c 4220 abbd 9860 0e3d bff5 afbd
00000350: c241 613d a69a 493d 6ac3 0fbd 7e94 783d
00000360: 74c3 9fbd e02d 4d3b c7f5 00bd c10a 9ebd
00000370: 328a 4cbd 604c 7f3c 3a62 5d3d b022 d63b
00000380: 5925 adbd 7f53 08bd 0054 0bbc 946a 85bd
00000390: 10be 8bbc c52c 0dbd 6039 3c3b c596 61bd
000003a0: 101e 743c ea38 f1bc 58f4 793c 7d38 8a3d
000003b0: 9052 c73c 7969 ae3d a6b8 25bd 8830 3bbc
000003c0: 9fae 9d3d 0a94 3f3d 382b c1bc 40d0 b13b
000003d0: 6880 d13c 380f 7ebd d0e9 db3b 1a7d 243d
000003e0: 64f2 8dbc d889 cabc 5b99 b03d 8218 11bd
000003f0: 2087 043c 809e 873a 7c45 80bd 9ec7 83bd

fc3.bias f4 [4]
-0.05162739 -0.08188789 0.00097577274 -0.07771602
00000000: 3e77 53bd d7b4 a7bd 00cb 7f3a 9429 9fbd
