model_w/DDQA_1/model_7999.pth (torch, 72230 bytes, 6 tensors)

fc1.weight f4 [128, 2]
000000 55 be de 3e de e4 5d be 5d f8 c0 bd 54 87 12 bc
       0.43504587 -0.21669337 -0.094223715 -0.008943398
000010 ec f6 00 be d1 40 34 bf 89 2f 1f bd 90 a3 4c 3d
       -0.12594193 -0.704114 -0.038863692 0.049960673
000020 fd 04 b6 bc 78 76 26 bf 2f 6d e4 bc 26 85 b5 be
       -0.022219175 -0.6502452 -0.027884094 -0.35453147
000030 b3 ed c3 be da ef cd be 4d 86 57 be 6e 57 1c 3d
       -0.38267288 -0.40222055 -0.21047325 0.038169317
000040 23 6f 21 be c3 c9 c1 be 82 55 c0 bd e8 2d 8e bc
       -0.15765052 -0.37849244 -0.09391309 -0.017355874
000050 05 ec 2f 3e 8d b4 f0 bd 9a 7e 99 be 08 b6 02 bf
       0.17179878 -0.11753187 -0.29979402 -0.5105901
000060 dd d5 55 bf 93 7b b3 bc dc fe 1c bf e2 24 88 be
       -0.83529454 -0.02190951 -0.61326385 -0.2659064
000070 34 89 d2 be 90 75 22 bd f2 00 f9 be d9 0e a4 be
       -0.41120303 -0.039662898 -0.48633534 -0.32042578
000080 25 c5 13 be f7 ee ab be 52 90 9f bf cc b8 7e bd
       -0.14430673 -0.33580753 -1.2465918 -0.062187955
000090 09 7a 6d 3d 48 7c 0b be 2f 59 ea bb 53 dd 3a bc
       0.05797771 -0.13621628 -0.007151745 -0.011405307
0000a0 c4 22 d1 3d d7 57 1b be 20 43 d5 bd 7d 3d c7 be
       0.10211709 -0.15170227 -0.10413194 -0.389141
0000b0 47 f6 f1 bc c8 6a 89 be c3 b2 9e be 3f 7b a1 3c
       -0.02953638 -0.2683928 -0.3099576 0.019712089
0000c0 9b ce 92 be 9c e2 25 3d 5d f3 97 be df 1a 02 3d
       -0.28673252 0.040499315 -0.2967786 0.031763908
0000d0 e4 0a 06 bf 79 94 cf 3c bb 71 6d be 9b a9 73 3e
       -0.5236037 0.025339352 -0.23187916 0.23795168
0000e0 cd 4b 8c bd 04 c2 bf be 3d 6f 83 be ff 0a a5 bd
       -0.06850395 -0.3745271 -0.25670806 -0.08058738
0000f0 58 1d 25 bf 8d dd 8d 3c b9 2b 0e bf f9 bd e7 be
       -0.644979 0.017317558 -0.55535465 -0.45262125
000100 d3 c1 15 bf 9c 9d ce be a4 85 ab 3c e9 1c 83 be
       -0.5849888 -0.4035462 0.020937748 -0.25607994
000110 dd 32 bf be 1b 30 3e be 30 a7 4a be 34 c1 ab be
       -0.37343493 -0.18573038 -0.1979034 -0.3354584
000120 60 c1 d9 be ea 82 95 3d 50 96 ce bd d7 d6 8b be
       -0.42530346 0.073003605 -0.100872636 -0.27312347
000130 e9 a9 7d bd d6 04 5c bd b4 92 8e bd 26 ac 57 3e
       -0.061929617 -0.05371555 -0.06961575 0.21061763
000140 79 81 98 bb 6e fa b4 bd 42 34 ab 3d d1 c6 c3 bd
       -0.004654106 -0.08836828 0.08359577 -0.095594056
000150 69 a5 73 bd cc 64 d7 bc 94 13 b8 bc 82 4e 4c bf
       -0.05948392 -0.02629318 -0.022470273 -0.79807293
000160 db 17 9f bd 50 11 67 3d 88 00 06 bf 1a 62 2a bf
       -0.07768222 0.056412995 -0.5234456 -0.6655594
000170 a4 a5 6b be 62 46 f5 be 11 88 7f be aa 9c 0d 3e
       -0.23012406 -0.4790526 -0.24954249 0.13829294
000180 b8 16 7c be 20 a9 19 be 77 71 93 bc 09 9e 03 bf
       -0.24618042 -0.15005922 -0.01799844 -0.5141302
000190 1b 5d 4b 3d 5b 96 03 be 07 f3 1a bf 1d ef 3a be
       0.04964934 -0.12850325 -0.6052708 -0.18255277
0001a0 aa 3a 0f bc 90 1e 1a bf 01 94 f4 3b d7 d2 19 3c
       -0.008742014 -0.60202885 0.0074639325 0.009388647
0001b0 5c f1 7d be 5f ce db be b6 25 4a 3d 21 49 63 3c
       -0.24799103 -0.42930886 0.04935237 0.013872416
0001c0 ea d1 6f bc e2 4e 2d 3c 9a 10 c1 be 32 7c 53 3e
       -0.01463745 0.010577889 -0.37707978 0.20652846
0001d0 34 c5 77 bb da cb 3c be ca a3 8b 3c dc b2 d7 be
       -0.0037806751 -0.18437138 0.017045874 -0.42128646
0001e0 d9 9c 6f bd 3e 8d 3c be c7 85 20 bf 0f c5 e7 be
       -0.05849919 -0.18413255 -0.6270413 -0.4526753
0001f0 c6 1e 32 bf 6e 19 92 be 81 cf 1b 3e 3d 8b 1d be
       -0.69578207 -0.28535026 0.15215875 -0.15385146
000200 6f ea 17 3e d6 b8 16 be 71 f3 b1 be 0e 91 9c be
       0.14835523 -0.14718947 -0.34756044 -0.30579418
000210 6f 3f 67 3e a8 00 fe bd 67 3b 48 3d 32 32 ad bd
       0.22582792 -0.12402469 0.048884775 -0.084568396
000220 f7 84 2c 3e bb d7 2a be f5 a4 29 bf 50 78 68 be
       0.16847597 -0.16683857 -0.6626733 -0.22702146
000230 ff 1a c2 be 30 44 43 3d d1 e1 b9 bc 1e 08 06 bd
       -0.3791122 0.04767245 -0.022690685 -0.032722585
000240 d6 3c 06 3d 6c 5e 31 3b ef 3c 36 3d 13 6f 46 be
       0.03277286 0.0027064336 0.044491705 -0.19378309
000250 f9 ba ae be 6f 55 44 3e f0 73 ef 3d 55 b8 95 be
       -0.34127024 0.19173215 0.11692035 -0.29242197
000260 7b ea 84 3e 44 6e 97 bd bb d8 f7 3d 6d 2a 2b be
       0.25960144 -0.073940784 0.12101885 -0.16715403
000270 32 9d c1 be 6a 29 5a 3e 6c 64 e1 3c c0 4e b2 3c
       -0.37815243 0.2130486 0.027513705 0.021766067
000280 13 36 72 3d 44 c9 ec bd bf 11 c2 be 41 fd 0b bf
       0.0591336 -0.11561826 -0.37904164 -0.5468331
000290 bb 11 80 bc 80 a0 07 bf a5 ff 2f bc 3e 6f 3e 3d
       -0.015633455 -0.5297928 -0.010742103 0.046492808
0002a0 00 d1 1d bf 8a f1 54 3d dc 1d 21 bf 7a 40 c8 be
       -0.61647034 0.051988162 -0.62936187 -0.39111692
0002b0 20 a4 31 bf 18 ba 68 be 1d fc 28 bf 30 d4 ea bd
       -0.6939106 -0.22727239 -0.66009694 -0.11466253
0002c0 b8 e9 28 bf 90 1b ee bd b2 f1 e9 3e 9e e7 85 be
       -0.65981627 -0.11626351 0.4569221 -0.26153272
0002d0 cb 98 04 bf 1a f4 14 3d 66 c3 b4 bc db ef 30 bf
       -0.51795644 0.036365606 -0.02206583 -0.6911599
0002e0 bc 98 e2 3c 5f 21 a9 be 1b 1b a8 be 45 d7 da be
       0.02766072 -0.33033273 -0.3283318 -0.42742363
0002f0 88 97 e4 bd a2 a0 af 3d 70 19 0b bf 79 f3 c6 bd
       -0.11161715 0.0857556 -0.5433569 -0.097144075
000300 49 e8 26 bc 40 b9 07 bf f5 68 81 3e a6 75 75 bd
       -0.010187217 -0.53017044 0.25275388 -0.05992665
000310 93 03 63 bc b4 e9 b8 be 92 5d a0 bf 6e 91 46 be
       -0.013855833 -0.361158 -1.2528555 -0.19391415
000320 f8 b9 3c be ec e7 e3 be fb 21 a5 be 8e c0 26 bf
       -0.18430316 -0.4451288 -0.32252488 -0.65137565
000330 c0 52 cf be 85 01 60 3d 77 07 c1 bc 8c c9 23 bf
       -0.4049282 0.05468895 -0.02356313 -0.6397941
000340 04 44 4b be 53 a1 c1 be 61 42 03 3d 48 54 50 be
       -0.19850165 -0.37818393 0.032045726 -0.20344651
000350 3d b7 b6 bc 66 3f a8 3d b0 09 69 3d 41 49 56 be
       -0.022304172 0.08215217 0.056894004 -0.20926382
000360 4b b2 58 3d 4c 16 12 be 82 7a 07 bd 06 f2 0f bf
       0.05290441 -0.14266318 -0.033075817 -0.56228673
000370 ef 09 17 bb db 7e 1e bf c1 f0 a9 be 0e 59 77 be
       -0.0023046692 -0.61912316 -0.33191493 -0.24155065
000380 02 21 e6 bd ec c3 d4 3d 2e cc 33 bc a5 ae 4d bf
       -0.112367645 0.10388932 -0.010973973 -0.8034461
000390 f5 90 39 bf 9d 05 88 be c9 c1 a1 be 2e de 7f bc
       -0.7248681 -0.26566783 -0.3159316 -0.015616937
0003a0 ad 0c 84 be 49 17 c9 bd cc 31 3d be aa 6c 89 3d
       -0.2579092 -0.098188944 -0.18476027 0.06710179
0003b0 41 be 78 be 66 24 bc 3d d6 2f b6 be 80 0c d6 bb
       -0.24291326 0.0918663 -0.3558337 -0.006532252
0003c0 43 69 1a bd 70 ba 33 3e a2 98 a1 bc 9a 56 26 bf
       -0.03769804 0.17551589 -0.019726101 -0.64975893
0003d0 12 1a 18 bf 1c 21 4f 3d 57 fb 67 bf 13 10 1e 3d
       -0.5941478 0.050568685 -0.9061789 0.03858955
0003e0 a3 46 c9 be b8 3e ab bc 6f 89 c0 be f3 50 5c be
       -0.39311704 -0.02090393 -0.37604854 -0.21515255
0003f0 40 c6 c3 be 8b 68 06 bf d6 09 b6 bb 2a 33 0e bf
       -0.3823719 -0.5250327 -0.0055553718 -0.5554682

fc1.bias f4 [128]
000000 ba c8 2f c0 5b 30 15 40 16 56 18 bf 7f 58 1d 40
       -2.7466264 2.3310764 -0.59506357 2.4585264
000010 f0 22 ae b9 05 09 8f ba f9 6a 7d ba ba 12 fb bf
       -0.00033213897 -0.0010912722 -0.0009667124 -1.961509
000020 ff 73 ce ba ec 24 99 ba 4c 48 14 40 81 3a 16 bb
       -0.0015751122 -0.0011683977 2.3169127 -0.0022923055
000030 19 7b e1 b8 b4 49 44 ba 3c bc 10 bf 30 22 98 ba
       -0.00010751765 -0.0007487789 -0.5653722 -0.0011606868
000040 e3 17 8a 3f 9a 36 0b ba 2a 3b 12 c0 28 40 a7 be
       1.078854 -0.00053105655 -2.284861 -0.32666135
000050 04 c9 07 40 80 e2 66 bd 99 b1 bc bd 43 24 c8 bf
       2.121644 -0.05636835 -0.092135616 -1.5636066
000060 5d 00 ec bf 11 0d a0 bf 58 cc c9 bf ac fd 48 c0
       -1.8437611 -1.2503988 -1.5765486 -3.140483
000070 a7 fb 8d ba ef 5f 53 ba f3 86 b7 bf 8d 62 47 ba
       -0.0010832445 -0.00080633064 -1.4338058 -0.0007605933
000080 fe f2 b7 ba 3f 35 88 bf ae 51 18 bb 50 20 5a bd
       -0.0014034209 -1.064125 -0.0023242044 -0.05325347
000090 31 21 4e c0 62 24 0f bf 11 0a 06 40 e6 9b 52 c0
       -3.2207758 -0.5591489 2.0943644 -3.2907653
0000a0 bc a0 03 40 4e e0 21 c0 a5 8b 25 ba f7 81 0e bb
       2.0566854 -2.5293155 -0.0006315059 -0.0021744946
0000b0 78 f8 11 c0 87 08 1a bf 38 4a 02 bb 94 f6 5e c0
       -2.2807903 -0.6016926 -0.0019880664 -3.4838
0000c0 f8 2b b4 bd ac 0c 15 bb 78 9a f6 3f c3 d0 36 bb
       -0.08797449 -0.0022743149 1.926589 -0.0027895428
0000d0 96 71 dd ba ac 3b 1a 40 09 17 d4 ba 89 f6 1b 40
       -0.0016894813 2.409892 -0.0016181181 2.4369223
0000e0 2f 9a fb bf 5b 62 08 40 ff ef 2a bf 01 04 ad bf
       -1.9656428 2.1310031 -0.66772455 -1.3516847
0000f0 b5 58 b6 ba 37 b4 5b ba a0 65 0c bd 6a 48 3f c0
       -0.0013911935 -0.0008381041 -0.034276605 -2.9887948
000100 dc 59 44 c0 8a 87 fd be b9 db 0c 40 01 f1 0a c0
       -3.0679846 -0.4951747 2.2009108 -2.1709597
000110 58 5a 08 40 26 f4 9c be 4a 15 03 c0 0d f9 14 40
       2.1305141 -0.3065502 -2.0481744 2.3277009
000120 d0 7c 08 c0 07 3a 0b c0 12 40 62 c0 15 33 40 c0
       -2.132618 -2.1754167 -3.5351605 -3.0031178
000130 95 1f 3a c0 4c bf 2f c0 90 b5 10 40 84 2d cd bf
       -2.9081776 -2.7460508 2.2610817 -1.6029515
000140 b1 5a 0b 40 0e f5 21 bb af 07 b6 b9 e4 98 0b c0
       2.1774104 -0.0024712714 -0.0003471947 -2.1812067
000150 67 2c 0f c0 54 2e 4b be 8b c1 ab bb c3 ca c0 be
       -2.237085 -0.19841892 -0.005241578 -0.37654695
000160 11 f5 02 bb 3b 13 2e c0 e9 a4 b7 bf 1b 9e fc bd
       -0.0019982497 -2.7199237 -1.4347202 -0.12334844
000170 6a dd b3 bf df 04 bc ba 6b e4 17 40 59 86 91 3e
       -1.4051945 -0.0014344713 2.3733165 0.28422812
000180 68 b8 12 bf ac 3d 13 40 ee d3 cf 3d 69 d3 6d bb
       -0.5731263 2.3006392 0.10147844 -0.003628934
000190 bc 7e 23 bf 00 a5 05 bf 93 ae 14 c0 5e 8f 02 bb
       -0.63865256 -0.52204895 -2.3231552 -0.001992188
0001a0 fc 3b 26 be ae b5 d2 bf 5b b6 23 40 74 78 14 c0
       -0.1623382 -1.6461694 2.558005 -2.3198519
0001b0 06 1c 0a c0 c2 e9 fa b9 51 ab d4 be 02 95 07 bf
       -2.1579604 -0.0004785788 -0.41536954 -0.5296174
0001c0 bf a1 1d 40 53 53 a1 bb c3 22 68 ba e5 be 0a bb
       2.4629972 -0.004923263 -0.00088552776 -0.002117091
0001d0 b7 f9 08 bb aa 6d 29 c0 3e 8e 01 40 0d e9 e9 be
       -0.0020900795 -2.6473184 2.0243068 -0.45685616
0001e0 77 f6 73 c0 96 bf 84 ba 53 1b 0c c0 e2 f6 e9 bf
       -3.811918 -0.0010127898 -2.1891677 -1.8278468
0001f0 15 f1 81 b9 be c9 a0 ba b5 0c 3d ba 5e 64 88 bd
       -0.00024784417 -0.0012267155 -0.00072116713 -0.066597685

fc2.weight f4 [128, 128]
000000 ed c1 1e bc 9d 5a 45 bc c6 5f de bc 7d 00 1a be
       -0.00968979 -0.01204553 -0.027145278 -0.15039249
000010 26 9d e3 bc 5e d3 20 bc d2 c8 30 3d 6e b3 fa 3a
       -0.027784895 -0.009816019 0.043160267 0.001912696
000020 0c 4f c5 3c f6 73 64 3d bf 09 f0 bd 04 7e 95 bc
       0.024085544 0.05577465 -0.11720609 -0.018248565
000030 40 48 fb ba 33 a9 65 3d 45 4a 13 bd 66 5d b0 bd
       -0.0019171312 0.056069564 -0.0359595 -0.08611564
000040 8c 5c 00 bc d0 b7 2b bd 77 1c da bd 34 ab aa bc
       -0.007834565 -0.041923344 -0.106499605 -0.02083359
000050 9f 74 d7 bd 24 a9 9e 3c e3 0e 21 3d e0 1e 01 be
       -0.105202906 0.019367762 0.039320838 -0.12609434
000060 46 53 c2 bd 34 a9 1d bd 6a ac b9 bd b7 68 11 3c
       -0.094885394 -0.038491443 -0.090660885 0.008875064
000070 1d c8 1b 3d 3b f4 dc bd e1 ce 7d bd 55 be 52 ba
       0.03803264 -0.10788771 -0.061964873 -0.0008039226
000080 a3 c4 f0 ba 13 74 60 bc 4e bc 60 bd 7e e9 1f bd
       -0.0018369149 -0.013699549 -0.05486708 -0.039041035
000090 3c d4 e8 bd a2 66 76 3d 8d ba a0 bc 0b 8e 0c bd
       -0.113686055 0.060156472 -0.019620204 -0.03431515
0000a0 08 36 13 be 5a 02 7c bd e3 9d c6 bc 9c 4c ae 3c
       -0.1437608 -0.06152568 -0.024245208 0.021276765
0000b0 d3 ef 1e bc 7e 13 48 3d 7d ad 84 3d 65 4b df bc
       -0.009700733 0.048846714 0.06478403 -0.02725763
0000c0 16 36 d8 bc b5 8a f1 bd 8b a8 2a bd d3 63 84 3d
       -0.026392978 -0.117940344 -0.04166464 0.064643525
0000d0 cd 1d a5 bd e9 5e 8f bc 8e 9c 60 bd 1b 6d 14 be
       -0.08062325 -0.017501311 -0.054836802 -0.14494745
0000e0 39 dd 18 be 6b 28 32 bd 4e d8 8f bd 73 9d d4 bd
       -0.1492814 -0.043495577 -0.07023679 -0.103815936
0000f0 68 ec a6 bd d8 ee cb bd 6d 82 88 3d f7 27 81 3c
       -0.0815056 -0.09957665 0.06665502 0.015766127
000100 6f c8 ab bb 56 84 20 3d a8 b1 52 bd f7 98 27 3c
       -0.0052423994 0.039188705 -0.051438957 0.010229341
000110 4c 5f 43 bd 58 26 43 3c 48 e5 e6 bd 07 0a c9 bd
       -0.047698304 0.011910997 -0.11274201 -0.09816366
000120 95 b5 89 bc 7a fe 68 3d 65 62 f3 bd 1b c1 56 3a
       -0.016810218 0.056883313 -0.11884002 0.0008192227
000130 71 3a 4a bd a4 35 c0 bd e4 5a 1a 3c d0 dd 04 be
       -0.04937214 -0.09385231 0.009421084 -0.1297524
000140 b9 75 c7 bd d0 40 6f bd d4 cb d4 bc 6d 5e b2 bd
       -0.09739251 -0.05841142 -0.0259761 -0.087094165
000150 64 71 9e ba 52 78 22 3d 40 f4 c5 3c 8f 0c 2d bd
       -0.0012088236 0.039665528 0.024164319 -0.042248305
000160 d8 9b b4 bd 90 a1 ca bc 9a 73 d4 bc e8 dc 9c bd
       -0.08818787 -0.024735242 -0.02593403 -0.07659322
000170 4f 9a be bc ae a3 73 bd 87 76 a2 bc 86 9e da bd
       -0.02326694 -0.05948227 -0.019831909 -0.10674767
000180 19 10 62 bd 44 eb 89 bd e9 1c f2 bd 03 6e d5 bd
       -0.055191133 -0.067343265 -0.118219204 -0.10421374
000190 02 75 17 3d 1e 28 e9 bc b5 06 61 3d 33 af c5 3c
       0.03697682 -0.028461512 0.054938037 0.024131393
0001a0 d8 e8 3f bc 8f 1c 83 3c c9 5a 1d bd 28 e8 4c 3d
       -0.011713229 0.016004829 -0.038416658 0.05002609
0001b0 0c f8 2b bd a3 29 53 3d 13 8c c1 bd 9f 08 91 3d
       -0.041984603 0.05155338 -0.09450545 0.070817225
0001c0 e3 ca f8 bd 32 e7 32 3d 11 fe 11 bd bc 46 a1 3c
       -0.121480726 0.043677516 -0.035642687 0.01968705
0001d0 56 96 06 bd dc d6 ea bd a5 58 a6 3c a0 a3 cf 3b
       -0.032858215 -0.114667624 0.02030594 0.0063366443
0001e0 d6 bd df bd 53 90 50 3d f5 db 64 3d a4 33 eb bb
       -0.1092488 0.05091889 0.05587383 -0.007177787
0001f0 8f 3c 31 3d 96 fe dc bd 8e 80 24 bd 4d 53 d1 bc
       0.043270644 -0.10790746 -0.04016166 -0.025552416
000200 2b 5a 1e 3d c8 e8 ce bd 5a 79 e4 bc 35 5c e7 ba
       0.03866021 -0.10102993 -0.027889896 -0.0017651381
000210 02 cd bb bb 33 df 8a 3d ca f5 99 bd cb ea 85 bd
       -0.005731226 0.06780853 -0.07517584 -0.06538924
000220 88 84 ab bc 91 2e b6 bd 35 b8 15 3d 6c 8b 93 bd
       -0.02093722 -0.088956006 0.036552627 -0.07204327
000230 82 fc 65 bd 4d ca aa bd 46 73 b4 bd 70 cd 93 3b
       -0.056149013 -0.08339367 -0.08811049 0.004510574
000240 da 09 f3 bc d9 6f 23 bd 0b e1 94 bc 7f ef 89 3d
       -0.029667784 -0.039901588 -0.018173715 0.067351334
000250 f1 f1 2d bc f6 28 68 3d 91 16 25 3d cd 7c ad bd
       -0.010616765 0.05667969 0.040304724 -0.084710695
000260 0f ae 46 3d de a4 ad 3c bf 22 03 3d 3c 04 72 bd
       0.04850584 0.021196779 0.03201556 -0.05908607
000270 4a 59 1a 3d e6 3a ac 3c 3a c7 92 3c 4d 1a 3c 3c
       0.03768281 0.021024179 0.017917264 0.01148088
000280 2e 18 6f 3d 95 66 95 bb ae 7f c6 bd cb f7 14 bd
       0.05837267 -0.004559348 -0.09692322 -0.036369126
000290 eb 97 5b bc bc 0c 03 bd 92 2f e2 bb 04 a9 13 3d
       -0.013402919 -0.031994566 -0.0069026435 0.036049858
0002a0 27 38 83 bd 3e 74 a2 3c 80 af af bc a1 c2 34 3d
       -0.064071946 0.01983082 -0.02144599 0.044130925
0002b0 93 8a 12 3d 8b 31 83 bd 69 6b ab bd 69 8a 35 bd
       0.035776686 -0.06405934 -0.08370096 -0.04432145
0002c0 80 1c 46 bb 3b 66 06 3d 4b 99 10 3d 93 81 80 3d
       -0.003022939 0.03281234 0.03530244 0.06274714
0002d0 af ac dd bc 53 f5 19 bd 3f fd 40 bd 18 ac 4c bd
       -0.027059881 -0.037587475 -0.047116514 -0.04996881
0002e0 86 99 4a 3d e5 de 90 3c c7 16 a1 bd 0d ee 61 bd
       0.049462818 0.01768441 -0.078656726 -0.055158664
0002f0 ed 1a 65 3c 9d 04 0e bd dc 7a 13 bd a7 3e cd bd
       0.01398347 -0.03467237 -0.03600584 -0.100217156
000300 b4 dd cb bd 76 cb 40 3d 7f 28 b0 3c c9 d0 48 bd
       -0.09954396 0.047069035 0.021503685 -0.049027238
000310 fc aa cd 3c aa d4 08 3d ed cd c4 bd db 18 c2 bd
       0.025105946 0.033405937 -0.0960959 -0.09477397
000320 a3 b1 c7 bd 47 5b dd 3c 43 c2 dd bd 2b 9f 1e bd
       -0.097506784 0.027021063 -0.10828068 -0.038726013
000330 ef fc 1f bd 46 00 3e 3d b8 06 c1 bc 77 f6 8d bd
       -0.039059576 0.04638698 -0.023562774 -0.06931775
000340 fc 2d c5 bd 55 c9 4f bd 92 3a ce bd 7f f2 0d 3d
       -0.096279114 -0.050729115 -0.10069765 0.03465509
000350 38 9f cd bd 60 f4 07 3b 38 97 34 3d d4 86 2c bd
       -0.10040134 0.0020745024 0.044089526 -0.04212077
000360 84 80 bd bc 14 dd 27 3c e8 e8 52 bd 7e 36 72 3d
       -0.02313257 0.01024558 -0.051491648 0.059134
000370 e0 ac c5 bc 40 0f 3f bd 0d 6a c4 bd 89 4d ba 3c
       -0.024130285 -0.046645403 -0.0959054 0.02274205
000380 57 bd b5 3a bf ca 43 bd 47 a6 83 bd ac cf 45 bd
       0.0013865632 -0.047800776 -0.06428199 -0.048293754
000390 50 8a ff bc 98 1b fd 3c 5a 06 1f 3d 1f 32 c2 bd
       -0.031193882 0.030896947 0.038824417 -0.09482216
0003a0 26 98 3c 3d 22 2a 65 3b b3 99 f1 bc de 08 95 3b
       0.046043538 0.003496774 -0.029492235 0.004548176
0003b0 0f 89 7c bd 75 50 52 bd 43 39 45 bd 60 f1 17 bb
       -0.061654147 -0.05134626 -0.048150312 -0.0023184642
0003c0 31 dd da bd b7 c7 ff 3c 97 eb 2a 3d a0 1b 79 3d
       -0.1068672 0.031223161 0.041728582 0.06081736
0003d0 72 47 ee 3c 6c 30 c4 bd b3 3d 0b 3c 2a ef 3a bd
       0.029086802 -0.09579548 0.008498597 -0.04563824
0003e0 63 d5 e1 bd 94 69 06 bd 98 6a d6 3c e2 fb 68 3c
       -0.110270284 -0.03281553 0.026173875 0.01422021
0003f0 69 4a ab bd 40 8e 36 bd 55 9b b9 bd 1c 58 3f 3d
       -0.08363802 -0.044569254 -0.0906283 0.046714887

fc2.bias f4 [128]
000000 7f d3 9a bd 91 03 b3 bd fd 41 f5 bd 9a 29 df bd
       -0.07559871 -0.087409146 -0.11975477 -0.10896607
000010 3b ac 3c ba e8 9a 15 40 d4 db 44 3d ad 07 c5 3b
       -0.0007197295 2.3375797 0.048061207 0.006012878
000020 57 ef 2b 3d 50 0e b7 3e 19 3f e3 bc 7d 5e 19 3f
       0.0419763 0.35753107 -0.027740048 0.599098
000030 25 41 5b 3f e4 58 71 3f 39 03 b9 3e a0 82 a7 bd
       0.8564628 0.9427626 0.3613527 -0.081792116
000040 d8 c2 14 40 20 47 72 3f 68 64 1a 40 d6 d0 0b 40
       2.3243923 0.9463978 2.4123783 2.1846213
000050 d0 04 40 bd 6a e9 51 3d d5 37 5f 3c bf 40 b2 bb
       -0.04687959 0.05124799 0.013624151 -0.0054398472
000060 be f2 13 40 8c 66 05 3f 75 0a cf ba 25 58 17 3d
       2.3116908 0.521096 -0.0015795963 0.036949296
000070 1e 42 57 bd 01 bd b6 3f f5 a5 c8 3c 16 f1 9c 3f
       -0.05255329 1.427643 0.024493197 1.2261074
000080 28 d6 d6 3e 00 ea 9b 3f 9b a3 a0 bd 70 d4 de bd
       0.41960263 1.2180786 -0.07843705 -0.10880363
000090 fc 2a c5 bd 6a bf 39 bd a7 f3 23 3c 38 6c 0f 40
       -0.09627339 -0.045348562 0.010006822 2.2409801
0000a0 86 09 e0 3e ac 6b 9e 3b 4e 9c 87 3e 34 9f 6d 3e
       0.43757266 0.004834613 0.2648644 0.23205262
0000b0 dd 8b ab 3d 77 8b aa 3e fc 73 0b 3c a2 5e 58 bd
       0.08376286 0.33309528 0.00851154 -0.052824624
0000c0 92 75 5e bd 95 bb 03 40 33 e0 3e 3e 6b 45 0d 40
       -0.054311343 2.058324 0.18640213 2.207362
0000d0 9b d5 ec bd f1 76 dd bb 68 f3 0c 40 58 4d f1 bc
       -0.115641795 -0.0067585637 2.2023563 -0.029455826
0000e0 20 ef 61 bc 20 dc 17 40 66 dc f7 3f 9b 11 86 bd
       -0.013789922 2.3728104 1.9364135 -0.06546327
0000f0 da 88 c8 bc c7 5b 6a bd 3f d7 ab 3e 3e ec d9 bc
       -0.024479318 -0.057216432 0.33562657 -0.026601907
000100 47 8f 66 3c 82 7a 92 3d 47 ac 0f 40 4f 2b 96 bd
       0.014072246 0.07152273 2.24489 -0.07332479
000110 5c fb d9 3f c0 8d 80 3f a3 67 1d 40 ef dd 17 40
       1.7029834 1.0043259 2.4594505 2.3729208
000120 c1 3a 00 40 3f 48 3a bd 5f 97 19 40 86 02 16 40
       2.003586 -0.045479055 2.399864 2.343904
000130 c2 0f d2 3c 41 80 18 40 86 96 14 3d f8 35 16 40
       0.02564228 2.382828 0.036276363 2.347044
000140 7a 6c 16 be d8 93 8e bd 4f 4d bf 3f 30 d0 1f 40
       -0.14689818 -0.06961793 1.4945468 2.4970818
000150 c0 93 d3 3f 22 c2 16 40 18 43 08 40 b0 ed 32 3d
       1.6529465 2.355599 2.129095 0.043683708
000160 54 ab 07 40 2a 3b 00 bd 9b 11 1a 3f 6c f6 13 bd
       2.119832 -0.031306423 0.60183114 -0.036123678
000170 4b 17 a6 bd 54 47 4c 3e 7f a1 60 3d 48 01 6e 3d
       -0.081099115 0.19949085 0.054841515 0.05810669
000180 2b e0 04 40 fc e4 a3 3f 8b d7 ad bd 7a a7 5e 3f
       2.0761821 1.2804255 -0.08488377 0.869743
000190 21 59 e3 3c aa 24 c0 3e f0 b8 1b bc ab c3 92 bd
       0.02775246 0.37527972 -0.009504542 -0.07166227
0001a0 e9 a6 bf 3f c4 f4 fd 3f 6e 32 bf bd 31 7b 06 be
       1.4972812 1.9840322 -0.093357906 -0.13132931
0001b0 e5 1f 8a bc 45 53 a1 bd cb 8f 84 3f f0 7c fb bb
       -0.016860912 -0.078772105 1.0356382 -0.007674806
0001c0 22 ac d7 bc 41 ca ca bc 9c 58 89 bc e1 88 87 3c
       -0.026327197 -0.024754645 -0.016765885 0.016544761
0001d0 e0 a8 6d bc 33 e3 5b bc b8 5f 0e be c0 2a 88 3f
       -0.014505595 -0.013420868 -0.13903701 1.0638046
0001e0 ca 56 24 3f fb ac 01 3c 37 b1 da bd db 2e 31 3e
       0.6419493 0.007914777 -0.10678332 0.1730303
0001f0 a8 f3 54 3f 8d 1a c1 bd d7 b6 46 bd 7c 07 04 40
       0.8318429 -0.09428892 -0.048514213 2.0629568

fc3.weight f4 [4, 128]
000000 00 5b 11 3d 19 3a 0c 3c 1c 04 ad 3c d5 e4 87 3d
       0.035487175 0.008558773 0.021120124 0.06635443
000010 c0 8d 68 bc 54 b1 db be f5 16 54 bc dd db f3 bc
       -0.014193952 -0.42908728 -0.0129449265 -0.029767925
000020 b1 19 92 3d 66 6f 65 3a 69 0d 40 bd 92 32 93 3b
       0.071338065 0.00087522564 -0.04688779 0.0044921124
000030 a8 6e 29 3a e1 c6 f7 3c c0 a8 a5 3c 83 13 2f 3d
       0.00064633274 0.0302462 0.020222068 0.042743217
000040 8e ad a0 be 6e 88 8f 3c 98 30 f8 be 91 b7 61 be
       -0.31382412 0.01752111 -0.48474574 -0.22042681
000050 64 5d 98 bb c0 30 f4 bc b8 f5 60 bd 1a e9 6b 3d
       -0.004649805 -0.029808402 -0.054921836 0.05759535
000060 64 e1 b5 be 91 ef 9c 3c 33 b7 e2 ba 7b 4e 89 3c
       -0.35523522 0.019157203 -0.0017297029 0.016761055
000070 ff 2d 83 bd 6e 7f 29 3d b6 4c bc 3c f1 be 49 bd
       -0.064052574 0.041381292 0.022985797 -0.04925436
000080 ee ed 0a 3d 63 9e 42 bd a0 8b c8 3c 34 a4 8f bd
       0.033918314 -0.04751433 0.02448064 -0.07013741
000090 b0 a3 96 3d e6 0a 32 bd fc 03 58 bd 0e 9e ba be
       0.0735544 -0.043467425 -0.052738175 -0.3644871
0000a0 75 c7 cd 3b 0f 25 f4 bc 38 91 21 bd 7b b1 46 3c
       0.0062798806 -0.029802827 -0.039445132 0.012127276
0000b0 80 5b 7c ba 5e b5 4d bc 68 33 06 bc e5 4f d1 3c
       -0.00096266717 -0.012555448 -0.008190967 0.025550792
0000c0 ac 73 46 3d dd d8 65 be 88 93 e4 3c c2 30 7a be
       0.048450157 -0.22446008 0.02790238 -0.24432662
0000d0 f3 f2 8f bc d6 3b 69 3d c9 75 bf be 9f 3a 8a 3c
       -0.017571902 0.05694183 -0.3739455 0.016873656
0000e0 dd 23 b0 bd d9 76 aa be 17 70 c8 bd 8c 65 44 bd
       -0.086005904 -0.332938 -0.097870044 -0.047948405
0000f0 04 b1 4e 3d f3 7c 82 3d 34 3a 86 3c fd 87 8c 3d
       0.050461784 0.063714884 0.016385175 0.06861875
000100 9c fe f7 3b 84 19 5a bd 20 b6 ad be 64 62 9c bd
       0.0075681936 -0.05324699 -0.33928013 -0.07635954
000110 89 4a d7 bd 3e ce 14 bd 36 9c de be 5f 54 d8 be
       -0.10512263 -0.0363295 -0.43478554 -0.4225187
000120 82 5a 6a be cd a3 43 bb 9a 41 c0 be 34 a3 c5 be
       -0.22886088 -0.0029852272 -0.3755005 -0.38601077
000130 6d fd 62 3d 4d f4 ec be b9 39 2a bc 4c 94 ae be
       0.055417467 -0.46280137 -0.010389739 -0.34097517
000140 d4 7b ae bc b4 69 bf bc 1d 3a 44 bc 20 87 02 bf
       -0.02129928 -0.023365833 -0.011976746 -0.50987434
000150 9c 25 ee bc 7f 51 b9 be 7a b5 6b be a3 4a 96 3d
       -0.029070668 -0.3619499 -0.23018447 0.073384546
000160 a5 75 98 be 15 e1 a2 bd 9d ef 1d 3b 1f 14 2f bc
       -0.29777256 -0.07953087 0.002409912 -0.01068595
000170 df e8 60 bd 2e 7a d1 bc 3d 11 9d bd 8a 3c bc 3c
       -0.054909583 -0.025570955 -0.076693036 0.022978086
000180 86 89 55 be c1 5e 0b 3b c7 28 4f bd 8b 0e e2 bc
       -0.20853242 0.0021266195 -0.050575998 -0.027594825
000190 0b 36 09 bd 00 7b bd bb 21 ec 24 bd 7b f9 0c bd
       -0.033498805 -0.005782485 -0.040264253 -0.03441761
0001a0 e8 7c 0f 3d 1f 19 6d be 31 e2 a6 bd 43 8b 51 bd
       0.03503123 -0.23154114 -0.08148611 -0.0511582
0001b0 cf da 8d 3d 4e 71 bf bd 3f 7a 77 bd a6 01 6f bd
       0.069265 -0.09347783 -0.060419317 -0.05835118
0001c0 af 6e f6 3c f4 af a8 3c 42 2c b4 bd fe 7d db bc
       0.030082075 0.020591713 -0.08797504 -0.026793476
0001d0 d6 06 42 bd 6e 89 4c 3d 54 d8 1a bc 15 d1 16 3c
       -0.0473698 0.04993575 -0.009450991 0.0092051225
0001e0 26 0a d1 3b 22 82 cf bc b0 de c8 bc cd 40 a1 bd
       0.0063793836 -0.025330607 -0.024520248 -0.07873688
0001f0 c9 3e 91 3c 33 fb c6 3c 60 dd b3 bd 85 2f 2b be
       0.017730134 0.024289703 -0.08782458 -0.16717346
000200 31 b1 a9 3d be b5 e5 bc c4 a2 59 3d af ec b0 3c
       0.0828575 -0.028040763 0.05313374 0.021597235
000210 a5 95 fb 3c 9c 69 e9 be 54 01 91 bc 03 55 50 3c
       0.030711005 -0.45588386 -0.017700829 0.012715581
000220 f2 53 78 bd bb 93 60 bc 36 f6 69 3d 3b ff 36 3c
       -0.06062693 -0.013707097 0.05711957 0.01116925
000230 5c da 25 3c 16 52 05 bc 0d 73 77 bb 6f d4 cf bd
       0.010122862 -0.008137247 -0.0037757785 -0.1014794
000240 41 2f c4 be 57 61 87 bd 69 2d f2 be da 6e 9b be
       -0.38317302 -0.06610363 -0.4730027 -0.3035801
000250 3e 0e 27 3d 2a 8c 1e 3d 52 83 9a 3d 1e b2 02 ba
       0.040785067 0.03870789 0.075445786 -0.0004985648
000260 e1 0a 58 be 2f 70 8e 3c 8b 34 0d bd 01 a4 fd bc
       -0.210979 0.017387478 -0.034473937 -0.030961992
000270 74 00 d3 bc fa dd 0a be b9 c1 d2 3c f5 ce 88 3b
       -0.025757052 -0.1356124 0.02572714 0.004175062
000280 11 5b 96 bc 5a ed a1 bc 78 04 68 3c 01 b7 81 3c
       -0.01835397 -0.019766498 0.014161222 0.015834333
000290 17 15 0b 3d f8 41 37 bc e3 12 7f bb 8a 94 b4 be
       0.03395566 -0.011185162 -0.003892117 -0.35269576
0002a0 c9 a1 9b 3c 00 ab 75 3b 70 2d 87 3b 30 4a 62 bc
       0.018998044 0.0037485957 0.0041252896 -0.013811633
0002b0 6b df 0a bd 13 83 bb 3c 05 45 04 bd 2a 17 b4 bd
       -0.033904474 0.02288965 -0.032292385 -0.08793481
0002c0 26 aa 8c bd 4b db 49 bd 3b ec 68 bc bd 00 a6 be
       -0.06868391 -0.0492814 -0.014216478 -0.32422438
0002d0 2f 0c 61 3c 90 12 67 bd 7a a8 bb be 3e 55 27 3d
       0.013735815 -0.056414187 -0.36651975 0.040852778
0002e0 be 1f 40 3d e5 f7 c6 be aa cc 30 be ed 5d ca 3d
       0.04690527 -0.38861004 -0.17265573 0.09881196
0002f0 00 b7 58 3d 18 9d 10 3d 74 3e 0a 3c ce d0 6d bb
       0.052908897 0.035306066 0.008437742 -0.0036287787
000300 d3 28 a2 bd 85 e6 6d 3d 6c b9 9e be 6a a1 5a bd
       -0.07917943 0.05808117 -0.3100084 -0.053376593
000310 ea 7f 52 bd 5c c4 90 bc b1 82 d2 be 4e 01 b2 be
       -0.05139152 -0.017671756 -0.41115335 -0.3476662
000320 63 02 3a be b9 7d 17 3c 45 c6 e0 be 8f f6 c5 be
       -0.18164973 0.009246283 -0.43901268 -0.38664672
000330 b5 33 2d 3d b0 4e ce be 61 fc dc bb 89 a1 b5 be
       0.04228564 -0.4029441 -0.006743953 -0.35474804
000340 dc 36 a0 3c 42 20 ab bd 9f bf c5 bc 9d 4e f8 be
       0.019557409 -0.08355762 -0.024139224 -0.48497477
000350 0b 14 bc bc 14 f2 90 be 65 f3 90 be 9f 16 4f 3d
       -0.022958776 -0.2830969 -0.28310695 0.050558683
000360 bf ec b4 be 74 65 3c bb 82 2f 97 bd a8 47 51 bd
       -0.35336873 -0.0028746994 -0.07382108 -0.051093727
000370 32 8a 4c bd ea 90 f1 bc 6d fa 56 3c b1 5e 6d bb
       -0.04993648 -0.029488046 0.01312123 -0.003621977
000380 10 99 91 be 0a d5 2e 3c 00 54 0b bc 28 cb 86 bb
       -0.2843709 0.01067091 -0.008503914 -0.0041135736
000390 66 60 14 bd c1 86 fb 3c 60 39 3c 3b ac d9 30 bd
       -0.036224745 0.030703904 0.0028720722 -0.043176338
0003a0 e2 b9 98 3c fd 73 2d be d1 e8 da bc 63 52 aa bc
       0.018643323 -0.16938777 -0.026722344 -0.020791238
0003b0 90 52 c7 3c f7 b8 4e 3d 20 5c 88 bd 88 30 3b bc
       0.024331361 0.050469365 -0.066581964 -0.011425145
0003c0 10 1b b4 3b a6 72 95 3c 54 e7 01 3c a5 37 31 bc
       0.00549639 0.018243145 0.007928688 -0.010816489
0003d0 68 80 d1 3c 38 0f 7e bd e6 eb b4 bc b5 67 b2 bd
       0.025573924 -0.062026232 -0.022085141 -0.08711187
0003e0 9a 33 63 3c 88 d6 c8 bc 5b 99 b0 3d 53 48 81 3d
       0.013867283 -0.024516359 0.08623 0.06312623
0003f0 cc f5 40 3c 98 46 5a bc 7c 45 80 bd 30 dd 7c be
       0.011777353 -0.013322495 -0.06263253 -0.24693751

fc3.bias f4 [4]
000000 dd 7d 34 c0 b5 4a 35 c0 eb 1b 31 c0 8c ab 36 c0
       -2.820182 -2.8326848 -2.767329 -2.8542204
